mcxn5xxevk/eiq_examples/tflm_kws/cm33_core0/doc/ds_cnn_s_npu.tflite (tflite, 36976 bytes, 2 tensors)

NeutronMicrocode u1 [1544]
0	0x6e	110
1	0x4d	77
2	0x43	67
3	0x64	100
4	0x1b	27
5	0x3f	63
6	0x93	147
7	0x1c	28
8	0xbe	190
9	0x05	5
10	0x00	0
11	0x00	0
12	0x00	0
13	0x00	0
14	0x00	0
15	0x00	0
16	0xbe	190
17	0x05	5
18	0x00	0
19	0x00	0
20	0x08	8
21	0x00	0
22	0x00	0
23	0x00	0
24	0x08	8
25	0x06	6
26	0x00	0
27	0x00	0
28	0x24	36
29	0x84	132
30	0x00	0
31	0x00	0
32	0x01	1
33	0x00	0
34	0x00	0
35	0x00	0
36	0x80	128
37	0x3e	62
38	0x00	0
39	0x00	0
40	0x00	0
41	0x00	0
42	0x00	0
43	0x00	0
44	0x01	1
45	0x00	0
46	0x00	0
47	0x00	0
48	0x01	1
49	0x00	0
50	0x00	0
51	0x00	0
52	0x0c	12
53	0x00	0
54	0x00	0
55	0x00	0
56	0xe3	227
57	0x05	5
58	0x00	0
59	0x00	0
60	0x00	0
61	0x00	0
62	0x00	0
63	0x00	0
64	0x03	3
65	0x03	3
66	0x04	4
67	0x00	0
68	0x01	1
69	0x00	0
70	0x02	2
71	0x42	66
72	0x40	64
73	0x1f	31
74	0x00	0
75	0x00	0
76	0x00	0
77	0x00	0
78	0x00	0
79	0x00	0
80	0x00	0
81	0x00	0
82	0x00	0
83	0x00	0
84	0xea	234
85	0x01	1
86	0x00	0
87	0x00	0
88	0x01	1
89	0x00	0
90	0x00	0
91	0x00	0
92	0x04	4
93	0x00	0
94	0x00	0
95	0x00	0
96	0x44	68
97	0x00	0
98	0x00	0
99	0x00	0
100	0x10	16
101	0x01	1
102	0x09	9
103	0x40	64
104	0x00	0
105	0x00	0
106	0x00	0
107	0x00	0
108	0x05	5
109	0x42	66
110	0x03	3
111	0x05	5
112	0x04	4
113	0x04	4
114	0x01	1
115	0x01	1
116	0x01	1
117	0x00	0
118	0x02	2
119	0x0d	13
120	0x00	0
121	0x00	0
122	0x00	0
123	0x00	0
124	0x40	64
125	0x1f	31
126	0x00	0
127	0x00	0
128	0x84	132
129	0x03	3
130	0x00	0
131	0x00	0
132	0x04	4
133	0x00	0
134	0x00	0
135	0x00	0
136	0x04	4
137	0x03	3
138	0x00	0
139	0x00	0
140	0x01	1
141	0x00	0
142	0x00	0
143	0x00	0
144	0x19	25
145	0x00	0
146	0x00	0
147	0x00	0
148	0x05	5
149	0x00	0
150	0x00	0
151	0x00	0
152	0x40	64
153	0x00	0
154	0x00	0
155	0x00	0
156	0x40	64
157	0x00	0
158	0x00	0
159	0x00	0
160	0x01	1
161	0x00	0
162	0x00	0
163	0x00	0
164	0x31	49
165	0x00	0
166	0x00	0
167	0x00	0
168	0x0a	10
169	0x00	0
170	0x00	0
171	0x00	0
172	0x04	4
173	0x00	0
174	0x00	0
175	0x00	0
176	0x0a	10
177	0x00	0
178	0x00	0
179	0x00	0
180	0x04	4
181	0x00	0
182	0x00	0
183	0x00	0
184	0x02	2
185	0x00	0
186	0x00	0
187	0x00	0
188	0x02	2
189	0x00	0
190	0x00	0
191	0x00	0
192	0x04	4
193	0x00	0
194	0x00	0
195	0x00	0
196	0x01	1
197	0x00	0
198	0x00	0
199	0x00	0
200	0x05	5
201	0x00	0
202	0x00	0
203	0x00	0
204	0x01	1
205	0x00	0
206	0x00	0
207	0x00	0
208	0x01	1
209	0x00	0
210	0x00	0
211	0x00	0
212	0x01	1
213	0x00	0
214	0x00	0
215	0x00	0
216	0x10	16
217	0x01	1
218	0x0f	15
219	0x07	7
220	0x00	0
221	0x00	0
222	0x00	0
223	0x00	0
224	0x00	0
225	0x00	0
226	0x00	0
227	0x00	0
228	0x01	1
229	0x00	0
230	0x00	0
231	0x00	0
232	0x01	1
233	0x00	0
234	0x00	0
235	0x00	0
236	0x44	68
237	0x00	0
238	0x00	0
239	0x00	0
240	0x30	48
241	0x80	128
242	0x00	0
243	0x00	0
244	0x00	0
245	0x00	0
246	0x00	0
247	0x00	0
248	0x00	0
249	0x00	0
250	0x00	0
251	0x00	0
252	0x00	0
253	0x00	0
254	0x00	0
255	0x00	0

NeutronWeights u1 [33828]
0	0x01	1
1	0x00	0
2	0x00	0
3	0x00	0
4	0x6c	108
5	0x80	128
6	0x26	38
7	0x06	6
8	0xcb	203
9	0x0f	15
10	0xf2	242
11	0x17	23
12	0x70	112
13	0x96	150
14	0x0c	12
15	0x81	129
16	0x63	99
17	0x93	147
18	0x6c	108
19	0x12	18
20	0xd6	214
21	0x0e	14
22	0x94	148
23	0x8a	138
24	0x6a	106
25	0x17	23
26	0x20	32
27	0x17	23
28	0x2a	42
29	0x96	150
30	0xa0	160
31	0x12	18
32	0x7d	125
33	0x8e	142
34	0x27	39
35	0x13	19
36	0xa9	169
37	0x13	19
38	0x7c	124
39	0x8e	142
40	0xd6	214
41	0x1a	26
42	0x38	56
43	0x92	146
44	0x94	148
45	0x8f	143
46	0x01	1
47	0x17	23
48	0xc9	201
49	0x8f	143
50	0x40	64
51	0x16	22
52	0x21	33
53	0x13	19
54	0x1b	27
55	0x01	1
56	0x38	56
57	0x1b	27
58	0x0a	10
59	0x96	150
60	0xcb	203
61	0x0f	15
62	0xa3	163
63	0x17	23
64	0xa4	164
65	0x92	146
66	0x3e	62
67	0x16	22
68	0x68	104
69	0x17	23
70	0x1b	27
71	0x01	1
72	0x53	83
73	0x1b	27
74	0xa8	168
75	0x97	151
76	0x2a	42
77	0x17	23
78	0x2f	47
79	0x1a	26
80	0x59	89
81	0x96	150
82	0xda	218
83	0x13	19
84	0x4f	79
85	0x17	23
86	0x60	96
87	0x8b	139
88	0x70	112
89	0x1a	26
90	0x46	70
91	0x9a	154
92	0x76	118
93	0x16	22
94	0xd6	214
95	0x17	23
96	0x30	48
97	0x8f	143
98	0xc1	193
99	0x0e	14
100	0xae	174
101	0x86	134
102	0x44	68
103	0x96	150
104	0x2a	42
105	0x12	18
106	0xfd	253
107	0x92	146
108	0xb1	177
109	0x16	22
110	0x9b	155
111	0x13	19
112	0xd5	213
113	0x16	22
114	0xb7	183
115	0x8e	142
116	0x7e	126
117	0x9a	154
118	0x46	70
119	0x96	150
120	0x6f	111
121	0x0e	14
122	0x63	99
123	0x8e	142
124	0x50	80
125	0x17	23
126	0x40	64
127	0x16	22
128	0x92	146
129	0x13	19
130	0xcc	204
131	0x96	150
132	0x4a	74
133	0x97	151
134	0x9a	154
135	0x92	146
136	0x78	120
137	0x92	146
138	0x24	36
139	0x06	6
140	0xc5	197
141	0x17	23
142	0xdf	223
143	0x13	19
144	0xfc	252
145	0x8a	138
146	0xfb	251
147	0x9a	154
148	0xfd	253
149	0x96	150
150	0x09	9
151	0x8b	139
152	0xd0	208
153	0x96	150
154	0xe4	228
155	0x82	130
156	0x66	102
157	0x17	23
158	0x80	128
159	0x16	22
160	0x41	65
161	0x86	134
162	0xd2	210
163	0x9a	154
164	0xd1	209
165	0x96	150
166	0x88	136
167	0x0f	15
168	0x1c	28
169	0x97	151
170	0xa9	169
171	0x0e	14
172	0x38	56
173	0x16	22
174	0xdc	220
175	0x12	18
176	0xda	218
177	0x8f	143
178	0xde	222
179	0x9a	154
180	0x15	21
181	0x9a	154
182	0xdd	221
183	0x0f	15
184	0x0c	12
185	0x96	150
186	0x40	64
187	0x16	22
188	0x76	118
189	0x12	18
190	0x77	119
191	0x0e	14
192	0x97	151
193	0x96	150
194	0xcb	203
195	0x9a	154
196	0x6e	110
197	0x97	151
198	0x21	33
199	0x12	18
200	0x94	148
201	0x93	147
202	0xce	206
203	0x9b	155
204	0xde	222
205	0x12	18
206	0x26	38
207	0x97	151
208	0x47	71
209	0x93	147
210	0xf0	240
211	0x12	18
212	0xf8	248
213	0x97	151
214	0x9a	154
215	0x00	0
216	0x22	34
217	0x92	146
218	0x0b	11
219	0x9e	158
220	0x39	57
221	0x1a	26
222	0x47	71
223	0x93	147
224	0x62	98
225	0x92	146
226	0x35	53
227	0x12	18
228	0xa3	163
229	0x97	151
230	0x8c	140
231	0x93	147
232	0x41	65
233	0x07	7
234	0x17	23
235	0x9b	155
236	0xce	206
237	0x1a	26
238	0xe2	226
239	0x80	128
240	0x92	146
241	0x8f	143
242	0x42	66
243	0x0e	14
244	0x97	151
245	0x96	150
246	0x99	153
247	0x93	147
248	0x80	128
249	0x12	18
250	0x55	85
251	0x9a	154
252	0x38	56
253	0x1b	27
254	0x70	112
255	0x0a	10
