evkmimxrt1180/eiq_examples/tflm_kws/doc/ds_cnn_s.tflite (tflite, 48848 bytes, 10 tensors)

sequential/batch_normalization/FusedBatchNormV3;sequential/depthwise_conv2d/depthwise;sequential/depthwise_conv2d/BiasAdd;sequential/depthwise_conv2d/BiasAdd/ReadVariableOp/resource1 i1 [1, 10, 4, 64]
000000 07 46 11 37 f0 bb f0 19 bf f0 10 f2 ff fb 2c 64
       7 70 17 55 -16 -69 -16 25 -65 -16 16 -14 -1 -5 44 100
000010 e6 0d e6 46 06 fe f4 2c f8 fe 22 46 0a f8 16 eb
       -26 13 -26 70 6 -2 -12 44 -8 -2 34 70 10 -8 22 -21
000020 97 e3 af 14 f6 da f3 ba e5 6c 1b 07 de f1 81 d7
       -105 -29 -81 20 -10 -38 -13 -70 -27 108 27 7 -34 -15 -127 -41
000030 db 00 06 ff 03 bf ef 52 7f de 10 8a 02 02 0b 05
       -37 0 6 -1 3 -65 -17 82 127 -34 16 -118 2 2 11 5
000040 46 81 d5 68 7d ff f3 23 bf 16 f4 01 2d 0f fc cf
       70 -127 -43 104 125 -1 -13 35 -65 22 -12 1 45 15 -4 -49
000050 d2 49 81 09 2f 39 41 14 5c 37 cb fb fe e4 cb d6
       -46 73 -127 9 47 57 65 20 92 55 -53 -5 -2 -28 -53 -42
000060 bd f2 0b 26 c1 f4 a5 03 02 31 e8 07 ae e4 f8 eb
       -67 -14 11 38 -63 -12 -91 3 2 49 -24 7 -82 -28 -8 -21
000070 14 fc 23 38 f1 c7 0a 8e e7 f9 fc f6 fb 26 3b 1f
       20 -4 35 56 -15 -57 10 -114 -25 -7 -4 -10 -5 38 59 31
000080 e3 26 ed 6d e3 46 27 00 0a e4 57 ef d8 08 cd 23
       -29 38 -19 109 -29 70 39 0 10 -28 87 -17 -40 8 -51 35
000090 f0 39 fb d8 f7 e3 9e 31 50 ff 19 ff 0d 24 d3 31
       -16 57 -5 -40 -9 -29 -98 49 80 -1 25 -1 13 36 -45 49
0000a0 ba 1d 81 14 06 db c7 03 c4 4c de 23 e1 f7 5b d7
       -70 29 -127 20 6 -37 -57 3 -60 76 -34 35 -31 -9 91 -41
0000b0 10 fc ce 20 92 38 cb 7f f1 d4 d2 44 30 4c ec 7f
       16 -4 -50 32 -110 56 -53 127 -15 -44 -46 68 48 76 -20 127
0000c0 81 e4 ab 7f 86 a6 40 d0 c3 b3 f2 f9 81 1a 10 27
       -127 -28 -85 127 -122 -90 64 -48 -61 -77 -14 -7 -127 26 16 39
0000d0 57 08 f3 99 d9 9f ce 9b 24 7f 25 e6 32 0c 3d 18
       87 8 -13 -103 -39 -97 -50 -101 36 127 37 -26 50 12 61 24
0000e0 1c 07 ed c8 10 dc 27 07 d5 f7 d3 4c bf 37 63 e7
       28 7 -19 -56 16 -36 39 7 -43 -9 -45 76 -65 55 99 -25
0000f0 fb ea fb c4 4e 6b 7b f6 32 4e 23 33 d8 1f 18 15
       -5 -22 -5 -60 78 107 123 -10 50 78 35 51 -40 31 24 21

sequential/batch_normalization_1/FusedBatchNormV3;sequential/depthwise_conv2d_1/depthwise;sequential/depthwise_conv2d_1/BiasAdd;sequential/depthwise_conv2d/depthwise;sequential/depthwise_conv2d_1/BiasAdd/ReadVariableOp/resource1 i1 [1, 3, 3, 64]
000000 ef 44 16 0d f7 02 06 00 7f 81 81 37 ea f6 e2 4f
       -17 68 22 13 -9 2 6 0 127 -127 -127 55 -22 -10 -30 79
000010 03 92 93 f2 01 04 fe 33 c1 7a 81 09 8d 05 f6 b8
       3 -110 -109 -14 1 4 -2 51 -63 122 -127 9 -115 5 -10 -72
000020 c8 39 be 0b d9 e0 45 26 bc 7f b4 f5 2d e9 4e 1b
       -56 57 -66 11 -39 -32 69 38 -68 127 -76 -11 45 -23 78 27
000030 0b d1 dd ed a8 28 7f 81 e3 2f ab bf 08 e0 ce 0f
       11 -47 -35 -19 -88 40 127 -127 -29 47 -85 -65 8 -32 -50 15
000040 7f f6 4a 7f 7f 39 0e cd b5 ee e9 81 e2 d3 0c 03
       127 -10 74 127 127 57 14 -51 -75 -18 -23 -127 -30 -45 12 3
000050 26 b7 7f e7 43 da 9f c3 42 53 15 c3 3c fd d8 98
       38 -73 127 -25 67 -38 -97 -61 66 83 21 -61 60 -3 -40 -104
000060 81 b7 81 d1 7f fc fe b1 38 f4 c5 af bb f4 f8 4f
       -127 -73 -127 -47 127 -4 -2 -79 56 -12 -59 -81 -69 -12 -8 79
000070 b0 fe 4d 00 0c fb ee c6 7f f3 0a ea c8 d2 e1 e4
       -80 -2 77 0 12 -5 -18 -58 127 -13 10 -22 -56 -46 -31 -28
000080 38 9d ce f7 08 e3 ba 7f a1 d3 be 63 09 b6 7f f0
       56 -99 -50 -9 8 -29 -70 127 -95 -45 -66 99 9 -74 127 -16
000090 13 f7 eb 81 eb b9 81 01 fd e9 fa 7f 1d c8 7f f0
       19 -9 -21 -127 -21 -71 -127 1 -3 -23 -6 127 29 -56 127 -16
0000a0 f8 81 99 d8 74 34 b5 81 10 bf f4 81 29 0c eb 93
       -8 -127 -103 -40 116 52 -75 -127 16 -65 -12 -127 41 12 -21 -109
0000b0 a6 33 3f ad 20 11 47 98 bf ab 7f 7f 7f 1d f5 bc
       -90 51 63 -83 32 17 71 -104 -65 -85 127 127 127 29 -11 -68
0000c0 cc 7f 0b 01 f9 81 7e f1 24 45 f1 1d ee f8 84 ee
       -52 127 11 1 -7 -127 126 -15 36 69 -15 29 -18 -8 -124 -18
0000d0 14 5b 48 03 35 1d a7 05 da 1f eb 3e 54 df c9 1b
       20 91 72 3 53 29 -89 5 -38 31 -21 62 84 -33 -55 27
0000e0 ee fe e4 f9 9b d5 fd c2 10 f8 7f 05 d6 03 87 6b
       -18 -2 -28 -7 -101 -43 -3 -62 16 -8 127 5 -42 3 -121 107
0000f0 e7 e2 ce 18 da 9a fd ec 3b e0 03 31 1b f1 11 00
       -25 -30 -50 24 -38 -102 -3 -20 59 -32 3 49 27 -15 17 0

sequential/conv2d/Conv2D i1 [64, 1, 1, 64]
000000 d6 e7 2b 0c f8 b0 13 05 2b f5 ff 3c e0 c3 ff cc
       -42 -25 43 12 -8 -80 19 5 43 -11 -1 60 -32 -61 -1 -52
000010 4d 1e fb ee 01 4f c3 24 0c b6 de b6 f3 fb bc 01
       77 30 -5 -18 1 79 -61 36 12 -74 -34 -74 -13 -5 -68 1
000020 f0 3e e0 ed 0f de fc 07 48 21 06 39 37 17 ed ee
       -16 62 -32 -19 15 -34 -4 7 72 33 6 57 55 23 -19 -18
000030 fb fc 00 47 29 2d 00 cc fb ec 24 81 e9 17 cf 0e
       -5 -4 0 71 41 45 0 -52 -5 -20 36 -127 -23 23 -49 14
000040 a5 2e e8 ec 29 dc cf db 02 63 eb 3c 22 f4 40 f9
       -91 46 -24 -20 41 -36 -49 -37 2 99 -21 60 34 -12 64 -7
000050 d7 d5 14 d0 81 34 24 df cb eb d2 c5 03 5b 15 bb
       -41 -43 20 -48 -127 52 36 -33 -53 -21 -46 -59 3 91 21 -69
000060 d9 09 51 23 2f d3 e5 c1 02 bc 44 21 62 16 e7 95
       -39 9 81 35 47 -45 -27 -63 2 -68 68 33 98 22 -25 -107
000070 63 2d a3 3d 1c 77 dd 24 ef 29 fe 09 fb 5d db d0
       99 45 -93 61 28 119 -35 36 -17 41 -2 9 -5 93 -37 -48
000080 4e 02 0e 25 dc 22 81 ec a6 17 9c ea f2 25 da 13
       78 2 14 37 -36 34 -127 -20 -90 23 -100 -22 -14 37 -38 19
000090 1e c0 99 1e 15 b4 0a 09 ec 0f fd 18 00 44 22 b9
       30 -64 -103 30 21 -76 10 9 -20 15 -3 24 0 68 34 -71
0000a0 97 ef d2 3f 39 05 9a 0a 5a ce 17 e9 10 09 f6 ed
       -105 -17 -46 63 57 5 -102 10 90 -50 23 -23 16 9 -10 -19
0000b0 f2 ea 12 f9 d5 0c e0 e1 c9 36 c3 de 1c 10 f8 af
       -14 -22 18 -7 -43 12 -32 -31 -55 54 -61 -34 28 16 -8 -81
0000c0 d0 13 ef 09 38 06 24 10 c8 ca 0a f8 f5 ba 12 b2
       -48 19 -17 9 56 6 36 16 -56 -54 10 -8 -11 -70 18 -78
0000d0 03 d2 f3 13 11 f5 d8 d1 fb 23 ed 19 5b 17 b0 df
       3 -46 -13 19 17 -11 -40 -47 -5 35 -19 25 91 23 -80 -33
0000e0 2e 00 16 f7 1a ad 24 f5 c7 0d d5 14 7f 6b 1a fe
       46 0 22 -9 26 -83 36 -11 -57 13 -43 20 127 107 26 -2
0000f0 34 3b ae 31 2f 15 16 cb c3 d6 0f fd d3 c9 35 00
       52 59 -82 49 47 21 22 -53 -61 -42 15 -3 -45 -55 53 0

sequential/batch_normalization_3/FusedBatchNormV3;sequential/depthwise_conv2d_2/depthwise;sequential/depthwise_conv2d_2/BiasAdd;sequential/depthwise_conv2d/depthwise;sequential/depthwise_conv2d_2/BiasAdd/ReadVariableOp/resource1 i1 [1, 3, 3, 64]
000000 34 db ee 34 8c 7c 7f e6 c1 eb d3 f5 7f 5b cc e6
       52 -37 -18 52 -116 124 127 -26 -63 -21 -45 -11 127 91 -52 -26
000010 c4 93 51 c9 19 54 16 ea 35 03 7f d7 6c e1 fb 7f
       -60 -109 81 -55 25 84 22 -22 53 3 127 -41 108 -31 -5 127
000020 1d c2 f0 9c 0f 11 d1 ce 7f 5d 81 c1 f2 ec 1d 5a
       29 -62 -16 -100 15 17 -47 -50 127 93 -127 -63 -14 -20 29 90
000030 52 08 7a 7f ef ce 22 94 da 3f 81 ec 67 ab 22 0b
       82 8 122 127 -17 -50 34 -108 -38 63 -127 -20 103 -85 34 11
000040 c2 a7 0c 73 16 f3 0e 17 69 7d da fe ba 02 1f 36
       -62 -89 12 115 22 -13 14 23 105 125 -38 -2 -70 2 31 54
000050 49 62 07 f7 e4 69 db 61 06 19 3d 27 7f dd 5e f6
       73 98 7 -9 -28 105 -37 97 6 25 61 39 127 -35 94 -10
000060 dd c1 81 1a 9f 7f 81 d8 20 1b 9f 7f 6f 4c fe d2
       -35 -63 -127 26 -97 127 -127 -40 32 27 -97 127 111 76 -2 -46
000070 9b e7 7f a7 81 64 3f c1 81 cf 67 06 77 da d2 bc
       -101 -25 127 -89 -127 100 63 -63 -127 -49 103 6 119 -38 -46 -68
000080 b3 aa 45 21 5c d9 1d 7f 81 02 f7 0f d8 17 0b e1
       -77 -86 69 33 92 -39 29 127 -127 2 -9 15 -40 23 11 -31
000090 e3 37 96 ee c4 0a 21 bf fe e3 cf 49 e8 c2 19 f3
       -29 55 -106 -18 -60 10 33 -65 -2 -29 -49 73 -24 -62 25 -13
0000a0 46 e9 b9 bc b7 ff 36 81 f2 60 3f b4 31 40 4b d3
       70 -23 -71 -68 -73 -1 54 -127 -14 96 63 -76 49 64 75 -45
0000b0 8d 40 eb 6c 5c 29 02 07 eb 81 62 7f f5 53 a4 df
       -115 64 -21 108 92 41 2 7 -21 -127 98 127 -11 83 -92 -33
0000c0 d7 bb c9 a5 c8 22 ff 2b af e7 25 7f 30 0c e2 7f
       -41 -69 -55 -91 -56 34 -1 43 -81 -25 37 127 48 12 -30 127
0000d0 21 3b 4f 1f 8f 81 a0 dd 81 38 2a 4a 36 f6 d6 33
       33 59 79 31 -113 -127 -96 -35 -127 56 42 74 54 -10 -42 51
0000e0 ff 38 f1 81 1c 24 02 df 19 0b 21 c8 7f 87 07 fd
       -1 56 -15 -127 28 36 2 -33 25 11 33 -56 127 -121 7 -3
0000f0 97 03 d0 0e aa f0 7f ab 9c cc ab 2b 7f d2 e8 14
       -105 3 -48 14 -86 -16 127 -85 -100 -52 -85 43 127 -46 -24 20

sequential/conv2d_1/Conv2D i1 [64, 1, 1, 64]
000000 f8 31 b7 1e 0b cd 3d f5 fd d8 aa 17 d7 19 01 d2
       -8 49 -73 30 11 -51 61 -11 -3 -40 -86 23 -41 25 1 -46
000010 79 f0 4c f1 d6 3b ef 0c 3d 23 f3 e7 0a 25 4c 2b
       121 -16 76 -15 -42 59 -17 12 61 35 -13 -25 10 37 76 43
000020 cc 4e ea ce be e7 56 1c d7 44 dc d6 81 9e 04 4b
       -52 78 -22 -50 -66 -25 86 28 -41 68 -36 -42 -127 -98 4 75
000030 8b 06 4c b8 e3 4d b8 98 d0 d0 a5 13 f8 f2 e1 04
       -117 6 76 -72 -29 77 -72 -104 -48 -48 -91 19 -8 -14 -31 4
000040 3e dc 18 fd 3d 81 39 e5 f1 f4 00 d5 f1 f5 04 c9
       62 -36 24 -3 61 -127 57 -27 -15 -12 0 -43 -15 -11 4 -55
000050 f1 e1 f5 26 56 d5 aa fe 33 a8 b6 3e 11 cc fc 1c
       -15 -31 -11 38 86 -43 -86 -2 51 -88 -74 62 17 -52 -4 28
000060 5a 9a 43 0f 11 f9 d5 c4 aa ef 0c d9 f8 ff 21 eb
       90 -102 67 15 17 -7 -43 -60 -86 -17 12 -39 -8 -1 33 -21
000070 e2 47 09 24 cd 0a f5 f4 da e1 e9 38 f9 b0 5c c9
       -30 71 9 36 -51 10 -11 -12 -38 -31 -23 56 -7 -80 92 -55
000080 04 e8 b9 1a 38 c6 3f 12 eb 33 bf e1 23 81 14 f1
       4 -24 -71 26 56 -58 63 18 -21 51 -65 -31 35 -127 20 -15
000090 e4 32 0d fe 40 09 1a e2 21 05 18 fd ee 0d f2 e1
       -28 50 13 -2 64 9 26 -30 33 5 24 -3 -18 13 -14 -31
0000a0 e2 d1 8e 53 f5 4d 0c c5 09 f0 eb e9 de 01 fc 02
       -30 -47 -114 83 -11 77 12 -59 9 -16 -21 -23 -34 1 -4 2
0000b0 f1 11 2d d3 e3 27 21 cd e1 af eb d3 16 07 11 fa
       -15 17 45 -45 -29 39 33 -51 -31 -81 -21 -45 22 7 17 -6
0000c0 d7 28 d6 26 1a 02 25 d2 e6 ad cd de 07 4c 53 d7
       -41 40 -42 38 26 2 37 -46 -26 -83 -51 -34 7 76 83 -41
0000d0 3d 19 ac e9 08 ef 1f 44 16 25 ef 26 27 d0 58 eb
       61 25 -84 -23 8 -17 31 68 22 37 -17 38 39 -48 88 -21
0000e0 a1 0d f5 d9 d4 c7 3a 03 c9 2b f8 c4 d3 2c 1a 54
       -95 13 -11 -39 -44 -57 58 3 -55 43 -8 -60 -45 44 26 84
0000f0 ea 44 f9 00 05 26 e2 b1 44 d0 02 12 f9 81 ee f6
       -22 68 -7 0 5 38 -30 -79 68 -48 2 18 -7 -127 -18 -10

sequential/batch_normalization_5/FusedBatchNormV3;sequential/depthwise_conv2d_3/depthwise;sequential/depthwise_conv2d_3/BiasAdd;sequential/depthwise_conv2d/depthwise;sequential/depthwise_conv2d_3/BiasAdd/ReadVariableOp/resource1 i1 [1, 3, 3, 64]
000000 71 7f a8 1a 43 7f 6c df 87 d7 f8 dc 7f 56 dd 46
       113 127 -88 26 67 127 108 -33 -121 -41 -8 -36 127 86 -35 70
000010 31 39 c2 21 7f 0c 51 61 97 96 c6 03 56 18 08 f0
       49 57 -62 33 127 12 81 97 -105 -106 -58 3 86 24 8 -16
000020 d5 f2 ee b5 f5 4f 9c 60 0b 81 3f b3 86 06 ab a2
       -43 -14 -18 -75 -11 79 -100 96 11 -127 63 -77 -122 6 -85 -94
000030 53 7f d3 7f af 4b 0f 4a 16 15 35 28 7f 1a e5 cb
       83 127 -45 127 -81 75 15 74 22 21 53 40 127 26 -27 -53
000040 7d 31 ed 04 2d 61 47 d9 27 05 ad eb 4a f0 a3 5d
       125 49 -19 4 45 97 71 -39 39 5 -83 -21 74 -16 -93 93
000050 22 fe 29 55 07 cb 81 09 e9 e0 b0 05 7f 7f 70 2f
       34 -2 41 85 7 -53 -127 9 -23 -32 -80 5 127 127 112 47
000060 2a 81 35 a8 2d 00 d2 00 d8 c0 79 b4 25 df 49 e0
       42 -127 53 -88 45 0 -46 0 -40 -64 121 -76 37 -33 73 -32
000070 7f 72 23 9c 91 4e 40 fd 11 d4 32 ab 74 8b 89 07
       127 114 35 -100 -111 78 64 -3 17 -44 50 -85 116 -117 -119 7
000080 6d 21 28 21 5f e7 da ff 02 14 81 dd 2e 5c ae 3b
       109 33 40 33 95 -25 -38 -1 2 20 -127 -35 46 92 -82 59
000090 0e b0 b1 30 05 8c 15 f2 7f b1 ab dc d9 24 39 29
       14 -80 -79 48 5 -116 21 -14 127 -79 -85 -36 -39 36 57 41
0000a0 40 69 e5 e4 2d f7 f4 7f bd dc 96 d4 63 22 b2 3e
       64 105 -27 -28 45 -9 -12 127 -67 -36 -106 -44 99 34 -78 62
0000b0 0a 62 7f 65 ec 45 46 07 01 1b 7f e8 d7 e8 85 3b
       10 98 127 101 -20 69 70 7 1 27 127 -24 -41 -24 -123 59
0000c0 57 34 55 e1 54 aa 2c 37 9d e3 c4 13 1d f5 81 7b
       87 52 85 -31 84 -86 44 55 -99 -29 -60 19 29 -11 -127 123
0000d0 06 41 a5 52 f7 0d 21 26 d4 11 cd f8 b7 0c 42 15
       6 65 -91 82 -9 13 33 38 -44 17 -51 -8 -73 12 66 21
0000e0 9d be e0 d8 da 1f 11 4a f3 0d 7f f3 0b 5e 29 18
       -99 -66 -32 -40 -38 31 17 74 -13 13 127 -13 11 94 41 24
0000f0 f7 db 26 34 23 56 09 07 10 4b 21 63 55 e5 81 0e
       -9 -37 38 52 35 86 9 7 16 75 33 99 85 -27 -127 14

sequential/conv2d_2/Conv2D i1 [64, 1, 1, 64]
000000 e8 e6 da d1 da ec 08 bc fe fe c4 b0 04 be f6 b3
       -24 -26 -38 -47 -38 -20 8 -68 -2 -2 -60 -80 4 -66 -10 -77
000010 23 eb 16 17 e6 81 11 d0 38 03 da e8 d9 ee 26 f4
       35 -21 22 23 -26 -127 17 -48 56 3 -38 -24 -39 -18 38 -12
000020 04 3d d6 20 f0 fe 1d 2e 0e 06 2b 90 ad e2 b5 26
       4 61 -42 32 -16 -2 29 46 14 6 43 -112 -83 -30 -75 38
000030 bf e4 f6 fc ae f7 03 3c 1f b8 de 0c 90 da f1 38
       -65 -28 -10 -4 -82 -9 3 60 31 -72 -34 12 -112 -38 -15 56
000040 f7 b7 81 b7 02 15 29 0f f8 d4 dc 22 46 d8 e1 e8
       -9 -73 -127 -73 2 21 41 15 -8 -44 -36 34 70 -40 -31 -24
000050 de cf 10 04 16 cd 3b 04 05 ea 3e e1 cf 06 df c6
       -34 -49 16 4 22 -51 59 4 5 -22 62 -31 -49 6 -33 -58
000060 0d 0b c5 db f5 23 fa ed 0b 05 f5 2f fd cd c3 e7
       13 11 -59 -37 -11 35 -6 -19 11 5 -11 47 -3 -51 -61 -25
000070 1d 9a b1 97 fc a7 d9 e7 09 f3 0e e1 a6 c2 c5 04
       29 -102 -79 -105 -4 -89 -39 -25 9 -13 14 -31 -90 -62 -59 4
000080 a4 2b f2 1a f2 43 a9 d4 e8 c5 23 d3 0d 30 f2 cd
       -92 43 -14 26 -14 67 -87 -44 -24 -59 35 -45 13 48 -14 -51
000090 b5 dd d1 a3 f8 19 12 d0 00 f6 be fe 10 e9 0b ba
       -75 -35 -47 -93 -8 25 18 -48 0 -10 -66 -2 16 -23 11 -70
0000a0 81 0b fa 11 ec 20 e4 2f 03 14 0a 1e ab 96 08 27
       -127 11 -6 17 -20 32 -28 47 3 20 10 30 -85 -106 8 39
0000b0 01 d8 30 01 1d eb e4 1a 05 e1 d7 09 06 f7 fc f7
       1 -40 48 1 29 -21 -28 26 5 -31 -41 9 6 -9 -4 -9
0000c0 5c c2 08 bf 93 23 b2 ab b3 de 51 25 4b ec d6 59
       92 -62 8 -65 -109 35 -78 -85 -77 -34 81 37 75 -20 -42 89
0000d0 42 93 37 b9 17 f3 cf 02 a2 af a8 c8 da 0f b0 00
       66 -109 55 -71 23 -13 -49 2 -94 -81 -88 -56 -38 15 -80 0
0000e0 c8 6d f2 cc 1c 47 81 0b d9 f2 c8 a7 0b 02 0e fb
       -56 109 -14 -52 28 71 -127 11 -39 -14 -56 -89 11 2 14 -5
0000f0 2b 16 55 1e ce fb 15 2f 18 e6 3e f3 3f 93 07 b4
       43 22 85 30 -50 -5 21 47 24 -26 62 -13 63 -109 7 -76

sequential/batch_normalization_7/FusedBatchNormV3;sequential/depthwise_conv2d_4/depthwise;sequential/depthwise_conv2d_4/BiasAdd;sequential/depthwise_conv2d/depthwise;sequential/depthwise_conv2d_4/BiasAdd/ReadVariableOp/resource1 i1 [1, 3, 3, 64]
000000 3a 4b 2b fa 3a 6a 81 1f 0c e3 83 65 21 54 10 63
       58 75 43 -6 58 106 -127 31 12 -29 -125 101 33 84 16 99
000010 c8 b2 a4 50 d4 9e 88 dd 9d 9d e6 7f 41 12 d0 27
       -56 -78 -92 80 -44 -98 -120 -35 -99 -99 -26 127 65 18 -48 39
000020 81 07 9a 39 50 4e 7f 25 13 8e 73 e5 b6 7f b7 05
       -127 7 -102 57 80 78 127 37 19 -114 115 -27 -74 127 -73 5
000030 c8 b7 55 50 4f a4 8d 7f af 65 1c 34 15 81 91 bd
       -56 -73 85 80 79 -92 -115 127 -81 101 28 52 21 -127 -111 -67
000040 5c 78 1d 5d 0e 14 11 38 22 0b d6 55 e1 18 17 3a
       92 120 29 93 14 20 17 56 34 11 -42 85 -31 24 23 58
000050 f0 65 b6 45 35 2f 13 2a 81 86 38 3e 54 9a 39 fa
       -16 101 -74 69 53 47 19 42 -127 -122 56 62 84 -102 57 -6
000060 f9 5b cf 4f 6a 83 53 7f 6b b3 7f de f3 63 6f 4a
       -7 91 -49 79 106 -125 83 127 107 -77 127 -34 -13 99 111 74
000070 30 cc 50 72 cc 95 e0 e7 e0 0b 57 6a 7f a2 4a 58
       48 -52 80 114 -52 -107 -32 -25 -32 11 87 106 127 -94 74 88
000080 47 74 2d 2f 68 3d a5 6e e9 a9 81 f6 a5 3b 29 30
       71 116 45 47 104 61 -91 110 -23 -87 -127 -10 -91 59 41 48
000090 f1 81 81 2c b9 83 81 33 f5 44 3e 02 37 7f 7f cb
       -15 -127 -127 44 -71 -125 -127 51 -11 68 62 2 55 127 127 -53
0000a0 43 40 bb ed 5f 76 27 42 52 ac 64 7f 81 1d 70 54
       67 64 -69 -19 95 118 39 66 82 -84 100 127 -127 29 112 84
0000b0 5f dd 54 35 78 47 81 d9 68 f4 7f 09 92 a3 b7 41
       95 -35 84 53 120 71 -127 -39 104 -12 127 9 -110 -93 -73 65
0000c0 3f f5 ee 11 f2 20 9c 2c e4 15 32 dc 07 3e f3 5e
       63 -11 -18 17 -14 32 -100 44 -28 21 50 -36 7 62 -13 94
0000d0 b8 b9 93 1c ce 25 f3 33 c0 d5 c4 3d ec a7 06 0d
       -72 -71 -109 28 -50 37 -13 51 -64 -43 -60 61 -20 -89 6 13
0000e0 f4 28 d8 27 ef 46 55 1f ab e6 e5 a8 d8 e9 9d d6
       -12 40 -40 39 -17 70 85 31 -85 -26 -27 -88 -40 -23 -99 -42
0000f0 33 00 65 22 70 e2 fd 55 ce ef da 4d d6 e5 86 81
       51 0 101 34 112 -30 -3 85 -50 -17 -38 77 -42 -27 -122 -127

sequential/conv2d_3/Conv2D i1 [64, 1, 1, 64]
000000 e1 cc b6 21 12 62 11 07 ec 3e ed 0d f8 0d ca 33
       -31 -52 -74 33 18 98 17 7 -20 62 -19 13 -8 13 -54 51
000010 06 dd ef 01 23 fc b8 c1 07 4d ef 03 e3 fc 9a f8
       6 -35 -17 1 35 -4 -72 -63 7 77 -17 3 -29 -4 -102 -8
000020 ee b5 fa 0b e5 38 81 1e 21 f3 c2 d6 ec 10 43 c0
       -18 -75 -6 11 -27 56 -127 30 33 -13 -62 -42 -20 16 67 -64
000030 e4 17 fc bc f9 c7 f2 c7 14 ef 25 f5 03 d9 3f f6
       -28 23 -4 -68 -7 -57 -14 -57 20 -17 37 -11 3 -39 63 -10
000040 29 1a d5 81 ee 2a 25 fe 05 f4 f9 22 db ec 08 31
       41 26 -43 -127 -18 42 37 -2 5 -12 -7 34 -37 -20 8 49
000050 10 1c c4 1d d0 14 f9 1c b0 1d 2d bf 4d e0 31 f9
       16 28 -60 29 -48 20 -7 28 -80 29 45 -65 77 -32 49 -7
000060 f5 3b 25 9f f1 e3 0e fa f8 05 17 09 05 66 04 3b
       -11 59 37 -97 -15 -29 14 -6 -8 5 23 9 5 102 4 59
000070 7a ea fc 14 cb 4a fc 2a 0e eb 10 1d e5 fd 07 d7
       122 -22 -4 20 -53 74 -4 42 14 -21 16 29 -27 -3 7 -41
000080 13 2d c7 d1 e2 15 e9 e7 09 8b 10 fd 29 1a d9 1c
       19 45 -57 -47 -30 21 -23 -25 9 -117 16 -3 41 26 -39 28
000090 28 a5 ce eb cc 81 e9 20 d0 37 c1 ac cc fd 1f fa
       40 -91 -50 -21 -52 -127 -23 32 -48 55 -63 -84 -52 -3 31 -6
0000a0 38 d2 31 0b ad bd a8 1f e6 f5 23 15 3f e1 28 a6
       56 -46 49 11 -83 -67 -88 31 -26 -11 35 21 63 -31 40 -90
0000b0 dc ad fe 34 12 cf f7 35 4b 1e 0f db 00 e8 1a d3
       -36 -83 -2 52 18 -49 -9 53 75 30 15 -37 0 -24 26 -45
0000c0 ed 12 14 fc cc 0c ff 1e 3c 06 d7 e4 33 e8 07 ea
       -19 18 20 -4 -52 12 -1 30 60 6 -41 -28 51 -24 7 -22
0000d0 f6 e7 0e 33 1c 17 99 3a 37 07 d9 88 10 44 d0 16
       -10 -25 14 51 28 23 -103 58 55 7 -39 -120 16 68 -48 22
0000e0 2b 81 25 3a 70 06 25 f7 1f ee 9f f8 d1 d1 1d fe
       43 -127 37 58 112 6 37 -9 31 -18 -97 -8 -47 -47 29 -2
0000f0 13 d0 1f cb fd 07 dc 93 dc fb 3e 18 0a 33 bd 43
       19 -48 31 -53 -3 7 -36 -109 -36 -5 62 24 10 51 -67 67

sequential/batch_normalization_9/batchnorm/mul_1 i1 [12, 64] scale=0.35195908 zero_point=0
000000 24 c2 2e 07 f3 e7 25 12 f5 eb 4e 1b 02 e5 0d 09
       12.6705265 -21.821463 16.190117 2.4637136 -4.575468 -8.798977 13.022486 6.3352633 -3.8715498 -7.3911405 27.452808 9.502895 0.70391816 -9.502895 4.575468 3.1676316
000010 f5 22 03 32 da dc 40 e7 0d 6d fb cc ea 10 f4 0a
       -3.8715498 11.966609 1.0558772 17.597954 -13.374445 -12.6705265 22.525381 -8.798977 4.575468 38.36354 -1.7597954 -18.301872 -7.7430997 5.6313453 -4.223509 3.5195909
000020 f0 37 2b 43 c8 3b 38 d9 f0 25 09 d2 ee 2a 3a 12
       -5.6313453 19.35775 15.13424 23.581259 -19.70971 20.765585 19.70971 -13.726404 -5.6313453 13.022486 3.1676316 -16.190117 -6.3352633 14.782281 20.413626 6.3352633
000030 0e d9 10 d8 fa e8 ef 23 ff 18 21 1b f1 c6 25 f7
       4.9274273 -13.726404 5.6313453 -14.078363 -2.1117544 -8.447018 -5.9833045 12.318568 -0.35195908 8.447018 11.61465 9.502895 -5.279386 -20.413626 13.022486 -3.1676316
000040 2f cc c5 16 12 e0 05 31 01 00 0e 27 4a 02 ec 30
       16.542076 -18.301872 -20.765585 7.7430997 6.3352633 -11.262691 1.7597954 17.245995 0.35195908 0.0 4.9274273 13.726404 26.044971 0.70391816 -7.0391817 16.894035
000050 2c bc d4 f4 1d 4b 2b 40 2a f6 1c 0a 45 29 d9 db
       15.486199 -23.933218 -15.486199 -4.223509 10.206813 26.39693 15.13424 22.525381 14.782281 -3.5195909 9.854855 3.5195909 24.285177 14.430323 -13.726404 -13.022486
000060 25 ff 1d 1e 07 f9 e3 d7 e8 dd fb 12 3f df fa db
       13.022486 -0.35195908 10.206813 10.558772 2.4637136 -2.4637136 -10.206813 -14.430323 -8.447018 -12.318568 -1.7597954 6.3352633 22.173422 -11.61465 -2.1117544 -13.022486
000070 34 2b 00 f9 17 10 d8 fc cf 48 21 b6 d5 1d 15 dd
       18.301872 15.13424 0.0 -2.4637136 8.095058 5.6313453 -14.078363 -1.4078363 -17.245995 25.341053 11.61465 -26.044971 -15.13424 10.206813 7.3911405 -12.318568
000080 33 e5 2d 15 00 b3 d4 f4 1c 42 dd 08 e1 27 09 26
       17.949913 -9.502895 15.838159 7.3911405 0.0 -27.10085 -15.486199 -4.223509 9.854855 23.2293 -12.318568 2.8156726 -10.910731 13.726404 3.1676316 13.374445
000090 e9 1d d6 c7 e7 2d f9 fa 3b 2a 1a 4c da d4 f5 38
       -8.095058 10.206813 -14.782281 -20.061668 -8.798977 15.838159 -2.4637136 -2.1117544 20.765585 14.782281 9.150936 26.74889 -13.374445 -15.486199 -3.8715498 19.70971
0000a0 10 ca 0c e7 10 dd 3a eb 05 e6 a8 e6 0d 1d 2b 0a
       5.6313453 -19.00579 4.223509 -8.798977 5.6313453 -12.318568 20.413626 -7.3911405 1.7597954 -9.150936 -30.972399 -9.150936 4.575468 10.206813 15.13424 3.5195909
0000b0 e4 aa fb fb fd 0f 0b d7 f5 35 5b 16 f3 d5 2e 04
       -9.854855 -30.26848 -1.7597954 -1.7597954 -1.0558772 5.279386 3.8715498 -14.430323 -3.8715498 18.653831 32.028275 7.7430997 -4.575468 -15.13424 16.190117 1.4078363
0000c0 2b d4 e1 fa 13 c5 11 1a 08 20 05 b0 d4 f2 05 14
       15.13424 -15.486199 -10.910731 -2.1117544 6.6872225 -20.765585 5.9833045 9.150936 2.8156726 11.262691 1.7597954 -28.156727 -15.486199 -4.9274273 1.7597954 7.0391817
0000d0 de f7 f0 b6 ec d7 1f 59 01 fb 0e ce bc 0d 02 1b
       -11.966609 -3.1676316 -5.6313453 -26.044971 -7.0391817 -14.430323 10.910731 31.324358 0.35195908 -1.7597954 4.9274273 -17.597954 -23.933218 4.575468 0.70391816 9.502895
0000e0 07 0e 2a 04 5b 30 1c 2d 0b 42 ea 44 b5 07 e8 f2
       2.4637136 4.9274273 14.782281 1.4078363 32.028275 16.894035 9.854855 15.838159 3.8715498 23.2293 -7.7430997 23.933218 -26.39693 2.4637136 -8.447018 -4.9274273
0000f0 f4 f4 2d 03 22 02 f9 1c cc ea 02 c4 ef 23 0e 11
       -4.223509 -4.223509 15.838159 1.0558772 11.966609 0.70391816 -2.4637136 9.854855 -18.301872 -7.7430997 0.70391816 -21.117544 -5.9833045 12.318568 4.9274273 5.9833045
