mcxn9xxevk/eiq_examples/tflm_cifar10/cm33_core0/doc/cifarnet_quant_int8_npu.tflite (tflite, 94384 bytes, 2 tensors)

NeutronMicrocode u1 [1112]
0	0x6e	110
1	0x4d	77
2	0x43	67
3	0x64	100
4	0x1b	27
5	0x3f	63
6	0x93	147
7	0x1c	28
8	0x04	4
9	0x04	4
10	0x00	0
11	0x00	0
12	0x00	0
13	0x00	0
14	0x00	0
15	0x00	0
16	0x04	4
17	0x04	4
18	0x00	0
19	0x00	0
20	0x08	8
21	0x00	0
22	0x00	0
23	0x00	0
24	0x58	88
25	0x04	4
26	0x00	0
27	0x00	0
28	0x58	88
29	0x67	103
30	0x01	1
31	0x00	0
32	0x01	1
33	0x00	0
34	0x00	0
35	0x00	0
36	0x00	0
37	0xa0	160
38	0x00	0
39	0x00	0
40	0x00	0
41	0x00	0
42	0x00	0
43	0x00	0
44	0x01	1
45	0x00	0
46	0x00	0
47	0x00	0
48	0x01	1
49	0x00	0
50	0x00	0
51	0x00	0
52	0x08	8
53	0x00	0
54	0x00	0
55	0x00	0
56	0x82	130
57	0x01	1
58	0x00	0
59	0x00	0
60	0x00	0
61	0x00	0
62	0x00	0
63	0x00	0
64	0x03	3
65	0x03	3
66	0x04	4
67	0x00	0
68	0x01	1
69	0x00	0
70	0x02	2
71	0x42	66
72	0x00	0
73	0x80	128
74	0x00	0
75	0x00	0
76	0x00	0
77	0x00	0
78	0x00	0
79	0x00	0
80	0x00	0
81	0x00	0
82	0x00	0
83	0x00	0
84	0x00	0
85	0x04	4
86	0x00	0
87	0x00	0
88	0x03	3
89	0x00	0
90	0x00	0
91	0x00	0
92	0x04	4
93	0x00	0
94	0x00	0
95	0x00	0
96	0x00	0
97	0x00	0
98	0x00	0
99	0x00	0
100	0x10	16
101	0x01	1
102	0x09	9
103	0x40	64
104	0x00	0
105	0x00	0
106	0x00	0
107	0x00	0
108	0x05	5
109	0x42	66
110	0x03	3
111	0x05	5
112	0x04	4
113	0x04	4
114	0x01	1
115	0x01	1
116	0x01	1
117	0x00	0
118	0x02	2
119	0x01	1
120	0x00	0
121	0x00	0
122	0x00	0
123	0x00	0
124	0x00	0
125	0x80	128
126	0x00	0
127	0x00	0
128	0x84	132
129	0x00	0
130	0x00	0
131	0x00	0
132	0x04	4
133	0x00	0
134	0x00	0
135	0x00	0
136	0x44	68
137	0x00	0
138	0x00	0
139	0x00	0
140	0x01	1
141	0x00	0
142	0x00	0
143	0x00	0
144	0x20	32
145	0x00	0
146	0x00	0
147	0x00	0
148	0x20	32
149	0x00	0
150	0x00	0
151	0x00	0
152	0x20	32
153	0x00	0
154	0x00	0
155	0x00	0
156	0x20	32
157	0x00	0
158	0x00	0
159	0x00	0
160	0x01	1
161	0x00	0
162	0x00	0
163	0x00	0
164	0x20	32
165	0x00	0
166	0x00	0
167	0x00	0
168	0x20	32
169	0x00	0
170	0x00	0
171	0x00	0
172	0x04	4
173	0x00	0
174	0x00	0
175	0x00	0
176	0x05	5
177	0x00	0
178	0x00	0
179	0x00	0
180	0x05	5
181	0x00	0
182	0x00	0
183	0x00	0
184	0x01	1
185	0x00	0
186	0x00	0
187	0x00	0
188	0x01	1
189	0x00	0
190	0x00	0
191	0x00	0
192	0x02	2
193	0x00	0
194	0x00	0
195	0x00	0
196	0x02	2
197	0x00	0
198	0x00	0
199	0x00	0
200	0x02	2
201	0x00	0
202	0x00	0
203	0x00	0
204	0x02	2
205	0x00	0
206	0x00	0
207	0x00	0
208	0x01	1
209	0x00	0
210	0x00	0
211	0x00	0
212	0x01	1
213	0x00	0
214	0x00	0
215	0x00	0
216	0x10	16
217	0x01	1
218	0x0f	15
219	0x07	7
220	0x00	0
221	0x00	0
222	0x00	0
223	0x00	0
224	0x00	0
225	0x00	0
226	0x00	0
227	0x00	0
228	0x01	1
229	0x00	0
230	0x00	0
231	0x00	0
232	0x01	1
233	0x00	0
234	0x00	0
235	0x00	0
236	0x00	0
237	0x00	0
238	0x00	0
239	0x00	0
240	0x30	48
241	0x80	128
242	0x00	0
243	0x00	0
244	0x00	0
245	0x00	0
246	0x00	0
247	0x00	0
248	0x00	0
249	0x00	0
250	0x00	0
251	0x00	0
252	0x00	0
253	0x00	0
254	0x00	0
255	0x00	0

NeutronWeights u1 [91992]
0	0x01	1
1	0x01	1
2	0x01	1
3	0x00	0
4	0x1f	31
5	0x96	150
6	0xe9	233
7	0x86	134
8	0x99	153
9	0x80	128
10	0x41	65
11	0x8a	138
12	0xbd	189
13	0x8e	142
14	0x83	131
15	0x9a	154
16	0xb7	183
17	0x92	146
18	0x34	52
19	0x9a	154
20	0x55	85
21	0x8e	142
22	0x65	101
23	0x8a	138
24	0xab	171
25	0x8e	142
26	0x0a	10
27	0x96	150
28	0x5a	90
29	0x9a	154
30	0x05	5
31	0x96	150
32	0x8f	143
33	0x9a	154
34	0xb4	180
35	0x92	146
36	0x7e	126
37	0x97	151
38	0x3c	60
39	0x96	150
40	0x86	134
41	0x97	151
42	0x13	19
43	0x8a	138
44	0x8e	142
45	0x8f	143
46	0x3e	62
47	0x9b	155
48	0xc3	195
49	0x93	147
50	0xef	239
51	0x92	146
52	0xfb	251
53	0x87	135
54	0x0f	15
55	0x8b	139
56	0x08	8
57	0x8a	138
58	0x7b	123
59	0x93	147
60	0xe9	233
61	0x8b	139
62	0x45	69
63	0x96	150
64	0x7b	123
65	0x9b	155
66	0xf1	241
67	0x92	146
68	0xa4	164
69	0x4e	78
70	0xca	202
71	0x4a	74
72	0xae	174
73	0x4e	78
74	0x9e	158
75	0x4a	74
76	0x9d	157
77	0x4f	79
78	0x32	50
79	0x4e	78
80	0xee	238
81	0x4e	78
82	0x3f	63
83	0x4e	78
84	0xb1	177
85	0x4e	78
86	0xbf	191
87	0x4a	74
88	0x75	117
89	0x4f	79
90	0x62	98
91	0x53	83
92	0x09	9
93	0x4e	78
94	0x72	114
95	0x4e	78
96	0x4c	76
97	0x4e	78
98	0xa1	161
99	0x4f	79
100	0x54	84
101	0x4e	78
102	0x4f	79
103	0x4e	78
104	0x4d	77
105	0x4e	78
106	0xcc	204
107	0x4b	75
108	0x1f	31
109	0x4f	79
110	0x73	115
111	0x53	83
112	0xc3	195
113	0x4e	78
114	0x33	51
115	0x4f	79
116	0xe9	233
117	0x4a	74
118	0x92	146
119	0x4a	74
120	0x20	32
121	0x4b	75
122	0x24	36
123	0x4a	74
124	0x70	112
125	0x4a	74
126	0xf2	242
127	0x52	82
128	0xcc	204
129	0x53	83
130	0x3b	59
131	0x4f	79
132	0x03	3
133	0x05	5
134	0x81	129
135	0x00	0
136	0x0e	14
137	0x1e	30
138	0x0b	11
139	0x00	0
140	0x06	6
141	0xef	239
142	0xdb	219
143	0x00	0
144	0xfd	253
145	0xf7	247
146	0x04	4
147	0x00	0
148	0xf6	246
149	0x10	16
150	0x07	7
151	0x00	0
152	0xe7	231
153	0x18	24
154	0xd1	209
155	0x00	0
156	0xf1	241
157	0xe5	229
158	0xee	238
159	0x00	0
160	0x1c	28
161	0xe7	231
162	0x21	33
163	0x00	0
164	0x3f	63
165	0x03	3
166	0xa3	163
167	0x00	0
168	0xcc	204
169	0xe8	232
170	0xc6	198
171	0x00	0
172	0xf9	249
173	0xe7	231
174	0x0e	14
175	0x00	0
176	0x0f	15
177	0x0c	12
178	0x13	19
179	0x00	0
180	0x13	19
181	0xff	255
182	0x05	5
183	0x00	0
184	0x08	8
185	0x1a	26
186	0xeb	235
187	0x00	0
188	0xbe	190
189	0xf8	248
190	0xe2	226
191	0x00	0
192	0x14	20
193	0x18	24
194	0x47	71
195	0x00	0
196	0x49	73
197	0x22	34
198	0xc6	198
199	0x00	0
200	0x21	33
201	0x30	48
202	0x34	52
203	0x00	0
204	0xf1	241
205	0x19	25
206	0x30	48
207	0x00	0
208	0x27	39
209	0x1b	27
210	0x27	39
211	0x00	0
212	0x45	69
213	0xcf	207
214	0xe4	228
215	0x00	0
216	0x24	36
217	0x21	33
218	0x23	35
219	0x00	0
220	0xf9	249
221	0x4e	78
222	0x01	1
223	0x00	0
224	0xf9	249
225	0x31	49
226	0x2d	45
227	0x00	0
228	0x16	22
229	0x17	23
230	0xc2	194
231	0x00	0
232	0xe9	233
233	0xef	239
234	0xee	238
235	0x00	0
236	0xf6	246
237	0x09	9
238	0x09	9
239	0x00	0
240	0x20	32
241	0x19	25
242	0x28	40
243	0x00	0
244	0x64	100
245	0xc8	200
246	0xcc	204
247	0x00	0
248	0x1f	31
249	0xf7	247
250	0x52	82
251	0x00	0
252	0x30	48
253	0x73	115
254	0xf2	242
255	0x00	0
