frdmmcxn947/eiq_examples/mpp_camera_persondetect_view_tflm/models/persondetect/persondetect_npu16.tflite (tflite, 484000 bytes, 4 tensors)

NeutronMicrocode u1 [2416]
0	0x6e	110
1	0x4d	77
2	0x43	67
3	0x64	100
4	0x1b	27
5	0x3f	63
6	0x93	147
7	0x1c	28
8	0x18	24
9	0x09	9
10	0x00	0
11	0x00	0
12	0x00	0
13	0x00	0
14	0x00	0
15	0x00	0
16	0x18	24
17	0x09	9
18	0x00	0
19	0x00	0
20	0x10	16
21	0x00	0
22	0x00	0
23	0x00	0
24	0x70	112
25	0x09	9
26	0x00	0
27	0x00	0
28	0xe4	228
29	0xa1	161
30	0x00	0
31	0x00	0
32	0x01	1
33	0x00	0
34	0x00	0
35	0x00	0
36	0x00	0
37	0x80	128
38	0x02	2
39	0x00	0
40	0x00	0
41	0x00	0
42	0x00	0
43	0x00	0
44	0x01	1
45	0x00	0
46	0x00	0
47	0x00	0
48	0x03	3
49	0x00	0
50	0x00	0
51	0x00	0
52	0x11	17
53	0x00	0
54	0x00	0
55	0x00	0
56	0xfa	250
57	0x04	4
58	0x00	0
59	0x00	0
60	0x00	0
61	0x00	0
62	0x00	0
63	0x00	0
64	0x03	3
65	0x05	5
66	0x06	6
67	0x00	0
68	0x01	1
69	0x01	1
70	0x01	1
71	0x00	0
72	0x02	2
73	0x07	7
74	0x00	0
75	0x40	64
76	0x01	1
77	0x00	0
78	0x00	0
79	0x00	0
80	0x00	0
81	0x00	0
82	0x40	64
83	0x00	0
84	0x00	0
85	0x00	0
86	0x00	0
87	0x00	0
88	0x00	0
89	0x00	0
90	0x20	32
91	0x00	0
92	0x00	0
93	0x00	0
94	0x01	1
95	0x00	0
96	0x00	0
97	0x00	0
98	0x40	64
99	0x00	0
100	0x00	0
101	0x00	0
102	0x50	80
103	0x00	0
104	0x00	0
105	0x00	0
106	0x10	16
107	0x00	0
108	0x00	0
109	0x00	0
110	0x10	16
111	0x00	0
112	0x00	0
113	0x00	0
114	0x01	1
115	0x00	0
116	0x00	0
117	0x00	0
118	0x80	128
119	0x00	0
120	0x00	0
121	0x00	0
122	0xa0	160
123	0x00	0
124	0x00	0
125	0x00	0
126	0x03	3
127	0x00	0
128	0x00	0
129	0x00	0
130	0x03	3
131	0x00	0
132	0x00	0
133	0x00	0
134	0x03	3
135	0x00	0
136	0x00	0
137	0x00	0
138	0x02	2
139	0x00	0
140	0x00	0
141	0x00	0
142	0x02	2
143	0x00	0
144	0x00	0
145	0x00	0
146	0x00	0
147	0x00	0
148	0x00	0
149	0x00	0
150	0x00	0
151	0x00	0
152	0x00	0
153	0x00	0
154	0x01	1
155	0x00	0
156	0x00	0
157	0x00	0
158	0x01	1
159	0x00	0
160	0x00	0
161	0x00	0
162	0x01	1
163	0x00	0
164	0x00	0
165	0x00	0
166	0x01	1
167	0x00	0
168	0x00	0
169	0x00	0
170	0x10	16
171	0x01	1
172	0x0f	15
173	0x07	7
174	0x00	0
175	0x00	0
176	0x00	0
177	0x00	0
178	0x00	0
179	0x00	0
180	0x00	0
181	0x00	0
182	0x01	1
183	0x00	0
184	0x00	0
185	0x00	0
186	0x01	1
187	0x00	0
188	0x00	0
189	0x00	0
190	0x80	128
191	0xff	255
192	0xff	255
193	0xff	255
194	0x30	48
195	0x80	128
196	0x00	0
197	0x00	0
198	0x00	0
199	0x00	0
200	0x00	0
201	0x00	0
202	0x00	0
203	0x00	0
204	0x00	0
205	0x00	0
206	0x00	0
207	0x00	0
208	0x00	0
209	0x00	0
210	0x00	0
211	0x00	0
212	0x00	0
213	0x00	0
214	0x05	5
215	0x07	7
216	0x03	3
217	0x05	5
218	0x06	6
219	0x06	6
220	0x01	1
221	0x01	1
222	0x01	1
223	0x00	0
224	0x02	2
225	0x19	25
226	0x00	0
227	0x00	0
228	0x00	0
229	0x00	0
230	0x00	0
231	0x40	64
232	0x01	1
233	0x00	0
234	0x00	0
235	0x03	3
236	0x00	0
237	0x00	0
238	0x80	128
239	0x02	2
240	0x00	0
241	0x00	0
242	0xe0	224
243	0x02	2
244	0x00	0
245	0x00	0
246	0x01	1
247	0x00	0
248	0x00	0
249	0x00	0
250	0x40	64
251	0x00	0
252	0x00	0
253	0x00	0
254	0x50	80
255	0x00	0

NeutronWeights u1 [41444]
0	0xb7	183
1	0x1a	26
2	0xfa	250
3	0x80	128
4	0xb5	181
5	0x0f	15
6	0x1e	30
7	0x9b	155
8	0xf4	244
9	0x86	134
10	0xa1	161
11	0x01	1
12	0x17	23
13	0x0e	14
14	0x1e	30
15	0x1f	31
16	0x22	34
17	0x16	22
18	0x71	113
19	0x0a	10
20	0xe5	229
21	0x17	23
22	0x5d	93
23	0x17	23
24	0xfd	253
25	0x92	146
26	0x6f	111
27	0x17	23
28	0xa6	166
29	0x16	22
30	0xdc	220
31	0x0e	14
32	0x5b	91
33	0x53	83
34	0x84	132
35	0x4f	79
36	0x1d	29
37	0x4a	74
38	0x72	114
39	0x53	83
40	0x1d	29
41	0x4a	74
42	0xeb	235
43	0x4f	79
44	0xe3	227
45	0x57	87
46	0x89	137
47	0x5b	91
48	0x57	87
49	0x4e	78
50	0x0c	12
51	0x52	82
52	0x3a	58
53	0x52	82
54	0x1f	31
55	0x4e	78
56	0xe3	227
57	0x53	83
58	0xc3	195
59	0x4e	78
60	0x89	137
61	0x4f	79
62	0xd4	212
63	0x4a	74
64	0x11	17
65	0x11	17
66	0x18	24
67	0x22	34
68	0x3f	63
69	0x2d	45
70	0x45	69
71	0x7f	127
72	0xb4	180
73	0xbe	190
74	0x7f	127
75	0xcd	205
76	0x42	66
77	0xec	236
78	0xf3	243
79	0x31	49
80	0x01	1
81	0xf0	240
82	0x04	4
83	0x08	8
84	0xcc	204
85	0xc8	200
86	0x88	136
87	0xd6	214
88	0xcc	204
89	0xb4	180
90	0x23	35
91	0xa3	163
92	0xa6	166
93	0x80	128
94	0x8d	141
95	0xe6	230
96	0xdb	219
97	0xde	222
98	0xb6	182
99	0xc3	195
100	0xfb	251
101	0xf2	242
102	0xfa	250
103	0xf5	245
104	0xd0	208
105	0xf1	241
106	0x3c	60
107	0xed	237
108	0x35	53
109	0xdc	220
110	0xcb	203
111	0x17	23
112	0x95	149
113	0xa5	165
114	0x95	149
115	0x03	3
116	0xf7	247
117	0x01	1
118	0x07	7
119	0xe9	233
120	0xd7	215
121	0x00	0
122	0x29	41
123	0x80	128
124	0xda	218
125	0xa6	166
126	0x80	128
127	0xe6	230
128	0x00	0
129	0x03	3
130	0x33	51
131	0x0d	13
132	0xc8	200
133	0xdd	221
134	0xc9	201
135	0x87	135
136	0xf3	243
137	0x0b	11
138	0x08	8
139	0x03	3
140	0x03	3
141	0xc2	194
142	0xd5	213
143	0xe2	226
144	0x96	150
145	0xb9	185
146	0x90	144
147	0xed	237
148	0x40	64
149	0x38	56
150	0x68	104
151	0x37	55
152	0x17	23
153	0x23	35
154	0xe9	233
155	0x00	0
156	0xf3	243
157	0x00	0
158	0xf3	243
159	0x00	0
160	0x1b	27
161	0x2c	44
162	0x25	37
163	0x18	24
164	0x5d	93
165	0x79	121
166	0x32	50
167	0x20	32
168	0xeb	235
169	0x4a	74
170	0xeb	235
171	0x09	9
172	0xe6	230
173	0x10	16
174	0x1a	26
175	0xc8	200
176	0xfb	251
177	0xf9	249
178	0xff	255
179	0x07	7
180	0xd8	216
181	0x95	149
182	0xfc	252
183	0xf0	240
184	0x8c	140
185	0x0c	12
186	0xaf	175
187	0xc0	192
188	0xc0	192
189	0x00	0
190	0x1a	26
191	0xda	218
192	0xc3	195
193	0x80	128
194	0xe8	232
195	0xde	222
196	0xed	237
197	0xee	238
198	0xf2	242
199	0xee	238
200	0x0f	15
201	0x0f	15
202	0xed	237
203	0x17	23
204	0xa1	161
205	0xa1	161
206	0x17	23
207	0xc2	194
208	0xef	239
209	0xe7	231
210	0x73	115
211	0x6a	106
212	0xea	234
213	0xf7	247
214	0xf7	247
215	0xef	239
216	0xd1	209
217	0xdd	221
218	0x97	151
219	0xd7	215
220	0xe6	230
221	0xda	218
222	0xf3	243
223	0xe6	230
224	0x0a	10
225	0x4d	77
226	0x18	24
227	0x07	7
228	0xb3	179
229	0x91	145
230	0xd3	211
231	0xfa	250
232	0x08	8
233	0xf5	245
234	0xed	237
235	0x10	16
236	0x80	128
237	0x8a	138
238	0x10	16
239	0xe2	226
240	0xf0	240
241	0xf1	241
242	0x6a	106
243	0x5c	92
244	0x34	52
245	0x7f	127
246	0x0e	14
247	0x09	9
248	0x40	64
249	0xd7	215
250	0xef	239
251	0x57	87
252	0x1a	26
253	0x00	0
254	0x00	0
255	0x0d	13

NeutronMicrocode u1 [2248]
0	0x6e	110
1	0x4d	77
2	0x43	67
3	0x64	100
4	0x1b	27
5	0x3f	63
6	0x93	147
7	0x1c	28
8	0x66	102
9	0x08	8
10	0x00	0
11	0x00	0
12	0x00	0
13	0x00	0
14	0x00	0
15	0x00	0
16	0x66	102
17	0x08	8
18	0x00	0
19	0x00	0
20	0x18	24
21	0x00	0
22	0x00	0
23	0x00	0
24	0xc8	200
25	0x08	8
26	0x00	0
27	0x00	0
28	0x40	64
29	0xa5	165
30	0x06	6
31	0x00	0
32	0x01	1
33	0x00	0
34	0x00	0
35	0x00	0
36	0x00	0
37	0x30	48
38	0x02	2
39	0x00	0
40	0x00	0
41	0x00	0
42	0x00	0
43	0x00	0
44	0x03	3
45	0x00	0
46	0x00	0
47	0x00	0
48	0x03	3
49	0x00	0
50	0x00	0
51	0x00	0
52	0x18	24
53	0x00	0
54	0x00	0
55	0x00	0
56	0xe0	224
57	0x1c	28
58	0x00	0
59	0x00	0
60	0x00	0
61	0x00	0
62	0x00	0
63	0x00	0
64	0x03	3
65	0x03	3
66	0x08	8
67	0x00	0
68	0x03	3
69	0x00	0
70	0x02	2
71	0x55	85
72	0x00	0
73	0x00	0
74	0x00	0
75	0x00	0
76	0x00	0
77	0x00	0
78	0x00	0
79	0x00	0
80	0x00	0
81	0x00	0
82	0x00	0
83	0x00	0
84	0x50	80
85	0x00	0
86	0x00	0
87	0x00	0
88	0x40	64
89	0x00	0
90	0x00	0
91	0x00	0
92	0x40	64
93	0x01	1
94	0x00	0
95	0x00	0
96	0x10	16
97	0x01	1
98	0x01	1
99	0x40	64
100	0x20	32
101	0x00	0
102	0x01	1
103	0x00	0
104	0x05	5
105	0x55	85
106	0x03	3
107	0x03	3
108	0x08	8
109	0x01	1
110	0x03	3
111	0x00	0
112	0x02	2
113	0x55	85
114	0x40	64
115	0x00	0
116	0x00	0
117	0x00	0
118	0x00	0
119	0x00	0
120	0x00	0
121	0x00	0
122	0x00	0
123	0x00	0
124	0x00	0
125	0x00	0
126	0x50	80
127	0x00	0
128	0x00	0
129	0x00	0
130	0x80	128
131	0x00	0
132	0x00	0
133	0x00	0
134	0x40	64
135	0x01	1
136	0x00	0
137	0x00	0
138	0x10	16
139	0x01	1
140	0x01	1
141	0x40	64
142	0x20	32
143	0x00	0
144	0x01	1
145	0x00	0
146	0x05	5
147	0x55	85
148	0x03	3
149	0x03	3
150	0x08	8
151	0x02	2
152	0x03	3
153	0x00	0
154	0x02	2
155	0x55	85
156	0xc0	192
157	0x00	0
158	0x00	0
159	0x00	0
160	0x00	0
161	0x00	0
162	0x00	0
163	0x00	0
164	0x00	0
165	0x00	0
166	0x00	0
167	0x00	0
168	0x50	80
169	0x00	0
170	0x00	0
171	0x00	0
172	0x80	128
173	0x00	0
174	0x00	0
175	0x00	0
176	0x40	64
177	0x01	1
178	0x00	0
179	0x00	0
180	0x10	16
181	0x01	1
182	0x01	1
183	0x40	64
184	0x20	32
185	0x00	0
186	0x01	1
187	0x00	0
188	0x05	5
189	0x55	85
190	0x03	3
191	0x05	5
192	0x08	8
193	0x08	8
194	0x03	3
195	0x03	3
196	0x03	3
197	0x00	0
198	0x02	2
199	0x25	37
200	0x00	0
201	0xf0	240
202	0x00	0
203	0x00	0
204	0x00	0
205	0x00	0
206	0x00	0
207	0x00	0
208	0x04	4
209	0x04	4
210	0x00	0
211	0x00	0
212	0x04	4
213	0x00	0
214	0x00	0
215	0x00	0
216	0x04	4
217	0x02	2
218	0x00	0
219	0x00	0
220	0x01	1
221	0x00	0
222	0x00	0
223	0x00	0
224	0x08	8
225	0x00	0
226	0x00	0
227	0x00	0
228	0x0a	10
229	0x00	0
230	0x00	0
231	0x00	0
232	0x00	0
233	0x01	1
234	0x00	0
235	0x00	0
236	0x00	0
237	0x01	1
238	0x00	0
239	0x00	0
240	0x01	1
241	0x00	0
242	0x00	0
243	0x00	0
244	0x08	8
245	0x00	0
246	0x00	0
247	0x00	0
248	0x0a	10
249	0x00	0
250	0x00	0
251	0x00	0
252	0x40	64
253	0x01	1
254	0x00	0
255	0x00	0

NeutronWeights u1 [435520]
0	0x01	1
1	0x01	1
2	0x01	1
3	0x01	1
4	0x1e	30
5	0x9e	158
6	0x67	103
7	0x9e	158
8	0x21	33
9	0x97	151
10	0x03	3
11	0x9a	154
12	0x6c	108
13	0xa6	166
14	0xce	206
15	0x9f	159
16	0x03	3
17	0x9e	158
18	0x1c	28
19	0x9f	159
20	0x90	144
21	0xa6	166
22	0x66	102
23	0xa2	162
24	0xf9	249
25	0x9f	159
26	0xff	255
27	0x9a	154
28	0x0c	12
29	0x9e	158
30	0xc6	198
31	0xa3	163
32	0xd9	217
33	0x1f	31
34	0x1d	29
35	0xa3	163
36	0x49	73
37	0xa2	162
38	0x72	114
39	0xa3	163
40	0xa3	163
41	0x9a	154
42	0x6c	108
43	0x9f	159
44	0x04	4
45	0xa3	163
46	0x0d	13
47	0x16	22
48	0xaa	170
49	0x97	151
50	0xb3	179
51	0xa6	166
52	0x2a	42
53	0x9e	158
54	0x88	136
55	0x9f	159
56	0xcd	205
57	0x9e	158
58	0xef	239
59	0x8e	142
60	0x88	136
61	0x1a	26
62	0x72	114
63	0xa2	162
64	0xa3	163
65	0x9e	158
66	0xfb	251
67	0x23	35
68	0x67	103
69	0xa3	163
70	0xfc	252
71	0x9b	155
72	0xf3	243
73	0x9b	155
74	0x69	105
75	0x17	23
76	0x6c	108
77	0xa3	163
78	0x43	67
79	0xa6	166
80	0x5c	92
81	0xa6	166
82	0x4c	76
83	0xa3	163
84	0x96	150
85	0x9b	155
86	0x32	50
87	0xa2	162
88	0xb5	181
89	0x9f	159
90	0x4e	78
91	0x9f	159
92	0x24	36
93	0x9f	159
94	0x9c	156
95	0x97	151
96	0x56	86
97	0x9b	155
98	0xdb	219
99	0xa3	163
100	0x66	102
101	0xa2	162
102	0x03	3
103	0x1f	31
104	0x1a	26
105	0x9f	159
106	0x7b	123
107	0xa2	162
108	0x03	3
109	0xa3	163
110	0xc4	196
111	0x96	150
112	0x4e	78
113	0x97	151
114	0xea	234
115	0x9e	158
116	0xfd	253
117	0x97	151
118	0xf1	241
119	0x9e	158
120	0x0c	12
121	0x82	130
122	0x28	40
123	0xa2	162
124	0xbc	188
125	0xa6	166
126	0x2d	45
127	0xa3	163
128	0x36	54
129	0xa6	166
130	0xb0	176
131	0xa2	162
132	0x15	21
133	0x9a	154
134	0xc4	196
135	0x9a	154
136	0xaa	170
137	0x96	150
138	0x77	119
139	0x9a	154
140	0xb3	179
141	0x9e	158
142	0xa3	163
143	0x9f	159
144	0x4c	76
145	0x9e	158
146	0xbc	188
147	0xa2	162
148	0x65	101
149	0x9f	159
150	0x9f	159
151	0x0f	15
152	0x5a	90
153	0xa2	162
154	0xa0	160
155	0xa6	166
156	0x8e	142
157	0x13	19
158	0x6f	111
159	0xa6	166
160	0x3e	62
161	0x9b	155
162	0xbe	190
163	0x93	147
164	0x2a	42
165	0x9e	158
166	0x77	119
167	0x16	22
168	0xe9	233
169	0x9b	155
170	0xe2	226
171	0x93	147
172	0x92	146
173	0x9a	154
174	0xa8	168
175	0x8f	143
176	0x3e	62
177	0xa2	162
178	0x44	68
179	0xa2	162
180	0x62	98
181	0x9f	159
182	0x4f	79
183	0x9a	154
184	0x07	7
185	0x9e	158
186	0xa7	167
187	0x9e	158
188	0xfa	250
189	0x9e	158
190	0x46	70
191	0x1a	26
192	0x99	153
193	0x13	19
194	0x1f	31
195	0x1a	26
196	0x5a	90
197	0x9e	158
198	0xad	173
199	0x9f	159
200	0xd3	211
201	0x9e	158
202	0x4c	76
203	0x1b	27
204	0x40	64
205	0x9e	158
206	0x59	89
207	0xa2	162
208	0x03	3
209	0x9b	155
210	0x0b	11
211	0x9a	154
212	0xad	173
213	0x1a	26
214	0xb9	185
215	0xae	174
216	0xcf	207
217	0x9f	159
218	0xfa	250
219	0x9e	158
220	0xc9	201
221	0x9b	155
222	0x58	88
223	0xa2	162
224	0x7b	123
225	0xa6	166
226	0x5a	90
227	0x1f	31
228	0x4c	76
229	0xa3	163
230	0x75	117
231	0x9e	158
232	0x1a	26
233	0x9e	158
234	0xcc	204
235	0xa2	162
236	0x70	112
237	0xa2	162
238	0xb1	177
239	0x9e	158
240	0x0a	10
241	0x97	151
242	0xc3	195
243	0x9e	158
244	0x70	112
245	0x97	151
246	0x3d	61
247	0xa2	162
248	0x97	151
249	0x9a	154
250	0x0e	14
251	0x9e	158
252	0xae	174
253	0x9e	158
254	0x3f	63
255	0x9b	155
