frdmmcxn947/eiq_examples/mpp_camera_persondetect_view_tflm/models/persondetect/persondetect.tflite (tflite, 471824 bytes, 30 tensors)

fuse_attr_69 i1 [1, 5, 5, 256] scale=0.027471155 zero_point=0
00000000: 00fe f602 fcff 1dfc f803 fcfd f7f9 0004
00000010: fee2 ff10 0f05 01fc f9ff f2fe 07f9 0d06
00000020: fcf7 08fc fcf1 16fe 1506 fe12 0d02 04fc
00000030: fa1e ff06 fb1a 02fb 1403 07fe 0706 f004
00000040: 0c0d 1de7 030c 0707 ed00 100f f1fb fcf6
00000050: 0b09 0b0b 02fb dbfc 0508 fd0b fafe fbfb
00000060: 1b16 ff01 00fd 0403 0c03 010a fd15 05f6
00000070: 2800 07ef 0305 1dfd fe05 060a fdfe e203
00000080: 0e01 09f5 fc04 0809 0206 e6ff fe01 00f8
00000090: fffb f402 edfa f825 f4fb 0304 10ec fb01
000000a0: 1b10 fb24 dd0c 14e7 fe01 f002 0427 0905
000000b0: fa01 17fb f412 fafd 0802 180c fbf9 05e9
000000c0: fb02 0000 fefd f5f9 e901 08fb f2e2 e9fc
000000d0: 0601 eaed f9f7 1efc 050e 0406 fafe f6fa
000000e0: 0efe 0df6 1515 05f1 fc11 e3f5 fa04 08f5
000000f0: fd02 19f9 01fe 00fe f709 0508 14fb f5fa
0.0 -0.05494231 -0.27471155 0.05494231 -0.10988462 -0.027471155 0.7966635 -0.10988462
-0.21976924 0.082413465 -0.10988462 -0.082413465 -0.2472404 -0.19229808 0.0 0.10988462
-0.05494231 -0.82413465 -0.027471155 0.43953848 0.41206732 0.13735577 0.027471155 -0.10988462
-0.19229808 -0.027471155 -0.38459617 -0.05494231 0.19229808 -0.19229808 0.357125 0.16482693
-0.10988462 -0.2472404 0.21976924 -0.10988462 -0.10988462 -0.41206732 0.6043654 -0.05494231
0.5768943 0.16482693 -0.05494231 0.4944808 0.357125 0.05494231 0.10988462 -0.10988462
-0.16482693 0.82413465 -0.027471155 0.16482693 -0.13735577 0.71425 0.05494231 -0.13735577
0.5494231 0.082413465 0.19229808 -0.05494231 0.19229808 0.16482693 -0.43953848 0.10988462
0.32965386 0.357125 0.7966635 -0.6867789 0.082413465 0.32965386 0.19229808 0.19229808
-0.5219519 0.0 0.43953848 0.41206732 -0.41206732 -0.13735577 -0.10988462 -0.27471155
0.3021827 0.2472404 0.3021827 0.3021827 0.05494231 -0.13735577 -1.0164328 -0.10988462
0.13735577 0.21976924 -0.082413465 0.3021827 -0.16482693 -0.05494231 -0.13735577 -0.13735577
0.74172115 0.6043654 -0.027471155 0.027471155 0.0 -0.082413465 0.10988462 0.082413465
0.32965386 0.082413465 0.027471155 0.27471155 -0.082413465 0.5768943 0.13735577 -0.27471155
1.0988462 0.0 0.19229808 -0.46700963 0.082413465 0.13735577 0.7966635 -0.082413465
-0.05494231 0.13735577 0.16482693 0.27471155 -0.082413465 -0.05494231 -0.82413465 0.082413465
0.38459617 0.027471155 0.2472404 -0.3021827 -0.10988462 0.10988462 0.21976924 0.2472404
0.05494231 0.16482693 -0.71425 -0.027471155 -0.05494231 0.027471155 0.0 -0.21976924
-0.027471155 -0.13735577 -0.32965386 0.05494231 -0.5219519 -0.16482693 -0.21976924 1.0164328
-0.32965386 -0.13735577 0.082413465 0.10988462 0.43953848 -0.5494231 -0.13735577 0.027471155
0.74172115 0.43953848 -0.13735577 0.9889616 -0.9614904 0.32965386 0.5494231 -0.6867789
-0.05494231 0.027471155 -0.43953848 0.05494231 0.10988462 1.071375 0.2472404 0.13735577
-0.16482693 0.027471155 0.63183653 -0.13735577 -0.32965386 0.4944808 -0.16482693 -0.082413465
0.21976924 0.05494231 0.6593077 0.32965386 -0.13735577 -0.19229808 0.13735577 -0.63183653
-0.13735577 0.05494231 0.0 0.0 -0.05494231 -0.082413465 -0.3021827 -0.19229808
-0.63183653 0.027471155 0.21976924 -0.13735577 -0.38459617 -0.82413465 -0.63183653 -0.10988462
0.16482693 0.027471155 -0.6043654 -0.5219519 -0.19229808 -0.2472404 0.82413465 -0.10988462
0.13735577 0.38459617 0.10988462 0.16482693 -0.16482693 -0.05494231 -0.27471155 -0.16482693
0.38459617 -0.05494231 0.357125 -0.27471155 0.5768943 0.5768943 0.13735577 -0.41206732
-0.10988462 0.46700963 -0.7966635 -0.3021827 -0.16482693 0.10988462 0.21976924 -0.3021827
-0.082413465 0.05494231 0.6867789 -0.19229808 0.027471155 -0.05494231 0.0 -0.05494231
-0.2472404 0.2472404 0.13735577 0.21976924 0.5494231 -0.13735577 -0.3021827 -0.16482693

fuse_attr_78 i1 [4, 1, 1, 256] scale=0.018541303 zero_point=0
00000000: eb01 ed1c f2ea fd00 00ee 02ff 0000 fe0d
00000010: f501 ff00 0400 e41a 1701 0001 0001 02f1
00000020: fc1b fd00 0309 f6ed ffdd 0200 0309 05ec
00000030: ff01 ff04 0012 0000 1400 ef00 ff0d 04fd
00000040: ff05 00f7 00e8 fd12 ff01 02ec f4ef ff00
00000050: ff07 0401 1700 0816 0afa ea01 fd00 f202
00000060: 09f7 0004 f706 0000 0404 f6eb f9ff f9fa
00000070: 0308 00fb f111 fe00 0102 d700 00eb edde
00000080: 14fb 00fe 0906 0004 ebff 0b12 0004 f5ff
00000090: ef00 04ff f800 0e05 fafa 0303 fe0c 10ee
000000a0: eaff 0101 16f0 faf2 edfd 1601 01fe 00fe
000000b0: 06eb 0d05 eb01 0101 0fed ff01 ff02 05f9
000000c0: fffd ff1a 0100 ee0f 02e8 fd07 fb0e fffb
000000d0: 00fe edee fd00 03ff fffe 0201 fe01 fe03
000000e0: 0007 01f9 1901 0001 1c01 00fe 02e5 03f7
000000f0: f500 0009 05fb fc11 0000 eb00 ed11 02fc
-0.38936734 0.018541303 -0.35228476 0.51915646 -0.25957823 -0.40790865 -0.055623908 0.0
0.0 -0.33374345 0.037082605 -0.018541303 0.0 0.0 -0.037082605 0.24103694
-0.20395432 0.018541303 -0.018541303 0.0 0.07416521 0.0 -0.51915646 0.48207387
0.42644995 0.018541303 0.0 0.018541303 0.0 0.018541303 0.037082605 -0.27811953
-0.07416521 0.5006152 -0.055623908 0.0 0.055623908 0.16687173 -0.18541303 -0.35228476
-0.018541303 -0.64894557 0.037082605 0.0 0.055623908 0.16687173 0.09270652 -0.37082607
-0.018541303 0.018541303 -0.018541303 0.07416521 0.0 0.33374345 0.0 0.0
0.37082607 0.0 -0.31520215 0.0 -0.018541303 0.24103694 0.07416521 -0.055623908
-0.018541303 0.09270652 0.0 -0.16687173 0.0 -0.44499126 -0.055623908 0.33374345
-0.018541303 0.018541303 0.037082605 -0.37082607 -0.22249563 -0.31520215 -0.018541303 0.0
-0.018541303 0.12978911 0.07416521 0.018541303 0.42644995 0.0 0.14833042 0.40790865
0.18541303 -0.111247815 -0.40790865 0.018541303 -0.055623908 0.0 -0.25957823 0.037082605
0.16687173 -0.16687173 0.0 0.07416521 -0.16687173 0.111247815 0.0 0.0
0.07416521 0.07416521 -0.18541303 -0.38936734 -0.12978911 -0.018541303 -0.12978911 -0.111247815
0.055623908 0.14833042 0.0 -0.09270652 -0.27811953 0.31520215 -0.037082605 0.0
0.018541303 0.037082605 -0.7601934 0.0 0.0 -0.38936734 -0.35228476 -0.6304043
0.37082607 -0.09270652 0.0 -0.037082605 0.16687173 0.111247815 0.0 0.07416521
-0.38936734 -0.018541303 0.20395432 0.33374345 0.0 0.07416521 -0.20395432 -0.018541303
-0.31520215 0.0 0.07416521 -0.018541303 -0.14833042 0.0 0.25957823 0.09270652
-0.111247815 -0.111247815 0.055623908 0.055623908 -0.037082605 0.22249563 0.29666084 -0.33374345
-0.40790865 -0.018541303 0.018541303 0.018541303 0.40790865 -0.29666084 -0.111247815 -0.25957823
-0.35228476 -0.055623908 0.40790865 0.018541303 0.018541303 -0.037082605 0.0 -0.037082605
0.111247815 -0.38936734 0.24103694 0.09270652 -0.38936734 0.018541303 0.018541303 0.018541303
0.27811953 -0.35228476 -0.018541303 0.018541303 -0.018541303 0.037082605 0.09270652 -0.12978911
-0.018541303 -0.055623908 -0.018541303 0.48207387 0.018541303 0.0 -0.33374345 0.27811953
0.037082605 -0.44499126 -0.055623908 0.12978911 -0.09270652 0.25957823 -0.018541303 -0.09270652
0.0 -0.037082605 -0.35228476 -0.33374345 -0.055623908 0.0 0.055623908 -0.018541303
-0.018541303 -0.037082605 0.037082605 0.018541303 -0.037082605 0.018541303 -0.037082605 0.055623908
0.0 0.12978911 0.018541303 -0.12978911 0.46353257 0.018541303 0.0 0.018541303
0.51915646 0.018541303 0.0 -0.037082605 0.037082605 -0.5006152 0.055623908 -0.16687173
-0.20395432 0.0 0.0 0.16687173 0.09270652 -0.09270652 -0.07416521 0.31520215
0.0 0.0 -0.38936734 0.0 -0.35228476 0.31520215 0.037082605 -0.07416521

fuse_attr_63 i1 [128, 1, 1, 64] scale=0.0058082407 zero_point=0
00000000: 00ee eefa 28fe 19f2 fbfd f800 f803 fa12
00000010: e402 0102 06fc 07e4 f5fc 04fd 0e11 00f3
00000020: f5f4 06fe 1011 ee00 0610 e9fc 010c f208
00000030: 09ff f20f f809 f901 ffd3 e7f9 180e fbfa
00000040: faee 1c11 02e0 df21 f3d9 2bf2 0afb 05ed
00000050: 0806 03f9 0707 f005 1007 f007 01fe 0208
00000060: f0fa e80a fd02 f9fe 051b 0021 f503 f213
00000070: f706 180a 100a 0ffe e4f2 f901 ff12 fa13
00000080: 02e8 15f3 0af4 1ce6 dfda fb0d e5f4 f4eb
00000090: faf4 effe f1ee f8ef effe fefd f333 f804
000000a0: fcf8 fbf1 0b01 cde3 041a 071d ed01 fafc
000000b0: 0016 f4ef fd05 1df8 0c03 1cf2 ea0a f4e5
000000c0: eae9 0e15 1008 1e0d 020a f80b 01f7 cbf9
000000d0: e9ec f701 f0f7 e80c 00f6 e921 e7e0 27f5
000000e0: fa00 e9fa f503 ef01 0210 f3ef 10ec f11c
000000f0: 0d0d 9bf9 0dd1 0b06 07e4 f919 12f9 0e15
0.0 -0.104548335 -0.104548335 -0.034849443 0.23232964 -0.0116164815 0.14520602 -0.08131537
-0.029041205 -0.017424721 -0.046465926 0.0 -0.046465926 0.017424721 -0.034849443 0.104548335
-0.16263074 0.0116164815 0.0058082407 0.0116164815 0.034849443 -0.023232963 0.040657684 -0.16263074
-0.06389065 -0.023232963 0.023232963 -0.017424721 0.08131537 0.09874009 0.0 -0.07550713
-0.06389065 -0.069698885 0.034849443 -0.0116164815 0.09293185 0.09874009 -0.104548335 0.0
0.034849443 0.09293185 -0.13358954 -0.023232963 0.0058082407 0.069698885 -0.08131537 0.046465926
0.052274168 -0.0058082407 -0.08131537 0.08712361 -0.046465926 0.052274168 -0.040657684 0.0058082407
-0.0058082407 -0.26137084 -0.14520602 -0.040657684 0.13939777 0.08131537 -0.029041205 -0.034849443
-0.034849443 -0.104548335 0.16263074 0.09874009 0.0116164815 -0.1858637 -0.19167194 0.19167194
-0.07550713 -0.22652139 0.24975435 -0.08131537 0.05808241 -0.029041205 0.029041205 -0.11035658
0.046465926 0.034849443 0.017424721 -0.040657684 0.040657684 0.040657684 -0.09293185 0.029041205
0.09293185 0.040657684 -0.09293185 0.040657684 0.0058082407 -0.0116164815 0.0116164815 0.046465926
-0.09293185 -0.034849443 -0.13939777 0.05808241 -0.017424721 0.0116164815 -0.040657684 -0.0116164815
0.029041205 0.1568225 0.0 0.19167194 -0.06389065 0.017424721 -0.08131537 0.11035658
-0.052274168 0.034849443 0.13939777 0.05808241 0.09293185 0.05808241 0.08712361 -0.0116164815
-0.16263074 -0.08131537 -0.040657684 0.0058082407 -0.0058082407 0.104548335 -0.034849443 0.11035658
0.0116164815 -0.13939777 0.12197305 -0.07550713 0.05808241 -0.069698885 0.16263074 -0.15101425
-0.19167194 -0.22071315 -0.029041205 0.07550713 -0.1568225 -0.069698885 -0.069698885 -0.12197305
-0.034849443 -0.069698885 -0.09874009 -0.0116164815 -0.08712361 -0.104548335 -0.046465926 -0.09874009
-0.09874009 -0.0116164815 -0.0116164815 -0.017424721 -0.07550713 0.29622027 -0.046465926 0.023232963
-0.023232963 -0.046465926 -0.029041205 -0.08712361 0.06389065 0.0058082407 -0.29622027 -0.16843899
0.023232963 0.15101425 0.040657684 0.16843899 -0.11035658 0.0058082407 -0.034849443 -0.023232963
0.0 0.1277813 -0.069698885 -0.09874009 -0.017424721 0.029041205 0.16843899 -0.046465926
0.069698885 0.017424721 0.16263074 -0.08131537 -0.1277813 0.05808241 -0.069698885 -0.1568225
-0.1277813 -0.13358954 0.08131537 0.12197305 0.09293185 0.046465926 0.17424722 0.07550713
0.0116164815 0.05808241 -0.046465926 0.06389065 0.0058082407 -0.052274168 -0.30783677 -0.040657684
-0.13358954 -0.11616482 -0.052274168 0.0058082407 -0.09293185 -0.052274168 -0.13939777 0.069698885
0.0 -0.05808241 -0.13358954 0.19167194 -0.14520602 -0.1858637 0.22652139 -0.06389065
-0.034849443 0.0 -0.13358954 -0.034849443 -0.06389065 0.017424721 -0.09874009 0.0058082407
0.0116164815 0.09293185 -0.07550713 -0.09874009 0.09293185 -0.11616482 -0.08712361 0.16263074
0.07550713 0.07550713 -0.5866323 -0.040657684 0.07550713 -0.2729873 0.06389065 0.034849443
0.040657684 -0.16263074 -0.040657684 0.14520602 0.104548335 -0.040657684 0.08131537 0.12197305

fuse_attr_80 i1 [1, 1, 1, 256] scale=0.00039155307 zero_point=0
00000000: 74e5 c067 a8dc fd08 909e 03d9 3ea1 5356
00000010: a554 bed1 8d25 a1df 7c9e 7218 298b 32fc
00000020: aad4 4b3b 1c4d 6d27 9a13 2acc 73b9 0e85
00000030: 1202 5488 c0fe 15be 7b79 87a8 9aa8 32da
00000040: 2ec3 e74e 09cd 9d55 bf9a ab0a 6bec 9307
00000050: cfc6 f3ca ffa6 1f69 498e 6f71 41dc a291
00000060: 8948 efee cce1 77bf 749f 775b 5300 80fd
00000070: 9e77 8c66 997d 5989 3e0c 1feb a5a8 2670
00000080: 5de8 183f 7113 eeb9 ab55 68bc 7aa4 7c67
00000090: 3c70 2313 74b9 08f2 eace 8de8 292c 8f18
000000a0: f8e0 553f 5645 9947 b3a8 7612 1630 dd68
000000b0: 333f 8e15 483b 4b83 c46d f001 89bc c2a3
000000c0: 0ade 5ead e813 be9f 399b b2bb 81d2 9036
000000d0: 9bf1 a026 b755 d23d c0ce abdf 1f5c f98d
000000e0: a1b7 ea6c f45d c40a 3106 fa3f 31da 7da7
000000f0: dde8 ce64 0f08 7a33 08a9 f0ef 739f a8fb
0.045420155 -0.010571932 -0.025059396 0.040329967 -0.03445667 -0.014095911 -0.0011746592 0.0031324246
-0.043853942 -0.0383722 0.0011746592 -0.015270569 0.02427629 -0.03719754 0.032498904 0.033673562
-0.03563133 0.032890458 -0.025842503 -0.018402994 -0.045028605 0.014487464 -0.03719754 -0.012921251
0.04855258 -0.0383722 0.04463705 0.009397274 0.016053677 -0.04581171 0.019577654 -0.0015662123
-0.033673562 -0.017228335 0.02936648 0.023101632 0.010963486 0.030149586 0.042679284 0.015270569
-0.039938413 0.007439508 0.016445229 -0.02036076 0.045028605 -0.027800268 0.005481743 -0.048161026
0.0070479554 0.00078310614 0.032890458 -0.046986368 -0.025059396 -0.00078310614 0.008222614 -0.025842503
0.048161026 0.04737792 -0.04737792 -0.03445667 -0.039938413 -0.03445667 0.019577654 -0.014879016
0.018011441 -0.023884738 -0.009788827 0.030541139 0.0035239777 -0.019969206 -0.038763754 0.03328201
-0.025450949 -0.039938413 -0.03328201 0.0039155306 0.04189618 -0.007831061 -0.042679284 0.0027408714
-0.0191861 -0.022710077 -0.00509019 -0.021143865 -0.00039155307 -0.035239775 0.012138145 0.04111307
0.028583374 -0.04463705 0.043462392 0.044245496 0.025450949 -0.014095911 -0.036805987 -0.043462392
-0.046594813 0.028191822 -0.0066564023 -0.0070479554 -0.02036076 -0.012138145 0.046594813 -0.025450949
0.045420155 -0.037980646 0.046594813 0.03563133 0.032498904 0.0 -0.050118793 -0.0011746592
-0.0383722 0.046594813 -0.045420155 0.039938413 -0.040329967 0.048944134 0.034848224 -0.046594813
0.02427629 0.004698637 0.012138145 -0.008222614 -0.03563133 -0.03445667 0.014879016 0.043853942
0.036414437 -0.009397274 0.009397274 0.024667844 0.044245496 0.007439508 -0.0070479554 -0.027800268
-0.03328201 0.03328201 0.04072152 -0.026625609 0.047769476 -0.036022883 0.04855258 0.040329967
0.023493184 0.043853942 0.013704358 0.007439508 0.045420155 -0.027800268 0.0031324246 -0.005481743
-0.008614168 -0.019577654 -0.045028605 -0.009397274 0.016053677 0.017228335 -0.044245496 0.009397274
-0.0031324246 -0.012529698 0.03328201 0.024667844 0.033673562 0.027017161 -0.040329967 0.027800268
-0.030149586 -0.03445667 0.046203263 0.0070479554 0.008614168 0.018794548 -0.013704358 0.04072152
0.019969206 0.024667844 -0.04463705 0.008222614 0.028191822 0.023101632 0.02936648 -0.048944134
-0.023493184 0.042679284 -0.006264849 0.00039155307 -0.046594813 -0.026625609 -0.02427629 -0.036414437
0.0039155306 -0.0133128045 0.036805987 -0.032498904 -0.009397274 0.007439508 -0.025842503 -0.037980646
0.022318525 -0.03954686 -0.030541139 -0.027017161 -0.04972724 -0.018011441 -0.043853942 0.021143865
-0.03954686 -0.005873296 -0.037589096 0.014879016 -0.028583374 0.03328201 -0.018011441 0.023884738
-0.025059396 -0.019577654 -0.03328201 -0.012921251 0.012138145 0.036022883 -0.0027408714 -0.045028605
-0.03719754 -0.028583374 -0.008614168 0.04228773 -0.004698637 0.036414437 -0.023493184 0.0039155306
0.0191861 0.0023493185 -0.0023493185 0.024667844 0.0191861 -0.014879016 0.048944134 -0.034848224
-0.013704358 -0.009397274 -0.019577654 0.03915531 0.005873296 0.0031324246 0.047769476 0.019969206
0.0031324246 -0.034065116 -0.006264849 -0.0066564023 0.045028605 -0.037980646 -0.03445667 -0.0019577653

fuse_attr_67 i1 [1, 5, 5, 256] scale=0.054575197 zero_point=0
00000000: f6fd f1f3 0bff f0f9 0200 02fa 0102 f6fc
00000010: fc01 f9fc 05f7 0008 fb00 fd01 fa03 fcfc
00000020: 0609 06f9 1205 170e f8f5 0709 fb02 ff05
00000030: 0103 f912 0513 0700 1101 1201 0300 04ff
00000040: fffe f6f9 0204 04fe f606 fb00 fdf4 0103
00000050: fe02 edf4 00fd ee00 fdfa 040d fe0d 0502
00000060: f8ee 01ff 0400 09ff 13fa feff 0023 fbff
00000070: 09fd 0600 07fc 07fe 00f6 0107 01fe f60e
00000080: 03f8 f5f7 ff05 f6fa fb07 0906 0dff fb01
00000090: 0000 03f5 0912 0401 fc03 fffb 01f0 00f4
000000a0: 0014 fc03 04fb 00ff 05f1 fcfb 1104 feff
000000b0: fde9 0fed fafd f8fe 01ff fcff 01f5 0c1c
000000c0: 03fe 00fe 00f9 f409 01fe 0cf5 f903 0701
000000d0: f7ff fe0b fd0a f102 ff0a fffd f8f7 0102
000000e0: 161a 0103 f705 04f2 0210 0313 fd01 1b13
000000f0: 0300 f7f7 020d f7fc 00fc fd01 f0fe fdfc
-0.545752 -0.16372558 -0.81862795 -0.70947754 0.6003272 -0.054575197 -0.87320316 -0.38202637
0.109150395 0.0 0.109150395 -0.32745117 0.054575197 0.109150395 -0.545752 -0.21830079
-0.21830079 0.054575197 -0.38202637 -0.21830079 0.272876 -0.49117678 0.0 0.43660158
-0.272876 0.0 -0.16372558 0.054575197 -0.32745117 0.16372558 -0.21830079 -0.21830079
0.32745117 0.49117678 0.32745117 -0.38202637 0.98235357 0.272876 1.2552296 0.76405275
-0.43660158 -0.6003272 0.38202637 0.49117678 -0.272876 0.109150395 -0.054575197 0.272876
0.054575197 0.16372558 -0.38202637 0.98235357 0.272876 1.0369288 0.38202637 0.0
0.92777836 0.054575197 0.98235357 0.054575197 0.16372558 0.0 0.21830079 -0.054575197
-0.054575197 -0.109150395 -0.545752 -0.38202637 0.109150395 0.21830079 0.21830079 -0.109150395
-0.545752 0.32745117 -0.272876 0.0 -0.16372558 -0.65490234 0.054575197 0.16372558
-0.109150395 0.109150395 -1.0369288 -0.65490234 0.0 -0.16372558 -0.98235357 0.0
-0.16372558 -0.32745117 0.21830079 0.70947754 -0.109150395 0.70947754 0.272876 0.109150395
-0.43660158 -0.98235357 0.054575197 -0.054575197 0.21830079 0.0 0.49117678 -0.054575197
1.0369288 -0.32745117 -0.109150395 -0.054575197 0.0 1.9101319 -0.272876 -0.054575197
0.49117678 -0.16372558 0.32745117 0.0 0.38202637 -0.21830079 0.38202637 -0.109150395
0.0 -0.545752 0.054575197 0.38202637 0.054575197 -0.109150395 -0.545752 0.76405275
0.16372558 -0.43660158 -0.6003272 -0.49117678 -0.054575197 0.272876 -0.545752 -0.32745117
-0.272876 0.38202637 0.49117678 0.32745117 0.70947754 -0.054575197 -0.272876 0.054575197
0.0 0.0 0.16372558 -0.6003272 0.49117678 0.98235357 0.21830079 0.054575197
-0.21830079 0.16372558 -0.054575197 -0.272876 0.054575197 -0.87320316 0.0 -0.65490234
0.0 1.091504 -0.21830079 0.16372558 0.21830079 -0.272876 0.0 -0.054575197
0.272876 -0.81862795 -0.21830079 -0.272876 0.92777836 0.21830079 -0.109150395 -0.054575197
-0.16372558 -1.2552296 0.81862795 -1.0369288 -0.32745117 -0.16372558 -0.43660158 -0.109150395
0.054575197 -0.054575197 -0.21830079 -0.054575197 0.054575197 -0.6003272 0.65490234 1.5281055
0.16372558 -0.109150395 0.0 -0.109150395 0.0 -0.38202637 -0.65490234 0.49117678
0.054575197 -0.109150395 0.65490234 -0.6003272 -0.38202637 0.16372558 0.38202637 0.054575197
-0.49117678 -0.054575197 -0.109150395 0.6003272 -0.16372558 0.545752 -0.81862795 0.109150395
-0.054575197 0.545752 -0.054575197 -0.16372558 -0.43660158 -0.49117678 0.054575197 0.109150395
1.2006544 1.4189551 0.054575197 0.16372558 -0.49117678 0.272876 0.21830079 -0.76405275
0.109150395 0.87320316 0.16372558 1.0369288 -0.16372558 0.054575197 1.4735303 1.0369288
0.16372558 0.0 -0.49117678 -0.49117678 0.109150395 0.70947754 -0.49117678 -0.21830079
0.0 -0.21830079 -0.16372558 0.054575197 -0.87320316 -0.109150395 -0.16372558 -0.21830079

fuse_attr_53 i1 [16, 1, 1, 16] scale=0.010076139 zero_point=0
00000000: 07f7 03ea fefd 0600 fffc 0502 fa00 981f
00000010: aedc 03fa fd2d 2003 ee05 fdec 270b fdfe
00000020: fcfe fdf5 0203 0b04 fd15 06fe ef00 04f9
00000030: 05fc 1b0f 03fc fc0a 05f6 0404 0fff ee20
00000040: 0b05 02fe 6ee6 0480 cdf7 e6d5 fcfd fff3
00000050: 03f8 09db f7f7 0cfd 0100 5ff9 f604 524d
00000060: fcfe 50f6 0105 f8ff fbfd 1c00 fcfc 4bf4
00000070: d91c 0905 f51b eb08 02ff f9fe ef0c 02ff
00000080: e915 fd0a d83d fa16 690b 0171 fbd6 0002
00000090: 0dfd 20fa e8f4 0efa 0e1b 070b 030a ea32
000000a0: 060c ea17 08f0 f80c 04f5 0607 0003 f6f6
000000b0: 04ec b828 fa02 f507 051c 0e01 0508 31d3
000000c0: faf6 0004 fcfb f801 fb04 01fd fc2d 0200
000000d0: 081f ff18 e6e4 bc08 fc09 ecfc 1103 03f7
000000e0: 0009 ea06 fd0a fe01 06e4 0806 0702 dc00
000000f0: fd37 38ea 2d2c 07e2 0812 0113 37fe 17ce
0.07053298 -0.09068525 0.030228417 -0.22167507 -0.020152278 -0.030228417 0.060456835 0.0
-0.010076139 -0.040304556 0.050380696 0.020152278 -0.060456835 0.0 -1.0479184 0.31236032
-0.8262434 -0.362741 0.030228417 -0.060456835 -0.030228417 0.45342627 0.32243645 0.030228417
-0.1813705 0.050380696 -0.030228417 -0.20152278 0.39296943 0.110837534 -0.030228417 -0.020152278
-0.040304556 -0.020152278 -0.030228417 -0.110837534 0.020152278 0.030228417 0.110837534 0.040304556
-0.030228417 0.21159892 0.060456835 -0.020152278 -0.17129436 0.0 0.040304556 -0.07053298
0.050380696 -0.040304556 0.27205575 0.15114209 0.030228417 -0.040304556 -0.040304556 0.10076139
0.050380696 -0.10076139 0.040304556 0.040304556 0.15114209 -0.010076139 -0.1813705 0.32243645
0.110837534 0.050380696 0.020152278 -0.020152278 1.1083753 -0.2619796 0.040304556 -1.2897458
-0.5138831 -0.09068525 -0.2619796 -0.43327397 -0.040304556 -0.030228417 -0.010076139 -0.1309898
0.030228417 -0.08060911 0.09068525 -0.37281716 -0.09068525 -0.09068525 0.12091367 -0.030228417
0.010076139 0.0 0.9572332 -0.07053298 -0.10076139 0.040304556 0.8262434 0.7758627
-0.040304556 -0.020152278 0.8060911 -0.10076139 0.010076139 0.050380696 -0.08060911 -0.010076139
-0.050380696 -0.030228417 0.2821319 0.0 -0.040304556 -0.040304556 0.7557104 -0.12091367
-0.39296943 0.2821319 0.09068525 0.050380696 -0.110837534 0.27205575 -0.21159892 0.08060911
0.020152278 -0.010076139 -0.07053298 -0.020152278 -0.17129436 0.12091367 0.020152278 -0.010076139
-0.2317512 0.21159892 -0.030228417 0.10076139 -0.40304556 0.61464447 -0.060456835 0.22167507
1.0579946 0.110837534 0.010076139 1.1386037 -0.050380696 -0.42319784 0.0 0.020152278
0.1309898 -0.030228417 0.32243645 -0.060456835 -0.24182734 -0.12091367 0.14106596 -0.060456835
0.14106596 0.27205575 0.07053298 0.110837534 0.030228417 0.10076139 -0.22167507 0.50380695
0.060456835 0.12091367 -0.22167507 0.2317512 0.08060911 -0.16121823 -0.08060911 0.12091367
0.040304556 -0.110837534 0.060456835 0.07053298 0.0 0.030228417 -0.10076139 -0.10076139
0.040304556 -0.20152278 -0.725482 0.40304556 -0.060456835 0.020152278 -0.110837534 0.07053298
0.050380696 0.2821319 0.14106596 0.010076139 0.050380696 0.08060911 0.4937308 -0.45342627
-0.060456835 -0.10076139 0.0 0.040304556 -0.040304556 -0.050380696 -0.08060911 0.010076139
-0.050380696 0.040304556 0.010076139 -0.030228417 -0.040304556 0.45342627 0.020152278 0.0
0.08060911 0.31236032 -0.010076139 0.24182734 -0.2619796 -0.2821319 -0.68517745 0.08060911
-0.040304556 0.09068525 -0.20152278 -0.040304556 0.17129436 0.030228417 0.030228417 -0.09068525
0.0 0.09068525 -0.22167507 0.060456835 -0.030228417 0.10076139 -0.020152278 0.010076139
0.060456835 -0.2821319 0.08060911 0.060456835 0.07053298 0.020152278 -0.362741 0.0
-0.030228417 0.55418766 0.5642638 -0.22167507 0.45342627 0.44335014 0.07053298 -0.30228418
0.08060911 0.1813705 0.010076139 0.19144665 0.55418766 -0.020152278 0.2317512 -0.50380695

fuse_attr_62 i1 [1, 3, 3, 64] scale=0.008106094 zero_point=0
00000000: f009 e72b dfe2 f46f c9dc 2807 f1ed dbf5
00000010: 02c9 db1c 1903 f6e1 4728 e9e5 d57f 0449
00000020: 6628 21e1 13e6 e6e1 1dfe 15e9 fe51 d1f8
00000030: 2fe1 fa2f 324f d201 3b1d 023f 59c9 3213
00000040: 4045 c8ec 00dd c665 bfd7 4846 4072 d8ca
00000050: ec1c 4e49 3641 c9d9 4436 4bee 1b15 3201
00000060: 5a07 3d4a 14e7 2ccf 18f3 11c9 5fed c4c5
00000070: f1f9 ed55 fd2d a4d2 4c09 e444 08b4 304f
00000080: f950 e9fe 10f9 1113 e0e9 203a dfd0 58cd
00000090: fc51 fe34 0ce9 41e9 2017 f90c f9df e5f3
000000a0: 1002 2601 0af5 24e4 f6f1 04e2 5cd6 d8cd
000000b0: fe1f 1538 d102 2504 21f5 e218 ead5 1332
000000c0: eaf5 e73f ccdd cd1c e84f 23d1 d2ec be26
000000d0: d1f5 bcf7 30e9 e0e2 372c e8cc b554 f347
000000e0: 5a3e 21e7 24d1 e8e2 3436 3c01 cb4b d9c5
000000f0: 40e2 f620 4362 c514 f836 ed4c 4ed0 49ea
-0.1296975 0.07295485 -0.20265235 0.34856203 -0.2675011 -0.24318281 -0.097273126 0.8997764
-0.44583517 -0.2918194 0.32424375 0.056742657 -0.121591404 -0.15401578 -0.29992548 -0.08916703
0.016212188 -0.44583517 -0.29992548 0.22697063 0.20265235 0.024318282 -0.08106094 -0.25128892
0.5755327 0.32424375 -0.18644015 -0.21886453 -0.34856203 1.0294739 0.032424375 0.59174484
0.82682157 0.32424375 0.2675011 -0.25128892 0.15401578 -0.21075845 -0.21075845 -0.25128892
0.23507673 -0.016212188 0.17022797 -0.18644015 -0.016212188 0.6565936 -0.38098642 -0.06484875
0.38098642 -0.25128892 -0.048636563 0.38098642 0.4053047 0.6403814 -0.3728803 0.008106094
0.47825953 0.23507673 0.016212188 0.5106839 0.72144234 -0.44583517 0.4053047 0.15401578
0.51879 0.55932045 -0.45394126 -0.16212188 0.0 -0.28371328 -0.47015345 0.81871545
-0.5268961 -0.33234984 0.5836388 0.56742656 0.51879 0.9240947 -0.32424375 -0.43772906
-0.16212188 0.22697063 0.63227534 0.59174484 0.43772906 0.5268961 -0.44583517 -0.31613767
0.5512144 0.43772906 0.60795707 -0.1459097 0.21886453 0.17022797 0.4053047 0.008106094
0.72954845 0.056742657 0.49447173 0.59985095 0.16212188 -0.20265235 0.3566681 -0.3971986
0.19454625 -0.105379224 0.1378036 -0.44583517 0.7700789 -0.15401578 -0.48636562 -0.47825953
-0.121591404 -0.056742657 -0.15401578 0.68901795 -0.024318282 0.36477423 -0.7457606 -0.3728803
0.6160631 0.07295485 -0.22697063 0.5512144 0.06484875 -0.6160631 0.3890925 0.6403814
-0.056742657 0.6484875 -0.18644015 -0.016212188 0.1296975 -0.056742657 0.1378036 0.15401578
-0.259395 -0.18644015 0.259395 0.47015345 -0.2675011 -0.3890925 0.7133362 -0.41341078
-0.032424375 0.6565936 -0.016212188 0.4215169 0.097273126 -0.18644015 0.5268961 -0.18644015
0.259395 0.18644015 -0.056742657 0.097273126 -0.056742657 -0.2675011 -0.21886453 -0.105379224
0.1296975 0.016212188 0.30803156 0.008106094 0.08106094 -0.08916703 0.2918194 -0.22697063
-0.08106094 -0.121591404 0.032424375 -0.24318281 0.7457606 -0.34045595 -0.32424375 -0.41341078
-0.016212188 0.25128892 0.17022797 0.45394126 -0.38098642 0.016212188 0.29992548 0.032424375
0.2675011 -0.08916703 -0.24318281 0.19454625 -0.17833406 -0.34856203 0.15401578 0.4053047
-0.17833406 -0.08916703 -0.20265235 0.5106839 -0.4215169 -0.28371328 -0.41341078 0.22697063
-0.19454625 0.6403814 0.28371328 -0.38098642 -0.3728803 -0.16212188 -0.5350022 0.30803156
-0.38098642 -0.08916703 -0.5512144 -0.07295485 0.3890925 -0.18644015 -0.259395 -0.24318281
0.44583517 0.3566681 -0.19454625 -0.4215169 -0.60795707 0.6809119 -0.105379224 0.5755327
0.72954845 0.50257784 0.2675011 -0.20265235 0.2918194 -0.38098642 -0.19454625 -0.24318281
0.4215169 0.43772906 0.48636562 0.008106094 -0.42962298 0.60795707 -0.31613767 -0.47825953
0.51879 -0.24318281 -0.08106094 0.259395 0.5431083 0.7943972 -0.47825953 0.16212188
-0.06484875 0.43772906 -0.15401578 0.6160631 0.63227534 -0.3890925 0.59174484 -0.17833406

fuse_attr_60 i1 [1, 3, 3, 64] scale=0.034592528 zero_point=0
00000000: 1ceb b6cf c138 3014 ebb1 ca4c 2cd8 43cd
00000010: 00ee 29e9 f1e6 e1e7 d4c0 f037 0fee 2df2
00000020: 1844 c811 4539 12f1 2f38 c00f 492b e5e9
00000030: 1ad3 df27 f2e9 212a 22ec 24f6 7fa8 3dcf
00000040: 2ffa e117 ddc3 01f7 2e63 010d 131f 02e5
00000050: b4fa e0fb f8ed f551 21dc fce3 0bf7 07f9
00000060: 0cd0 e706 bd00 0fd9 f61b 640e 1c11 fcdf
00000070: 0def ec11 34d3 12f4 fa1c 18fb 2042 0336
00000080: 01fa fc0f 09f6 fcfd 08fc 02fc fd14 fcf0
00000090: f3fd fc0e fefe 00f2 1f01 00f9 fc03 01fb
000000a0: fdf6 02f9 e803 0538 ecf9 08ff fef1 1df9
000000b0: fcec f9fe 10fe fde1 e40c fbf4 da0f 050a
000000c0: bde9 5957 3301 151e f9f0 08f7 07d1 e131
000000d0: e719 15f2 2dfe fcf2 e926 2903 2ae6 01f3
000000e0: 0008 3f2f 0d10 0e00 281e 5313 fb1e c41a
000000f0: d711 dcf8 ec2f 0f16 26d1 09f6 9bda e8d2
0.9685908 -0.7264431 -2.559847 -1.6950339 -2.1793292 1.9371816 1.6604414 0.69185054
-0.7264431 -2.7328098 -1.8679965 2.6290321 1.5220712 -1.3837011 2.3176994 -1.7642189
0.0 -0.6226655 1.4182936 -0.79562813 -0.51888794 -0.8994057 -1.0723684 -0.8648132
-1.5220712 -2.2139218 -0.55348045 1.9025891 0.51888794 -0.6226655 1.5566638 -0.4842954
0.8302207 2.3522918 -1.9371816 0.58807296 2.3868845 1.9717741 0.6226655 -0.51888794
1.6258488 1.9371816 -2.2139218 0.51888794 2.5252545 1.4874787 -0.9339982 -0.79562813
0.8994057 -1.5566638 -1.1415534 1.3491086 -0.4842954 -0.79562813 1.1415534 1.4528862
1.1761459 -0.69185054 1.245331 -0.34592527 4.393251 -3.0441425 2.1101441 -1.6950339
1.6258488 -0.20755517 -1.0723684 0.79562813 -1.2107384 -2.1101441 0.034592528 -0.31133276
1.5912563 3.4246602 0.034592528 0.44970286 0.65725803 1.0723684 0.069185056 -0.9339982
-2.6290321 -0.20755517 -1.1069609 -0.17296264 -0.27674022 -0.65725803 -0.3805178 2.8019948
1.1415534 -1.245331 -0.13837011 -1.0031834 0.3805178 -0.31133276 0.2421477 -0.2421477
0.41511035 -1.6604414 -0.8648132 0.20755517 -2.3176994 0.0 0.51888794 -1.3491086
-0.34592527 0.9339982 3.4592528 0.4842954 0.9685908 0.58807296 -0.13837011 -1.1415534
0.44970286 -0.58807296 -0.69185054 0.58807296 1.7988114 -1.5566638 0.6226655 -0.41511035
-0.20755517 0.9685908 0.8302207 -0.17296264 1.1069609 2.2831068 0.10377759 1.8679965
0.034592528 -0.20755517 -0.13837011 0.51888794 0.31133276 -0.34592527 -0.13837011 -0.10377759
0.27674022 -0.13837011 0.069185056 -0.13837011 -0.10377759 0.69185054 -0.13837011 -0.55348045
-0.44970286 -0.10377759 -0.13837011 0.4842954 -0.069185056 -0.069185056 0.0 -0.4842954
1.0723684 0.034592528 0.0 -0.2421477 -0.13837011 0.10377759 0.034592528 -0.17296264
-0.10377759 -0.34592527 0.069185056 -0.2421477 -0.8302207 0.10377759 0.17296264 1.9371816
-0.69185054 -0.2421477 0.27674022 -0.034592528 -0.069185056 -0.51888794 1.0031834 -0.2421477
-0.13837011 -0.69185054 -0.2421477 -0.069185056 0.55348045 -0.069185056 -0.10377759 -1.0723684
-0.9685908 0.41511035 -0.17296264 -0.41511035 -1.3145161 0.51888794 0.17296264 0.34592527
-2.3176994 -0.79562813 3.0787349 3.0095499 1.7642189 0.034592528 0.7264431 1.0377759
-0.2421477 -0.55348045 0.27674022 -0.31133276 0.2421477 -1.6258488 -1.0723684 1.6950339
-0.8648132 0.8648132 0.7264431 -0.4842954 1.5566638 -0.069185056 -0.13837011 -0.4842954
-0.79562813 1.3145161 1.4182936 0.10377759 1.4528862 -0.8994057 0.034592528 -0.44970286
0.0 0.27674022 2.1793292 1.6258488 0.44970286 0.55348045 0.4842954 0.0
1.3837011 1.0377759 2.8711798 0.65725803 -0.17296264 1.0377759 -2.0755517 0.8994057
-1.4182936 0.58807296 -1.245331 -0.27674022 -0.69185054 1.6258488 0.51888794 0.7610356
1.3145161 -1.6258488 0.31133276 -0.34592527 -3.4938452 -1.3145161 -0.8302207 -1.5912563

fuse_attr_65 i1 [128, 1, 1, 128] scale=0.009858799 zero_point=0
00000000: 12f5 080a fdff 0209 0d01 1508 eef2 00fb
00000010: 03f4 03f1 03fe 07f8 ee01 eefd f80a fd00
00000020: 0404 fafa fe03 fcfc 0cef 05f3 fd05 fdff
00000030: f8fc fcff f8f2 ec04 fefa fefd 0c04 02f9
00000040: fcf6 06ee 12fc 09fc f80d 01f6 fa07 0e0a
00000050: f2e7 04f4 f9fa fef2 fcf7 f20e f9f9 faf6
00000060: fdf6 01fe f4ff fdf9 0412 0006 fcff f406
00000070: fd00 fe07 0204 f9fd fbf7 05fd fc07 0af2
00000080: d1f3 0007 ebf1 f404 16f6 07ec faf2 fafa
00000090: eefc faec edee f404 0bfe ed07 f3f4 05fc
000000a0: 24ec fbeb 03ec 0201 e7ff fc01 04fb 040e
000000b0: ff09 eeff 04dc fdfd 0df9 fdf1 f3e0 07e7
000000c0: fcf4 efef f506 fd0e f9cc 0602 ef10 0f00
000000d0: eff1 03ef f0fd 0d04 0700 edec 06e8 e701
000000e0: 03f4 fffc 0af9 0007 dffd 14f7 f7f4 0dfb
000000f0: ff01 fef1 fa04 0703 f11b fefb ecf1 ff00
0.17745839 -0.10844679 0.07887039 0.09858799 -0.029576398 -0.009858799 0.019717598 0.088729195
0.1281644 0.009858799 0.20703478 0.07887039 -0.17745839 -0.13802318 0.0 -0.049293995
0.029576398 -0.118305594 0.029576398 -0.14788198 0.029576398 -0.019717598 0.06901159 -0.07887039
-0.17745839 0.009858799 -0.17745839 -0.029576398 -0.07887039 0.09858799 -0.029576398 0.0
0.039435197 0.039435197 -0.059152797 -0.059152797 -0.019717598 0.029576398 -0.039435197 -0.039435197
0.118305594 -0.16759959 0.049293995 -0.1281644 -0.029576398 0.049293995 -0.029576398 -0.009858799
-0.07887039 -0.039435197 -0.039435197 -0.009858799 -0.07887039 -0.13802318 -0.19717598 0.039435197
-0.019717598 -0.059152797 -0.019717598 -0.029576398 0.118305594 0.039435197 0.019717598 -0.06901159
-0.039435197 -0.09858799 0.059152797 -0.17745839 0.17745839 -0.039435197 0.088729195 -0.039435197
-0.07887039 0.1281644 0.009858799 -0.09858799 -0.059152797 0.06901159 0.13802318 0.09858799
-0.13802318 -0.24646997 0.039435197 -0.118305594 -0.06901159 -0.059152797 -0.019717598 -0.13802318
-0.039435197 -0.088729195 -0.13802318 0.13802318 -0.06901159 -0.06901159 -0.059152797 -0.09858799
-0.029576398 -0.09858799 0.009858799 -0.019717598 -0.118305594 -0.009858799 -0.029576398 -0.06901159
0.039435197 0.17745839 0.0 0.059152797 -0.039435197 -0.009858799 -0.118305594 0.059152797
-0.029576398 0.0 -0.019717598 0.06901159 0.019717598 0.039435197 -0.06901159 -0.029576398
-0.049293995 -0.088729195 0.049293995 -0.029576398 -0.039435197 0.06901159 0.09858799 -0.13802318
-0.46336356 -0.1281644 0.0 0.06901159 -0.20703478 -0.14788198 -0.118305594 0.039435197
0.21689358 -0.09858799 0.06901159 -0.19717598 -0.059152797 -0.13802318 -0.059152797 -0.059152797
-0.17745839 -0.039435197 -0.059152797 -0.19717598 -0.18731718 -0.17745839 -0.118305594 0.039435197
0.10844679 -0.019717598 -0.18731718 0.06901159 -0.1281644 -0.118305594 0.049293995 -0.039435197
0.35491678 -0.19717598 -0.049293995 -0.20703478 0.029576398 -0.19717598 0.019717598 0.009858799
-0.24646997 -0.009858799 -0.039435197 0.009858799 0.039435197 -0.049293995 0.039435197 0.13802318
-0.009858799 0.088729195 -0.17745839 -0.009858799 0.039435197 -0.35491678 -0.029576398 -0.029576398
0.1281644 -0.06901159 -0.029576398 -0.14788198 -0.1281644 -0.31548157 0.06901159 -0.24646997
-0.039435197 -0.118305594 -0.16759959 -0.16759959 -0.10844679 0.059152797 -0.029576398 0.13802318
-0.06901159 -0.5126576 0.059152797 0.019717598 -0.16759959 0.15774079 0.14788198 0.0
-0.16759959 -0.14788198 0.029576398 -0.16759959 -0.15774079 -0.029576398 0.1281644 0.039435197
0.06901159 0.0 -0.18731718 -0.19717598 0.059152797 -0.23661119 -0.24646997 0.009858799
0.029576398 -0.118305594 -0.009858799 -0.039435197 0.09858799 -0.06901159 0.0 0.06901159
-0.32534036 -0.029576398 0.19717598 -0.088729195 -0.088729195 -0.118305594 0.1281644 -0.049293995
-0.009858799 0.009858799 -0.019717598 -0.14788198 -0.059152797 0.039435197 0.06901159 0.029576398
-0.14788198 0.26618758 -0.019717598 -0.049293995 -0.19717598 -0.14788198 -0.009858799 0.0

fuse_attr_51 i1 [16, 3, 3, 3] scale=0.009436832 zero_point=0
00000000: 0505 070a 080d 0b07 09f5 f6ea eeee daf9
00000010: f6ec 0001 0f04 0317 0702 0c27 1c2b 4f3a
00000020: 4b1f 141c fdf7 fcf9 f4f5 f7f5 f6dd eade
00000030: b5d0 bbe4 fcef c7cf 5fda f037 f007 0adc
00000040: f52d f20b 0bf2 11fc f608 0602 06f8 f20c
00000050: 0214 fafc 0ff8 0508 effb 10f5 f007 e3e3
00000060: 07ed fd01 edf3 f7d9 dc05 f707 01f4 0306
00000070: fcfb ff05 06b0 bcb0 02f3 ed56 4f5f b1cb
00000080: acf2 f4f5 4f45 5fdc d9ad e3e4 b6fd f5e3
00000090: fa01 05f0 f1fa faf4 052c 2748 2624 580a
000000a0: 0634 f7f3 06f0 ec02 f2f5 01f9 0007 eaf8
000000b0: faee f9f3 0406 fc00 0bf9 fd0f 01f9 f6f7
000000c0: fefb 0002 fd02 fdf9 f6fe fefd fffe 02ff
000000d0: 00ff 0002 0000 01ff f1cb e30c 1113 fc11
000000e0: fae4 cfe4 181a 23fd 0ef2 f2f4 0b0d 041e
000000f0: 0003 fafd 09f1 0917 0005 1700 0a04 fb0b
0.047184158 0.047184158 0.06605782 0.094368316 0.075494654 0.12267882 0.10380515 0.06605782
0.084931485 -0.10380515 -0.094368316 -0.2076103 -0.16986297 -0.16986297 -0.3585996 -0.06605782
-0.094368316 -0.18873663 0.0 0.009436832 0.14155248 0.037747327 0.028310496 0.21704713
0.06605782 0.018873664 0.113241985 0.36803645 0.2642313 0.40578377 0.7455097 0.5473362
0.70776236 0.29254177 0.18873663 0.2642313 -0.028310496 -0.084931485 -0.037747327 -0.06605782
-0.113241985 -0.10380515 -0.084931485 -0.10380515 -0.094368316 -0.33028913 -0.2076103 -0.32085228
-0.70776236 -0.45296794 -0.6511414 -0.2642313 -0.037747327 -0.16042614 -0.53789943 -0.46240476
0.89649904 -0.3585996 -0.15098931 0.51902574 -0.15098931 0.06605782 0.094368316 -0.33972594
-0.10380515 0.42465743 -0.13211565 0.10380515 0.10380515 -0.13211565 0.16042614 -0.037747327
-0.094368316 0.075494654 0.056620993 0.018873664 0.056620993 -0.075494654 -0.13211565 0.113241985
0.018873664 0.18873663 -0.056620993 -0.037747327 0.14155248 -0.075494654 0.047184158 0.075494654
-0.16042614 -0.047184158 0.15098931 -0.10380515 -0.15098931 0.06605782 -0.2736681 -0.2736681
0.06605782 -0.1792998 -0.028310496 0.009436832 -0.1792998 -0.12267882 -0.084931485 -0.36803645
-0.33972594 0.047184158 -0.084931485 0.06605782 0.009436832 -0.113241985 0.028310496 0.056620993
-0.037747327 -0.047184158 -0.009436832 0.047184158 0.056620993 -0.75494653 -0.64170456 -0.75494653
0.018873664 -0.12267882 -0.1792998 0.81156754 0.7455097 0.89649904 -0.7455097 -0.5001521
-0.79269385 -0.13211565 -0.113241985 -0.10380515 0.7455097 0.6511414 0.89649904 -0.33972594
-0.36803645 -0.78325707 -0.2736681 -0.2642313 -0.6983256 -0.028310496 -0.10380515 -0.2736681
-0.056620993 0.009436832 0.047184158 -0.15098931 -0.14155248 -0.056620993 -0.056620993 -0.113241985
0.047184158 0.4152206 0.36803645 0.6794519 0.3585996 0.33972594 0.8304412 0.094368316
0.056620993 0.49071527 -0.084931485 -0.12267882 0.056620993 -0.15098931 -0.18873663 0.018873664
-0.13211565 -0.10380515 0.009436832 -0.06605782 0.0 0.06605782 -0.2076103 -0.075494654
-0.056620993 -0.16986297 -0.06605782 -0.12267882 0.037747327 0.056620993 -0.037747327 0.0
0.10380515 -0.06605782 -0.028310496 0.14155248 0.009436832 -0.06605782 -0.094368316 -0.084931485
-0.018873664 -0.047184158 0.0 0.018873664 -0.028310496 0.018873664 -0.028310496 -0.06605782
-0.094368316 -0.018873664 -0.018873664 -0.028310496 -0.009436832 -0.018873664 0.018873664 -0.009436832
0.0 -0.009436832 0.0 0.018873664 0.0 0.0 0.009436832 -0.009436832
-0.14155248 -0.5001521 -0.2736681 0.113241985 0.16042614 0.1792998 -0.037747327 0.16042614
-0.056620993 -0.2642313 -0.46240476 -0.2642313 0.22648397 0.24535763 0.33028913 -0.028310496
0.13211565 -0.13211565 -0.13211565 -0.113241985 0.10380515 0.12267882 0.037747327 0.28310496
0.0 0.028310496 -0.056620993 -0.028310496 0.084931485 -0.14155248 0.084931485 0.21704713
0.0 0.047184158 0.21704713 0.0 0.094368316 0.037747327 -0.047184158 0.10380515

fuse_attr_55 i1 [32, 1, 1, 16] scale=0.011723156 zero_point=0
00000000: 08f2 fff6 fe0b 05f8 0105 0213 0208 f1fe
00000010: 0429 03ff effe 05f7 d2f2 f706 4505 fb00
00000020: 0819 fafa 100b 0c10 0a06 0ff5 0f04 ff02
00000030: 03fb ff01 05f3 f601 01fe 0315 fefd feff
00000040: 0aff 00fb f501 01fb fc03 0712 fc06 eff8
00000050: 0000 0002 fcff fc00 fdfe 2700 0200 04ff
00000060: 0dff 02eb f9ed e700 fffc ffed fffc 13f4
00000070: 0dec 7ffd 01f0 00f4 fb14 f6e7 0d10 feda
00000080: ee07 0503 edf1 0503 dcf3 fb16 f001 0103
00000090: fbf9 00f9 1504 fede 12f0 0002 ff05 0202
000000a0: 03f7 0b0b 0304 0801 01f7 0200 02f5 ff01
000000b0: 0ff7 030c fafa f3fa 04f9 00fd fffa 1d00
000000c0: ed01 0e11 03fc fffc fce9 f202 fb00 0900
000000d0: 2003 f8e3 f8e3 e4fa fbf1 feea 0107 faea
000000e0: e506 03f8 1602 0807 0004 01e5 0a01 ef01
000000f0: 06f7 03fb ecfa f1fc fcf7 fb13 f50a 0107
0.09378525 -0.16412419 -0.011723156 -0.11723156 -0.023446312 0.12895472 0.05861578 -0.09378525
0.011723156 0.05861578 0.023446312 0.22273996 0.023446312 0.09378525 -0.17584734 -0.023446312
0.046892624 0.4806494 0.035169467 -0.011723156 -0.19929366 -0.023446312 0.05861578 -0.1055084
-0.53926516 -0.16412419 -0.1055084 0.070338935 0.8088978 0.05861578 -0.05861578 0.0
0.09378525 0.2930789 -0.070338935 -0.070338935 0.1875705 0.12895472 0.14067787 0.1875705
0.11723156 0.070338935 0.17584734 -0.12895472 0.17584734 0.046892624 -0.011723156 0.023446312
0.035169467 -0.05861578 -0.011723156 0.011723156 0.05861578 -0.15240103 -0.11723156 0.011723156
0.011723156 -0.023446312 0.035169467 0.24618627 -0.023446312 -0.035169467 -0.023446312 -0.011723156
0.11723156 -0.011723156 0.0 -0.05861578 -0.12895472 0.011723156 0.011723156 -0.05861578
-0.046892624 0.035169467 0.082062095 0.2110168 -0.046892624 0.070338935 -0.19929366 -0.09378525
0.0 0.0 0.0 0.023446312 -0.046892624 -0.011723156 -0.046892624 0.0
-0.035169467 -0.023446312 0.4572031 0.0 0.023446312 0.0 0.046892624 -0.011723156
0.15240103 -0.011723156 0.023446312 -0.24618627 -0.082062095 -0.22273996 -0.2930789 0.0
-0.011723156 -0.046892624 -0.011723156 -0.22273996 -0.011723156 -0.046892624 0.22273996 -0.14067787
0.15240103 -0.23446313 1.4888408 -0.035169467 0.011723156 -0.1875705 0.0 -0.14067787
-0.05861578 0.23446313 -0.11723156 -0.2930789 0.15240103 0.1875705 -0.023446312 -0.44547993
-0.2110168 0.082062095 0.05861578 0.035169467 -0.22273996 -0.17584734 0.05861578 0.035169467
-0.4220336 -0.15240103 -0.05861578 0.25790945 -0.1875705 0.011723156 0.011723156 0.035169467
-0.05861578 -0.082062095 0.0 -0.082062095 0.24618627 0.046892624 -0.023446312 -0.39858732
0.2110168 -0.1875705 0.0 0.023446312 -0.011723156 0.05861578 0.023446312 0.023446312
0.035169467 -0.1055084 0.12895472 0.12895472 0.035169467 0.046892624 0.09378525 0.011723156
0.011723156 -0.1055084 0.023446312 0.0 0.023446312 -0.12895472 -0.011723156 0.011723156
0.17584734 -0.1055084 0.035169467 0.14067787 -0.070338935 -0.070338935 -0.15240103 -0.070338935
0.046892624 -0.082062095 0.0 -0.035169467 -0.011723156 -0.070338935 0.3399715 0.0
-0.22273996 0.011723156 0.16412419 0.19929366 0.035169467 -0.046892624 -0.011723156 -0.046892624
-0.046892624 -0.26963258 -0.16412419 0.023446312 -0.05861578 0.0 0.1055084 0.0
0.375141 0.035169467 -0.09378525 -0.3399715 -0.09378525 -0.3399715 -0.32824838 -0.070338935
-0.05861578 -0.17584734 -0.023446312 -0.25790945 0.011723156 0.082062095 -0.070338935 -0.25790945
-0.31652522 0.070338935 0.035169467 -0.09378525 0.25790945 0.023446312 0.09378525 0.082062095
0.0 0.046892624 0.011723156 -0.31652522 0.11723156 0.011723156 -0.19929366 0.011723156
0.070338935 -0.1055084 0.035169467 -0.05861578 -0.23446313 -0.070338935 -0.17584734 -0.046892624
-0.046892624 -0.1055084 -0.05861578 0.22273996 -0.12895472 0.11723156 0.011723156 0.082062095

fuse_attr_70 i1 [1, 5, 5, 256] scale=0.02021206 zero_point=0
00000000: fc04 132e 06f9 f6fc e924 0200 09ed ef15
00000010: f308 f918 fae2 d8e3 0d1b fcf9 23fd 0329
00000020: 0700 edfb e016 0406 faf6 fcdf 0efb f302
00000030: 02fd f9f7 00f2 f7f9 11fd 34fc 2158 fb22
00000040: faf2 14f7 f1f5 0602 fcff f508 fadd 0815
00000050: f8ed 0228 f4ea 1108 ff15 02f5 13f0 fae5
00000060: 17f4 fffe f118 19f7 24f5 0fef 0c07 fef7
00000070: eaed 2c0b dcee ed00 07e4 0d20 0b11 03f1
00000080: f4ee 06e7 0afe 0207 eb18 0df8 ee37 03fb
00000090: 16f7 fe01 ef10 0301 eafb fb06 f4dd ee07
000000a0: 261f f223 e3ff e712 00ee 02fc fef1 0b0a
000000b0: dff0 e2f9 27fe 0717 0fd4 f704 f100 0df1
000000c0: 0329 fe08 0208 eee9 04f8 fbf0 1ff1 35f6
000000d0: 0bf6 dcf9 12f7 2835 e6f8 f611 0bfa 03fc
000000e0: c905 0b33 e61a ce12 30d2 ff11 f509 fc28
000000f0: fd00 12f9 0c0a fef9 073d fde1 fff0 f007
-0.08084824 0.08084824 0.38402915 0.92975473 0.121272355 -0.14148442 -0.2021206 -0.08084824
-0.46487737 0.72763413 0.04042412 0.0 0.18190853 -0.38402915 -0.343605 0.42445326
-0.26275676 0.16169648 -0.14148442 0.48508942 -0.121272355 -0.6063618 -0.8084824 -0.58614975
0.26275676 0.54572564 -0.08084824 -0.14148442 0.7074221 -0.060636178 0.060636178 0.82869446
0.14148442 0.0 -0.38402915 -0.1010603 -0.6467859 0.4446653 0.08084824 0.121272355
-0.121272355 -0.2021206 -0.08084824 -0.66699797 0.28296885 -0.1010603 -0.26275676 0.04042412
0.04042412 -0.060636178 -0.14148442 -0.18190853 0.0 -0.28296885 -0.18190853 -0.14148442
0.343605 -0.060636178 1.051027 -0.08084824 0.66699797 1.7786613 -0.1010603 0.68721
-0.121272355 -0.28296885 0.4042412 -0.18190853 -0.3031809 -0.22233266 0.121272355 0.04042412
-0.08084824 -0.02021206 -0.22233266 0.16169648 -0.121272355 -0.7074221 0.16169648 0.42445326
-0.16169648 -0.38402915 0.04042412 0.8084824 -0.24254471 -0.4446653 0.343605 0.16169648
-0.02021206 0.42445326 0.04042412 -0.22233266 0.38402915 -0.32339296 -0.121272355 -0.54572564
0.46487737 -0.24254471 -0.02021206 -0.04042412 -0.3031809 0.48508942 0.5053015 -0.18190853
0.72763413 -0.22233266 0.3031809 -0.343605 0.24254471 0.14148442 -0.04042412 -0.18190853
-0.4446653 -0.38402915 0.8893306 0.22233266 -0.72763413 -0.36381707 -0.38402915 0.0
0.14148442 -0.5659377 0.26275676 0.6467859 0.22233266 0.343605 0.060636178 -0.3031809
-0.24254471 -0.36381707 0.121272355 -0.5053015 0.2021206 -0.04042412 0.04042412 0.14148442
-0.42445326 0.48508942 0.26275676 -0.16169648 -0.36381707 1.1116633 0.060636178 -0.1010603
0.4446653 -0.18190853 -0.04042412 0.02021206 -0.343605 0.32339296 0.060636178 0.02021206
-0.4446653 -0.1010603 -0.1010603 0.121272355 -0.24254471 -0.7074221 -0.36381707 0.14148442
0.7680583 0.62657386 -0.28296885 0.7074221 -0.58614975 -0.02021206 -0.5053015 0.36381707
0.0 -0.36381707 0.04042412 -0.08084824 -0.04042412 -0.3031809 0.22233266 0.2021206
-0.66699797 -0.32339296 -0.6063618 -0.14148442 0.78827035 -0.04042412 0.14148442 0.46487737
0.3031809 -0.8893306 -0.18190853 0.08084824 -0.3031809 0.0 0.26275676 -0.3031809
0.060636178 0.82869446 -0.04042412 0.16169648 0.04042412 0.16169648 -0.36381707 -0.46487737
0.08084824 -0.16169648 -0.1010603 -0.32339296 0.62657386 -0.3031809 1.0712391 -0.2021206
0.22233266 -0.2021206 -0.72763413 -0.14148442 0.36381707 -0.18190853 0.8084824 1.0712391
-0.5255135 -0.16169648 -0.2021206 0.343605 0.22233266 -0.121272355 0.060636178 -0.08084824
-1.1116633 0.1010603 0.22233266 1.030815 -0.5255135 0.5255135 -1.010603 0.36381707
0.97017884 -0.92975473 -0.02021206 0.343605 -0.22233266 0.18190853 -0.08084824 0.8084824
-0.060636178 0.0 0.36381707 -0.14148442 0.24254471 0.2021206 -0.04042412 -0.14148442
0.14148442 1.2329357 -0.060636178 -0.62657386 -0.02021206 -0.32339296 -0.32339296 0.14148442

fuse_attr_77 i1 [1, 5, 5, 256] scale=0.098296925 zero_point=0
00000000: ff00 0001 08fd 0906 0008 fb00 05ff 01fa
00000010: 00ff 0102 0200 0000 0402 0001 fe00 010e
00000020: ff00 fdfe fcff 000b fbfd 0101 ff09 0000
00000030: 0601 0000 fb00 fffe 0105 00ff ff01 00fe
00000040: 0100 feff fd00 0500 01fe 0000 ef01 fe02
00000050: ff00 00fe 00ff fdfe 00fe 0101 fffe f800
00000060: 0100 fff6 fd00 08fe fd01 0400 ff01 0201
00000070: 00ff 00fe 03f8 01fb 0105 0200 00ff 0300
00000080: ff06 ff01 0205 fbfc 0002 0200 0000 0100
00000090: 1600 0100 fd00 05ff 06fe 00fe fffc 0007
000000a0: fefe ffff 00fd 0400 00fd 0009 0001 00ff
000000b0: 0400 fb01 0004 fdfc ff00 00fe 0102 fd00
000000c0: 0001 ff01 0007 ff00 0201 00fe fe02 0000
000000d0: ff05 ff00 00ff 00fa ff00 f902 ff02 0200
000000e0: 00fc 00ff 0001 0a01 0100 0103 05fd f900
000000f0: 00ff ff02 00ff fe00 0000 0001 fef8 00fb
-0.098296925 0.0 0.0 0.098296925 0.7863754 -0.29489076 0.88467234 0.5897815
0.0 0.7863754 -0.49148464 0.0 0.49148464 -0.098296925 0.098296925 -0.5897815
0.0 -0.098296925 0.098296925 0.19659385 0.19659385 0.0 0.0 0.0
0.3931877 0.19659385 0.0 0.098296925 -0.19659385 0.0 0.098296925 1.3761569
-0.098296925 0.0 -0.29489076 -0.19659385 -0.3931877 -0.098296925 0.0 1.0812662
-0.49148464 -0.29489076 0.098296925 0.098296925 -0.098296925 0.88467234 0.0 0.0
0.5897815 0.098296925 0.0 0.0 -0.49148464 0.0 -0.098296925 -0.19659385
0.098296925 0.49148464 0.0 -0.098296925 -0.098296925 0.098296925 0.0 -0.19659385
0.098296925 0.0 -0.19659385 -0.098296925 -0.29489076 0.0 0.49148464 0.0
0.098296925 -0.19659385 0.0 0.0 -1.6710477 0.098296925 -0.19659385 0.19659385
-0.098296925 0.0 0.0 -0.19659385 0.0 -0.098296925 -0.29489076 -0.19659385
0.0 -0.19659385 0.098296925 0.098296925 -0.098296925 -0.19659385 -0.7863754 0.0
0.098296925 0.0 -0.098296925 -0.9829693 -0.29489076 0.0 0.7863754 -0.19659385
-0.29489076 0.098296925 0.3931877 0.0 -0.098296925 0.098296925 0.19659385 0.098296925
0.0 -0.098296925 0.0 -0.19659385 0.29489076 -0.7863754 0.098296925 -0.49148464
0.098296925 0.49148464 0.19659385 0.0 0.0 -0.098296925 0.29489076 0.0
-0.098296925 0.5897815 -0.098296925 0.098296925 0.19659385 0.49148464 -0.49148464 -0.3931877
0.0 0.19659385 0.19659385 0.0 0.0 0.0 0.098296925 0.0
2.1625323 0.0 0.098296925 0.0 -0.29489076 0.0 0.49148464 -0.098296925
0.5897815 -0.19659385 0.0 -0.19659385 -0.098296925 -0.3931877 0.0 0.68807846
-0.19659385 -0.19659385 -0.098296925 -0.098296925 0.0 -0.29489076 0.3931877 0.0
0.0 -0.29489076 0.0 0.88467234 0.0 0.098296925 0.0 -0.098296925
0.3931877 0.0 -0.49148464 0.098296925 0.0 0.3931877 -0.29489076 -0.3931877
-0.098296925 0.0 0.0 -0.19659385 0.098296925 0.19659385 -0.29489076 0.0
0.0 0.098296925 -0.098296925 0.098296925 0.0 0.68807846 -0.098296925 0.0
0.19659385 0.098296925 0.0 -0.19659385 -0.19659385 0.19659385 0.0 0.0
-0.098296925 0.49148464 -0.098296925 0.0 0.0 -0.098296925 0.0 -0.5897815
-0.098296925 0.0 -0.68807846 0.19659385 -0.098296925 0.19659385 0.19659385 0.0
0.0 -0.3931877 0.0 -0.098296925 0.0 0.098296925 0.9829693 0.098296925
0.098296925 0.0 0.098296925 0.29489076 0.49148464 -0.29489076 -0.68807846 0.0
0.0 -0.098296925 -0.098296925 0.19659385 0.0 -0.098296925 -0.19659385 0.0
0.0 0.0 0.0 0.098296925 -0.19659385 -0.7863754 0.0 -0.49148464
