mimxrt685audevk/eiq_examples/tflm_label_image_cm33/doc/mobilenet_v1_0.25_128_quant_int8.tflite (tflite, 623120 bytes, 28 tensors)

MobilenetV1/MobilenetV1/Conv2d_0/Conv2D i1 [8, 3, 3, 3]
0	0xae	-82
1	0xc5	-59
2	0x90	-112
3	0xa8	-88
4	0xbb	-69
5	0x8e	-114
6	0xce	-50
7	0xc4	-60
8	0x9d	-99
9	0xbd	-67
10	0xc1	-63
11	0x9c	-100
12	0xb5	-75
13	0xaa	-86
14	0x84	-124
15	0xcd	-51
16	0xd2	-46
17	0xa2	-94
18	0xa2	-94
19	0xa8	-88
20	0x81	-127
21	0xb3	-77
22	0xb9	-71
23	0x93	-109
24	0xe4	-28
25	0xd7	-41
26	0xa3	-93
27	0xe1	-31
28	0x44	68
29	0xde	-34
30	0xca	-54
31	0x68	104
32	0xcf	-49
33	0xe0	-32
34	0x3e	62
35	0xe2	-30
36	0xda	-38
37	0x50	80
38	0xd7	-41
39	0xbd	-67
40	0x7f	127
41	0xc1	-63
42	0xdc	-36
43	0x47	71
44	0xdc	-36
45	0xf4	-12
46	0x1a	26
47	0xf1	-15
48	0xe6	-26
49	0x33	51
50	0xe5	-27
51	0xfa	-6
52	0x12	18
53	0xf4	-12
54	0x72	114
55	0x56	86
56	0x37	55
57	0x6d	109
58	0x50	80
59	0x31	49
60	0x67	103
61	0x4b	75
62	0x32	50
63	0x70	112
64	0x54	84
65	0x37	55
66	0x6c	108
67	0x4f	79
68	0x32	50
69	0x66	102
70	0x48	72
71	0x30	48
72	0x7f	127
73	0x5f	95
74	0x40	64
75	0x7c	124
76	0x5b	91
77	0x3d	61
78	0x74	116
79	0x55	85
80	0x3b	59
81	0xa3	-93
82	0x18	24
83	0x48	72
84	0x9e	-98
85	0x19	25
86	0x4c	76
87	0xe8	-24
88	0x07	7
89	0x12	18
90	0x88	-120
91	0x22	34
92	0x57	87
93	0x81	-127
94	0x23	35
95	0x5e	94
96	0xe3	-29
97	0x0a	10
98	0x15	21
99	0xcf	-49
100	0x15	21
101	0x1b	27
102	0xca	-54
103	0x11	17
104	0x23	35
105	0x02	2
106	0xfd	-3
107	0x01	1
108	0x2c	44
109	0x49	73
110	0x0a	10
111	0x26	38
112	0x44	68
113	0x11	17
114	0xf4	-12
115	0xf1	-15
116	0x05	5
117	0xba	-70
118	0x81	-127
119	0xf0	-16
120	0xcb	-53
121	0x8d	-115
122	0xe7	-25
123	0x06	6
124	0x0a	10
125	0xf5	-11
126	0x18	24
127	0x37	55
128	0x02	2
129	0x13	19
130	0x36	54
131	0x0a	10
132	0xf5	-11
133	0xf0	-16
134	0x02	2
135	0x61	97
136	0x72	114
137	0x56	86
138	0x63	99
139	0x71	113
140	0x57	87
141	0x69	105
142	0x7b	123
143	0x5c	92
144	0x67	103
145	0x78	120
146	0x5d	93
147	0x68	104
148	0x76	118
149	0x5c	92
150	0x6d	109
151	0x7d	125
152	0x63	99
153	0x63	99
154	0x75	117
155	0x61	97
156	0x64	100
157	0x73	115
158	0x5c	92
159	0x6c	108
160	0x7f	127
161	0x66	102
162	0xd0	-48
163	0xb2	-78
164	0xec	-20
165	0xb1	-79
166	0x81	-127
167	0xdf	-33
168	0xda	-38
169	0xc8	-56
170	0xf3	-13
171	0xf3	-13
172	0xf7	-9
173	0xf8	-8
174	0xe3	-29
175	0xe8	-24
176	0xf6	-10
177	0xf0	-16
178	0xf2	-14
179	0xfe	-2
180	0x16	22
181	0x1c	28
182	0x07	7
183	0x24	36
184	0x2b	43
185	0x0d	13
186	0x0f	15
187	0x10	16
188	0x0b	11
189	0xe1	-31
190	0xc0	-64
191	0xee	-18
192	0xe2	-30
193	0xc7	-57
194	0xf1	-15
195	0x04	4
196	0xf9	-7
197	0x01	1
198	0xb2	-78
199	0x81	-127
200	0xe0	-32
201	0xbb	-69
202	0x89	-119
203	0xe1	-31
204	0xfd	-3
205	0xfc	-4
206	0xfe	-2
207	0xcf	-49
208	0xc3	-61
209	0xf1	-15
210	0xd6	-42
211	0xc1	-63
212	0xee	-18
213	0xfe	-2
214	0x08	8
215	0x00	0

MobilenetV1/MobilenetV1/Conv2d_1_pointwise/Conv2D i1 [16, 1, 1, 8]
0	0x00	0
1	0x7f	127
2	0x00	0
3	0xfa	-6
4	0x00	0
5	0x00	0
6	0xff	-1
7	0x00	0
8	0x00	0
9	0x7f	127
10	0x00	0
11	0x10	16
12	0x00	0
13	0x00	0
14	0x01	1
15	0x02	2
16	0x00	0
17	0x00	0
18	0x00	0
19	0x00	0
20	0x81	-127
21	0x00	0
22	0xff	-1
23	0x01	1
24	0x00	0
25	0xff	-1
26	0x00	0
27	0x00	0
28	0xfe	-2
29	0x00	0
30	0x7f	127
31	0x04	4
32	0x00	0
33	0x81	-127
34	0x00	0
35	0xce	-50
36	0x03	3
37	0x00	0
38	0xd8	-40
39	0xfb	-5
40	0x00	0
41	0x01	1
42	0x00	0
43	0xff	-1
44	0x00	0
45	0x00	0
46	0xee	-18
47	0x7f	127
48	0x00	0
49	0x00	0
50	0x00	0
51	0x7f	127
52	0x00	0
53	0x00	0
54	0x00	0
55	0x00	0
56	0x00	0
57	0xf6	-10
58	0x00	0
59	0x00	0
60	0x01	1
61	0x00	0
62	0x1d	29
63	0x81	-127
64	0x00	0
65	0x7f	127
66	0x00	0
67	0xf3	-13
68	0x00	0
69	0x00	0
70	0x04	4
71	0x00	0
72	0x00	0
73	0xfe	-2
74	0x00	0
75	0xf5	-11
76	0x04	4
77	0x00	0
78	0x81	-127
79	0x1f	31
80	0x00	0
81	0x00	0
82	0x00	0
83	0x00	0
84	0x7f	127
85	0x00	0
86	0xff	-1
87	0xfe	-2
88	0x00	0
89	0xff	-1
90	0x00	0
91	0x03	3
92	0xf8	-8
93	0x00	0
94	0x7f	127
95	0x06	6
96	0x00	0
97	0x01	1
98	0x00	0
99	0x00	0
100	0x7f	127
101	0x00	0
102	0xfe	-2
103	0xf5	-11
104	0x00	0
105	0x03	3
106	0x00	0
107	0x00	0
108	0x02	2
109	0x00	0
110	0x0b	11
111	0x81	-127
112	0x00	0
113	0xfd	-3
114	0x00	0
115	0x02	2
116	0xf8	-8
117	0x00	0
118	0x7f	127
119	0x03	3
120	0xcd	-51
121	0x7f	127
122	0xe1	-31
123	0x5a	90
124	0x18	24
125	0x2d	45
126	0x5d	93
127	0x33	51

MobilenetV1/MobilenetV1/Conv2d_2_pointwise/Conv2D i1 [32, 1, 1, 16]
0	0xf6	-10
1	0x04	4
2	0xe5	-27
3	0x7f	127
4	0x0b	11
5	0xfe	-2
6	0xff	-1
7	0xf7	-9
8	0xfc	-4
9	0xfd	-3
10	0x68	104
11	0x5d	93
12	0x0e	14
13	0xf6	-10
14	0xf5	-11
15	0x00	0
16	0x00	0
17	0xe9	-23
18	0xfd	-3
19	0x00	0
20	0x13	19
21	0x01	1
22	0x7f	127
23	0x01	1
24	0xf6	-10
25	0xe1	-31
26	0x02	2
27	0xff	-1
28	0xff	-1
29	0x01	1
30	0xff	-1
31	0x00	0
32	0x01	1
33	0x01	1
34	0x00	0
35	0x01	1
36	0xff	-1
37	0x7f	127
38	0x00	0
39	0xdf	-33
40	0x00	0
41	0x01	1
42	0x04	4
43	0x01	1
44	0xff	-1
45	0xc1	-63
46	0x01	1
47	0x00	0
48	0x0e	14
49	0xfe	-2
50	0x11	17
51	0x04	4
52	0x00	0
53	0x71	113
54	0xff	-1
55	0x44	68
56	0xfd	-3
57	0xf9	-7
58	0x13	19
59	0x02	2
60	0x07	7
61	0x81	-127
62	0x02	2
63	0x00	0
64	0x7f	127
65	0xe5	-27
66	0x01	1
67	0x00	0
68	0xf1	-15
69	0x05	5
70	0x09	9
71	0xfc	-4
72	0xf2	-14
73	0xf9	-7
74	0x03	3
75	0xff	-1
76	0x01	1
77	0x00	0
78	0xfb	-5
79	0x00	0
80	0xfe	-2
81	0x00	0
82	0x04	4
83	0x01	1
84	0x02	2
85	0x1f	31
86	0x01	1
87	0x81	-127
88	0x00	0
89	0x06	6
90	0x07	7
91	0x02	2
92	0x01	1
93	0x38	56
94	0x00	0
95	0x00	0
96	0x02	2
97	0x03	3
98	0x25	37
99	0xc6	-58
100	0x02	2
101	0x07	7
102	0x01	1
103	0x03	3
104	0x00	0
105	0x02	2
106	0xef	-17
107	0x81	-127
108	0x1c	28
109	0xff	-1
110	0x2f	47
111	0x00	0
112	0x19	25
113	0xfd	-3
114	0x04	4
115	0x06	6
116	0xf9	-7
117	0x0a	10
118	0x03	3
119	0x7f	127
120	0xfd	-3
121	0x03	3
122	0x14	20
123	0xff	-1
124	0xfe	-2
125	0x7a	122
126	0x0d	13
127	0x00	0
128	0x04	4
129	0x0d	13
130	0xf2	-14
131	0x06	6
132	0x06	6
133	0x00	0
134	0xfe	-2
135	0x00	0
136	0x07	7
137	0xc1	-63
138	0xf2	-14
139	0x02	2
140	0xfa	-6
141	0xff	-1
142	0x81	-127
143	0x00	0
144	0x15	21
145	0x28	40
146	0xfc	-4
147	0x04	4
148	0x05	5
149	0x01	1
150	0x1f	31
151	0x00	0
152	0x7f	127
153	0x0a	10
154	0xfe	-2
155	0xff	-1
156	0xff	-1
157	0x02	2
158	0xfe	-2
159	0x00	0
160	0x08	8
161	0x02	2
162	0x0c	12
163	0xfd	-3
164	0xfa	-6
165	0xca	-54
166	0x00	0
167	0xfe	-2
168	0x03	3
169	0xf0	-16
170	0x0a	10
171	0xfc	-4
172	0x06	6
173	0x7f	127
174	0xf9	-7
175	0x00	0
176	0x04	4
177	0x02	2
178	0x06	6
179	0xfe	-2
180	0xfb	-5
181	0x20	32
182	0x05	5
183	0x81	-127
184	0x02	2
185	0xf0	-16
186	0x06	6
187	0xfe	-2
188	0x04	4
189	0x49	73
190	0xfa	-6
191	0x00	0
192	0x01	1
193	0x00	0
194	0xf3	-13
195	0x7f	127
196	0x00	0
197	0x04	4
198	0x01	1
199	0x04	4
200	0xff	-1
201	0xfc	-4
202	0x28	40
203	0x08	8
204	0x0c	12
205	0x02	2
206	0x13	19
207	0x00	0
208	0x03	3
209	0x06	6
210	0x00	0
211	0x03	3
212	0x01	1
213	0x01	1
214	0xf7	-9
215	0xfe	-2
216	0xf8	-8
217	0xd4	-44
218	0x05	5
219	0x03	3
220	0xff	-1
221	0xff	-1
222	0x7f	127
223	0x00	0
224	0x04	4
225	0xf3	-13
226	0x00	0
227	0x7f	127
228	0xe1	-31
229	0x01	1
230	0x02	2
231	0x03	3
232	0xfc	-4
233	0x14	20
234	0x08	8
235	0xc4	-60
236	0x16	22
237	0x00	0
238	0x22	34
239	0x00	0
240	0x00	0
241	0x00	0
242	0xfc	-4
243	0xff	-1
244	0x00	0
245	0xff	-1
246	0x00	0
247	0xff	-1
248	0x01	1
249	0x02	2
250	0xfa	-6
251	0x00	0
252	0x81	-127
253	0xff	-1
254	0x01	1
255	0x00	0

MobilenetV1/MobilenetV1/Conv2d_3_pointwise/Conv2D i1 [32, 1, 1, 32]
0	0x02	2
1	0xbb	-69
2	0x01	1
3	0x01	1
4	0xfe	-2
5	0x00	0
6	0x01	1
7	0x04	4
8	0xf1	-15
9	0xfc	-4
10	0x00	0
11	0x00	0
12	0x00	0
13	0xf1	-15
14	0x06	6
15	0xff	-1
16	0x01	1
17	0x09	9
18	0x01	1
19	0xff	-1
20	0xfe	-2
21	0x04	4
22	0xfb	-5
23	0xfd	-3
24	0x00	0
25	0x00	0
26	0x04	4
27	0xff	-1
28	0xfc	-4
29	0x03	3
30	0xfa	-6
31	0x81	-127
32	0xdd	-35
33	0x15	21
34	0xe9	-23
35	0x66	102
36	0xcb	-53
37	0xd0	-48
38	0xf0	-16
39	0x7f	127
40	0xdb	-37
41	0x07	7
42	0x8f	-113
43	0x64	100
44	0x19	25
45	0xe9	-23
46	0x26	38
47	0xf9	-7
48	0x03	3
49	0xe3	-29
50	0x06	6
51	0x0a	10
52	0xf9	-7
53	0xf4	-12
54	0x0b	11
55	0x01	1
56	0xeb	-21
57	0x9d	-99
58	0xdd	-35
59	0x8e	-114
60	0xe8	-24
61	0x02	2
62	0x03	3
63	0xe5	-27
64	0x04	4
65	0xcc	-52
66	0xfb	-5
67	0x07	7
68	0x0a	10
69	0xf5	-11
70	0x00	0
71	0xf8	-8
72	0xe5	-27
73	0xcf	-49
74	0x03	3
75	0x02	2
76	0xff	-1
77	0x7f	127
78	0x10	16
79	0xfd	-3
80	0x0b	11
81	0xed	-19
82	0xff	-1
83	0xf1	-15
84	0xfc	-4
85	0x09	9
86	0xfb	-5
87	0xf6	-10
88	0x06	6
89	0x02	2
90	0xf1	-15
91	0x02	2
92	0x11	17
93	0x08	8
94	0x07	7
95	0xff	-1
96	0xff	-1
97	0xf9	-7
98	0x02	2
99	0xfe	-2
100	0xfd	-3
101	0x04	4
102	0xff	-1
103	0x06	6
104	0x01	1
105	0xff	-1
106	0xff	-1
107	0x01	1
108	0x00	0
109	0x00	0
110	0x01	1
111	0x00	0
112	0xfc	-4
113	0xf1	-15
114	0xfe	-2
115	0xfa	-6
116	0xff	-1
117	0xf6	-10
118	0x09	9
119	0x7f	127
120	0x01	1
121	0xfe	-2
122	0xfd	-3
123	0x00	0
124	0xfe	-2
125	0xfd	-3
126	0x40	64
127	0xe0	-32
128	0x02	2
129	0x0f	15
130	0xed	-19
131	0x01	1
132	0xfe	-2
133	0xee	-18
134	0xf9	-7
135	0xf6	-10
136	0x2d	45
137	0xfd	-3
138	0x12	18
139	0xff	-1
140	0x05	5
141	0x81	-127
142	0x00	0
143	0x00	0
144	0xfb	-5
145	0xfe	-2
146	0xf9	-7
147	0x0e	14
148	0x01	1
149	0x03	3
150	0xfe	-2
151	0x03	3
152	0xff	-1
153	0x14	20
154	0x00	0
155	0x09	9
156	0xf1	-15
157	0x01	1
158	0xfc	-4
159	0x15	21
160	0x05	5
161	0xfb	-5
162	0xfb	-5
163	0x4b	75
164	0x20	32
165	0x5f	95
166	0x0f	15
167	0x37	55
168	0x07	7
169	0x07	7
170	0x7f	127
171	0x20	32
172	0xf7	-9
173	0x11	17
174	0xf3	-13
175	0x03	3
176	0xee	-18
177	0x10	16
178	0xf3	-13
179	0x08	8
180	0xfc	-4
181	0x1a	26
182	0xf6	-10
183	0x03	3
184	0xf8	-8
185	0xc8	-56
186	0x06	6
187	0x03	3
188	0xf8	-8
189	0xf0	-16
190	0x00	0
191	0x02	2
192	0x16	22
193	0xf4	-12
194	0xf0	-16
195	0x00	0
196	0x00	0
197	0xf8	-8
198	0xa5	-91
199	0x0c	12
200	0x14	20
201	0x03	3
202	0x04	4
203	0xf9	-7
204	0x7f	127
205	0x1a	26
206	0xff	-1
207	0xfe	-2
208	0x01	1
209	0x07	7
210	0xff	-1
211	0x14	20
212	0xf9	-7
213	0x05	5
214	0x02	2
215	0x01	1
216	0xcd	-51
217	0x0a	10
218	0xf8	-8
219	0x0d	13
220	0x10	16
221	0x01	1
222	0xfa	-6
223	0xfd	-3
224	0x02	2
225	0xb9	-71
226	0x05	5
227	0xfe	-2
228	0xc8	-56
229	0x03	3
230	0xfd	-3
231	0xff	-1
232	0x0c	12
233	0x5c	92
234	0x02	2
235	0xff	-1
236	0x01	1
237	0x0b	11
238	0x00	0
239	0x00	0
240	0x07	7
241	0xbf	-65
242	0x02	2
243	0x07	7
244	0x02	2
245	0x02	2
246	0x81	-127
247	0x23	35
248	0xff	-1
249	0xfe	-2
250	0x12	18
251	0xff	-1
252	0xfd	-3
253	0x04	4
254	0x16	22
255	0xf3	-13

MobilenetV1/MobilenetV1/Conv2d_4_pointwise/Conv2D i1 [64, 1, 1, 32]
0	0xf6	-10
1	0x1c	28
2	0xad	-83
3	0xff	-1
4	0x07	7
5	0x04	4
6	0x1f	31
7	0x0b	11
8	0x02	2
9	0x08	8
10	0x15	21
11	0x1e	30
12	0x07	7
13	0xfd	-3
14	0x08	8
15	0xe1	-31
16	0xfb	-5
17	0x07	7
18	0xf6	-10
19	0xfc	-4
20	0x18	24
21	0x2b	43
22	0xc7	-57
23	0x03	3
24	0x81	-127
25	0xf7	-9
26	0xfe	-2
27	0xfd	-3
28	0x10	16
29	0x02	2
30	0x00	0
31	0x02	2
32	0x31	49
33	0x14	20
34	0x9d	-99
35	0xfa	-6
36	0x0a	10
37	0xdb	-37
38	0xf8	-8
39	0x0a	10
40	0xff	-1
41	0xed	-19
42	0xf7	-9
43	0xfc	-4
44	0x10	16
45	0xe9	-23
46	0x24	36
47	0x1c	28
48	0xe7	-25
49	0xfd	-3
50	0x7f	127
51	0x00	0
52	0x0a	10
53	0x14	20
54	0xfb	-5
55	0xff	-1
56	0x01	1
57	0xff	-1
58	0x0a	10
59	0x01	1
60	0x11	17
61	0xfa	-6
62	0xe1	-31
63	0xd0	-48
64	0xfb	-5
65	0xc3	-61
66	0x5f	95
67	0xf2	-14
68	0xfa	-6
69	0xf6	-10
70	0xa9	-87
71	0xdb	-37
72	0xf9	-7
73	0xf3	-13
74	0x7f	127
75	0xb5	-75
76	0x0f	15
77	0x11	17
78	0xf5	-11
79	0x61	97
80	0xf4	-12
81	0xef	-17
82	0xfb	-5
83	0xb6	-74
84	0xe7	-25
85	0xb1	-79
86	0x33	51
87	0x1b	27
88	0x51	81
89	0x39	57
90	0x49	73
91	0xa8	-88
92	0xef	-17
93	0x49	73
94	0x35	53
95	0xf2	-14
96	0xfa	-6
97	0xe5	-27
98	0x34	52
99	0x01	1
100	0x09	9
101	0x04	4
102	0xfd	-3
103	0x0d	13
104	0x02	2
105	0x07	7
106	0xe2	-30
107	0xff	-1
108	0x04	4
109	0x07	7
110	0xfa	-6
111	0x09	9
112	0xfd	-3
113	0xf9	-7
114	0x81	-127
115	0xfd	-3
116	0xf7	-9
117	0xfa	-6
118	0x06	6
119	0x0a	10
120	0xfc	-4
121	0x01	1
122	0x00	0
123	0xfc	-4
124	0xf6	-10
125	0x02	2
126	0x0a	10
127	0x03	3
128	0x7f	127
129	0xed	-19
130	0xff	-1
131	0xec	-20
132	0xf1	-15
133	0xff	-1
134	0xff	-1
135	0x10	16
136	0xff	-1
137	0xff	-1
138	0x00	0
139	0x03	3
140	0xe9	-23
141	0xe8	-24
142	0xfd	-3
143	0xfd	-3
144	0xf4	-12
145	0x00	0
146	0xd2	-46
147	0x04	4
148	0x05	5
149	0x02	2
150	0x00	0
151	0x0a	10
152	0xea	-22
153	0x01	1
154	0x07	7
155	0x00	0
156	0xff	-1
157	0x04	4
158	0xf8	-8
159	0x09	9
160	0x05	5
161	0xf4	-12
162	0xf2	-14
163	0xfe	-2
164	0xed	-19
165	0x00	0
166	0x12	18
167	0xfd	-3
168	0x47	71
169	0x01	1
170	0xfb	-5
171	0xe3	-29
172	0x06	6
173	0x00	0
174	0xff	-1
175	0x08	8
176	0xfa	-6
177	0xef	-17
178	0xf5	-11
179	0xfe	-2
180	0x44	68
181	0xd1	-47
182	0x05	5
183	0x00	0
184	0xe2	-30
185	0x00	0
186	0xfa	-6
187	0x05	5
188	0x07	7
189	0x11	17
190	0x7f	127
191	0x03	3
192	0x06	6
193	0x32	50
194	0xd2	-46
195	0x00	0
196	0x2c	44
197	0xcf	-49
198	0x35	53
199	0x2d	45
200	0x07	7
201	0xa5	-91
202	0xf8	-8
203	0x13	19
204	0xb2	-78
205	0x16	22
206	0xcb	-53
207	0x1f	31
208	0x7f	127
209	0x3a	58
210	0xd9	-39
211	0x13	19
212	0xfa	-6
213	0xf8	-8
214	0xe5	-27
215	0x23	35
216	0xf9	-7
217	0x02	2
218	0x23	35
219	0x05	5
220	0x71	113
221	0xdf	-33
222	0x1f	31
223	0xf1	-15
224	0x0b	11
225	0xec	-20
226	0x08	8
227	0x16	22
228	0x3b	59
229	0xf6	-10
230	0x09	9
231	0xf7	-9
232	0xfe	-2
233	0xf4	-12
234	0xf1	-15
235	0xff	-1
236	0xe1	-31
237	0x0e	14
238	0x07	7
239	0xc3	-61
240	0x1b	27
241	0x39	57
242	0x25	37
243	0xff	-1
244	0xf2	-14
245	0xf6	-10
246	0xed	-19
247	0xf5	-11
248	0x20	32
249	0x03	3
250	0x25	37
251	0x28	40
252	0x81	-127
253	0xf6	-10
254	0xf7	-9
255	0x73	115

MobilenetV1/MobilenetV1/Conv2d_5_pointwise/Conv2D i1 [64, 1, 1, 64]
0	0xef	-17
1	0xe9	-23
2	0xef	-17
3	0x05	5
4	0xeb	-21
5	0xeb	-21
6	0x16	22
7	0x04	4
8	0x26	38
9	0x19	25
10	0xf6	-10
11	0xfa	-6
12	0xf6	-10
13	0x00	0
14	0xe0	-32
15	0x08	8
16	0x03	3
17	0xff	-1
18	0x01	1
19	0x05	5
20	0x06	6
21	0xff	-1
22	0x08	8
23	0x13	19
24	0x04	4
25	0xf1	-15
26	0x07	7
27	0x06	6
28	0x0e	14
29	0x54	84
30	0xfd	-3
31	0xfb	-5
32	0xf0	-16
33	0xfe	-2
34	0x01	1
35	0xe9	-23
36	0x12	18
37	0x00	0
38	0x03	3
39	0xf2	-14
40	0xf9	-7
41	0x07	7
42	0x04	4
43	0x07	7
44	0x81	-127
45	0x0c	12
46	0x12	18
47	0x0e	14
48	0xf7	-9
49	0xf5	-11
50	0xef	-17
51	0x0c	12
52	0x08	8
53	0xf6	-10
54	0x02	2
55	0x15	21
56	0xe7	-25
57	0xf4	-12
58	0xf3	-13
59	0xfa	-6
60	0xeb	-21
61	0x19	25
62	0xf3	-13
63	0xec	-20
64	0x15	21
65	0xf9	-7
66	0x03	3
67	0x5f	95
68	0xf5	-11
69	0xfa	-6
70	0xbe	-66
71	0x81	-127
72	0x02	2
73	0x09	9
74	0x01	1
75	0x01	1
76	0xa8	-88
77	0x25	37
78	0x0f	15
79	0x0e	14
80	0xf0	-16
81	0xf2	-14
82	0x09	9
83	0x29	41
84	0x18	24
85	0xcd	-51
86	0xdb	-37
87	0xdf	-33
88	0x09	9
89	0x2b	43
90	0x3c	60
91	0xee	-18
92	0x0d	13
93	0x01	1
94	0xec	-20
95	0xfe	-2
96	0x09	9
97	0xe6	-26
98	0x18	24
99	0xfa	-6
100	0xd9	-39
101	0x02	2
102	0xfa	-6
103	0x1a	26
104	0x08	8
105	0xe3	-29
106	0x07	7
107	0xeb	-21
108	0xf0	-16
109	0xea	-22
110	0x1a	26
111	0xfd	-3
112	0xf3	-13
113	0xd7	-41
114	0x05	5
115	0x0e	14
116	0x0c	12
117	0x1a	26
118	0x1c	28
119	0xf7	-9
120	0x15	21
121	0x21	33
122	0xc9	-55
123	0x1f	31
124	0x03	3
125	0x27	39
126	0xd6	-42
127	0xb5	-75
128	0x04	4
129	0x0b	11
130	0xf6	-10
131	0x19	25
132	0x05	5
133	0x04	4
134	0x09	9
135	0xc7	-57
136	0xfc	-4
137	0x16	22
138	0xf9	-7
139	0x04	4
140	0xfe	-2
141	0xd4	-44
142	0x01	1
143	0xfd	-3
144	0x0d	13
145	0x00	0
146	0xf4	-12
147	0x00	0
148	0x17	23
149	0xfb	-5
150	0xf9	-7
151	0xff	-1
152	0xf4	-12
153	0xfb	-5
154	0xfd	-3
155	0xa2	-94
156	0x00	0
157	0xf0	-16
158	0xfb	-5
159	0x05	5
160	0xf6	-10
161	0x05	5
162	0x00	0
163	0x03	3
164	0xfd	-3
165	0x04	4
166	0xfe	-2
167	0x01	1
168	0x00	0
169	0x1c	28
170	0xe6	-26
171	0xa2	-94
172	0xfd	-3
173	0x04	4
174	0x08	8
175	0xd9	-39
176	0x48	72
177	0x7f	127
178	0x08	8
179	0xfc	-4
180	0xde	-34
181	0xfa	-6
182	0x06	6
183	0xf9	-7
184	0xfd	-3
185	0xf5	-11
186	0x04	4
187	0xf6	-10
188	0xfd	-3
189	0x00	0
190	0x09	9
191	0xfc	-4
192	0x34	52
193	0x0d	13
194	0xd4	-44
195	0x1d	29
196	0x2e	46
197	0xe1	-31
198	0xf0	-16
199	0x0a	10
200	0xf9	-7
201	0xf0	-16
202	0x67	103
203	0xf8	-8
204	0xd5	-43
205	0xf6	-10
206	0x7f	127
207	0x0c	12
208	0xd8	-40
209	0x13	19
210	0xc3	-61
211	0x47	71
212	0x0e	14
213	0x06	6
214	0xf7	-9
215	0xe8	-24
216	0xfd	-3
217	0x54	84
218	0xfa	-6
219	0x05	5
220	0x00	0
221	0x26	38
222	0x23	35
223	0xf5	-11
224	0x05	5
225	0xee	-18
226	0xfc	-4
227	0xf6	-10
228	0xd6	-42
229	0xf2	-14
230	0x05	5
231	0xe6	-26
232	0x2e	46
233	0xc0	-64
234	0xf3	-13
235	0x02	2
236	0x02	2
237	0x2e	46
238	0x10	16
239	0xf2	-14
240	0xed	-19
241	0x1a	26
242	0x0f	15
243	0xf8	-8
244	0xe1	-31
245	0xf8	-8
246	0xff	-1
247	0x55	85
248	0xe1	-31
249	0xcc	-52
250	0x0b	11
251	0xe1	-31
252	0x17	23
253	0x2f	47
254	0x0e	14
255	0xeb	-21

MobilenetV1/MobilenetV1/Conv2d_6_pointwise/Conv2D i1 [128, 1, 1, 64]
0	0x06	6
1	0xf6	-10
2	0x20	32
3	0xf9	-7
4	0xe3	-29
5	0xad	-83
6	0x11	17
7	0xce	-50
8	0xfc	-4
9	0xaf	-81
10	0xf0	-16
11	0xdb	-37
12	0x0a	10
13	0x3d	61
14	0xf9	-7
15	0xfa	-6
16	0x04	4
17	0x05	5
18	0x19	25
19	0x43	67
20	0xb0	-80
21	0xfd	-3
22	0x11	17
23	0x1a	26
24	0xe7	-25
25	0xdc	-36
26	0xc4	-60
27	0x20	32
28	0x7f	127
29	0xa3	-93
30	0x14	20
31	0xb6	-74
32	0xc3	-61
33	0x06	6
34	0x1d	29
35	0x27	39
36	0xba	-70
37	0xe7	-25
38	0x26	38
39	0xdd	-35
40	0x08	8
41	0x3a	58
42	0xe9	-23
43	0x01	1
44	0x46	70
45	0xde	-34
46	0x08	8
47	0x20	32
48	0xf7	-9
49	0xf9	-7
50	0x1d	29
51	0xf9	-7
52	0xfa	-6
53	0x12	18
54	0xfe	-2
55	0x0f	15
56	0xdf	-33
57	0x2e	46
58	0x05	5
59	0xfe	-2
60	0xfe	-2
61	0xed	-19
62	0xff	-1
63	0xf9	-7
64	0x01	1
65	0x00	0
66	0xf6	-10
67	0x01	1
68	0xfe	-2
69	0xfa	-6
70	0xff	-1
71	0xf8	-8
72	0xd7	-41
73	0x0d	13
74	0xe9	-23
75	0x04	4
76	0x05	5
77	0xf7	-9
78	0x10	16
79	0xfb	-5
80	0x01	1
81	0x04	4
82	0xf8	-8
83	0x02	2
84	0xff	-1
85	0x12	18
86	0x03	3
87	0xf3	-13
88	0xfd	-3
89	0x05	5
90	0xe1	-31
91	0x00	0
92	0xff	-1
93	0xee	-18
94	0xff	-1
95	0xfc	-4
96	0x07	7
97	0x04	4
98	0xff	-1
99	0x0d	13
100	0xfd	-3
101	0x44	68
102	0x02	2
103	0x25	37
104	0x06	6
105	0x01	1
106	0xf4	-12
107	0x05	5
108	0x04	4
109	0xfb	-5
110	0xf1	-15
111	0x0b	11
112	0xf3	-13
113	0xff	-1
114	0x0e	14
115	0x06	6
116	0x03	3
117	0xc0	-64
118	0xfa	-6
119	0xff	-1
120	0xe6	-26
121	0xfa	-6
122	0xff	-1
123	0x81	-127
124	0xfe	-2
125	0x02	2
126	0xfd	-3
127	0x40	64
128	0xfa	-6
129	0xf6	-10
130	0x02	2
131	0x11	17
132	0xde	-34
133	0xfb	-5
134	0xfd	-3
135	0x0f	15
136	0xfe	-2
137	0x02	2
138	0x6a	106
139	0xfa	-6
140	0xf4	-12
141	0xf9	-7
142	0xc1	-63
143	0xfd	-3
144	0xfb	-5
145	0xea	-22
146	0xf8	-8
147	0x05	5
148	0xdd	-35
149	0x30	48
150	0xf4	-12
151	0x3a	58
152	0x11	17
153	0xf4	-12
154	0x81	-127
155	0xfe	-2
156	0x0c	12
157	0xf1	-15
158	0xf0	-16
159	0xfb	-5
160	0xcf	-49
161	0xed	-19
162	0x01	1
163	0xd5	-43
164	0xd5	-43
165	0x0b	11
166	0xfe	-2
167	0xe1	-31
168	0xf5	-11
169	0x07	7
170	0xfa	-6
171	0xfe	-2
172	0x0f	15
173	0x0a	10
174	0x1a	26
175	0xf6	-10
176	0xe7	-25
177	0x05	5
178	0xa2	-94
179	0xfb	-5
180	0x06	6
181	0x9c	-100
182	0xff	-1
183	0xe8	-24
184	0xe6	-26
185	0x03	3
186	0xfb	-5
187	0x26	38
188	0xf7	-9
189	0xbc	-68
190	0x09	9
191	0x0a	10
192	0x09	9
193	0xfe	-2
194	0x00	0
195	0xff	-1
196	0xea	-22
197	0xfd	-3
198	0xfe	-2
199	0xef	-17
200	0xe3	-29
201	0xfd	-3
202	0xfe	-2
203	0x0e	14
204	0xf7	-9
205	0x30	48
206	0x01	1
207	0x21	33
208	0xe9	-23
209	0xd3	-45
210	0x45	69
211	0x0a	10
212	0xe0	-32
213	0x11	17
214	0x09	9
215	0x02	2
216	0x0e	14
217	0xf5	-11
218	0x0d	13
219	0xd8	-40
220	0xec	-20
221	0x0c	12
222	0xf9	-7
223	0x07	7
224	0x4e	78
225	0x0b	11
226	0xf5	-11
227	0xc9	-55
228	0xff	-1
229	0xf7	-9
230	0x09	9
231	0xf6	-10
232	0xf2	-14
233	0xf5	-11
234	0x1f	31
235	0x00	0
236	0x07	7
237	0x16	22
238	0x0e	14
239	0x0a	10
240	0xfd	-3
241	0x2d	45
242	0x0d	13
243	0x65	101
244	0x81	-127
245	0x09	9
246	0xe2	-30
247	0xfa	-6
248	0xf6	-10
249	0xe8	-24
250	0xf9	-7
251	0xfa	-6
252	0x13	19
253	0xfe	-2
254	0x0f	15
255	0xf8	-8

MobilenetV1/MobilenetV1/Conv2d_7_pointwise/Conv2D i1 [128, 1, 1, 128]
0	0x1c	28
1	0x0f	15
2	0x1c	28
3	0xee	-18
4	0xef	-17
5	0x03	3
6	0x01	1
7	0x0a	10
8	0xe3	-29
9	0xfa	-6
10	0x14	20
11	0x1f	31
12	0x13	19
13	0x03	3
14	0x02	2
15	0x03	3
16	0x11	17
17	0xf2	-14
18	0x05	5
19	0xe2	-30
20	0xec	-20
21	0xf7	-9
22	0x0a	10
23	0x00	0
24	0xfc	-4
25	0x01	1
26	0xdd	-35
27	0x05	5
28	0xf5	-11
29	0xd8	-40
30	0x03	3
31	0x04	4
32	0xff	-1
33	0x06	6
34	0xe5	-27
35	0xdd	-35
36	0x1f	31
37	0xfb	-5
38	0xf7	-9
39	0x0c	12
40	0xcd	-51
41	0xf4	-12
42	0xfb	-5
43	0x6f	111
44	0xeb	-21
45	0xff	-1
46	0xfc	-4
47	0xf1	-15
48	0xe5	-27
49	0xdb	-37
50	0x16	22
51	0xe7	-25
52	0xff	-1
53	0x13	19
54	0x07	7
55	0xf8	-8
56	0x18	24
57	0x0b	11
58	0xfe	-2
59	0x14	20
60	0x07	7
61	0xf8	-8
62	0x01	1
63	0x0a	10
64	0xfd	-3
65	0x14	20
66	0xb9	-71
67	0x02	2
68	0x1e	30
69	0x0d	13
70	0x0c	12
71	0x33	51
72	0x0b	11
73	0x01	1
74	0xfa	-6
75	0x03	3
76	0xfe	-2
77	0x81	-127
78	0x0a	10
79	0xfa	-6
80	0xff	-1
81	0xb8	-72
82	0x1b	27
83	0xed	-19
84	0xf8	-8
85	0xe7	-25
86	0x16	22
87	0x11	17
88	0x19	25
89	0xfb	-5
90	0x09	9
91	0x49	73
92	0xe6	-26
93	0x03	3
94	0x1d	29
95	0x10	16
96	0x07	7
97	0x0a	10
98	0xff	-1
99	0xa6	-90
100	0x02	2
101	0xf7	-9
102	0xf5	-11
103	0xeb	-21
104	0xba	-70
105	0x0d	13
106	0x12	18
107	0x17	23
108	0xf8	-8
109	0xfe	-2
110	0x0c	12
111	0x08	8
112	0xe6	-26
113	0x05	5
114	0x2d	45
115	0xfa	-6
116	0x0a	10
117	0xf6	-10
118	0xe4	-28
119	0xfb	-5
120	0xc3	-61
121	0x11	17
122	0xb0	-80
123	0xf8	-8
124	0xff	-1
125	0x17	23
126	0xfb	-5
127	0xd5	-43
128	0x1f	31
129	0x49	73
130	0x12	18
131	0xf5	-11
132	0xfa	-6
133	0x0f	15
134	0xde	-34
135	0x15	21
136	0xd4	-44
137	0xf6	-10
138	0x4d	77
139	0x09	9
140	0x19	25
141	0x01	1
142	0x02	2
143	0x08	8
144	0xbc	-68
145	0x13	19
146	0x1b	27
147	0xfc	-4
148	0x20	32
149	0xf7	-9
150	0x15	21
151	0xd4	-44
152	0x21	33
153	0xfe	-2
154	0x11	17
155	0x0e	14
156	0x01	1
157	0xf3	-13
158	0xf3	-13
159	0xef	-17
160	0xa5	-91
161	0xef	-17
162	0xdc	-36
163	0xeb	-21
164	0xf9	-7
165	0xd8	-40
166	0x03	3
167	0x40	64
168	0xc6	-58
169	0x11	17
170	0x0d	13
171	0x3c	60
172	0xe2	-30
173	0xf4	-12
174	0xd2	-46
175	0x0c	12
176	0x17	23
177	0x32	50
178	0xcf	-49
179	0x06	6
180	0xd7	-41
181	0xf5	-11
182	0x29	41
183	0xbe	-66
184	0x0a	10
185	0x03	3
186	0x0b	11
187	0x11	17
188	0x2c	44
189	0x19	25
190	0x0f	15
191	0x4b	75
192	0x04	4
193	0xc1	-63
194	0xee	-18
195	0xf4	-12
196	0x14	20
197	0x10	16
198	0x1d	29
199	0x39	57
200	0xd0	-48
201	0xef	-17
202	0x0e	14
203	0x31	49
204	0xed	-19
205	0x81	-127
206	0xf8	-8
207	0x1b	27
208	0xe2	-30
209	0xd4	-44
210	0x10	16
211	0x0f	15
212	0x2f	47
213	0x12	18
214	0x16	22
215	0x1c	28
216	0xe1	-31
217	0xcf	-49
218	0x0c	12
219	0xed	-19
220	0xd4	-44
221	0x53	83
222	0x0f	15
223	0x51	81
224	0xd0	-48
225	0x58	88
226	0x15	21
227	0xc8	-56
228	0x1b	27
229	0xf0	-16
230	0x11	17
231	0x2f	47
232	0xe0	-32
233	0x25	37
234	0x3c	60
235	0x10	16
236	0xfa	-6
237	0x4d	77
238	0x25	37
239	0xde	-34
240	0xe5	-27
241	0x03	3
242	0x02	2
243	0x21	33
244	0x36	54
245	0x4a	74
246	0xd5	-43
247	0x2f	47
248	0xe9	-23
249	0x20	32
250	0x0e	14
251	0x10	16
252	0x22	34
253	0xe7	-25
254	0x1f	31
255	0x2b	43

MobilenetV1/MobilenetV1/Conv2d_8_pointwise/Conv2D i1 [128, 1, 1, 128]
0	0x16	22
1	0xfa	-6
2	0xd6	-42
3	0x18	24
4	0x0a	10
5	0xcf	-49
6	0xe3	-29
7	0xe5	-27
8	0x55	85
9	0xfa	-6
10	0xf6	-10
11	0xc6	-58
12	0xf6	-10
13	0xf7	-9
14	0xed	-19
15	0x1e	30
16	0xc1	-63
17	0xdf	-33
18	0x11	17
19	0x18	24
20	0xf1	-15
21	0xe8	-24
22	0xd4	-44
23	0x76	118
24	0xfb	-5
25	0x94	-108
26	0x10	16
27	0x08	8
28	0x64	100
29	0xea	-22
30	0xeb	-21
31	0xbf	-65
32	0xc4	-60
33	0xe2	-30
34	0x44	68
35	0xfc	-4
36	0xfa	-6
37	0x0e	14
38	0xf8	-8
39	0xfb	-5
40	0x28	40
41	0xde	-34
42	0x41	65
43	0x0b	11
44	0xdb	-37
45	0xf5	-11
46	0xf4	-12
47	0xf0	-16
48	0x30	48
49	0x11	17
50	0xff	-1
51	0xf4	-12
52	0x81	-127
53	0x54	84
54	0xee	-18
55	0xea	-22
56	0xbe	-66
57	0x23	35
58	0x09	9
59	0x17	23
60	0x08	8
61	0x31	49
62	0x1a	26
63	0x1d	29
64	0x15	21
65	0xef	-17
66	0x28	40
67	0x16	22
68	0x68	104
69	0x05	5
70	0xb0	-80
71	0x45	69
72	0xdb	-37
73	0x0c	12
74	0xf0	-16
75	0x2b	43
76	0xbb	-69
77	0xf7	-9
78	0xe2	-30
79	0xd9	-39
80	0xe9	-23
81	0xed	-19
82	0x04	4
83	0xb2	-78
84	0x0d	13
85	0xd5	-43
86	0xe2	-30
87	0xf6	-10
88	0xea	-22
89	0x08	8
90	0x1d	29
91	0xee	-18
92	0xfe	-2
93	0xe7	-25
94	0x14	20
95	0x05	5
96	0x0a	10
97	0x1f	31
98	0xf3	-13
99	0x05	5
100	0xf6	-10
101	0x0d	13
102	0x27	39
103	0x03	3
104	0x0e	14
105	0xe3	-29
106	0x04	4
107	0x25	37
108	0x31	49
109	0xf4	-12
110	0x01	1
111	0x0e	14
112	0xfe	-2
113	0x15	21
114	0xfc	-4
115	0x5d	93
116	0x15	21
117	0xe2	-30
118	0x12	18
119	0xe3	-29
120	0xe0	-32
121	0xe0	-32
122	0x70	112
123	0xe2	-30
124	0xfd	-3
125	0x30	48
126	0xf4	-12
127	0x00	0
128	0x16	22
129	0xd2	-46
130	0x07	7
131	0x48	72
132	0xc8	-56
133	0x17	23
134	0x0a	10
135	0x10	16
136	0x0b	11
137	0x04	4
138	0x04	4
139	0x01	1
140	0x19	25
141	0x16	22
142	0x00	0
143	0xf4	-12
144	0x0e	14
145	0x09	9
146	0xe8	-24
147	0xf2	-14
148	0x1a	26
149	0x06	6
150	0xfe	-2
151	0xee	-18
152	0xee	-18
153	0xeb	-21
154	0x04	4
155	0x13	19
156	0xdd	-35
157	0x09	9
158	0xfc	-4
159	0xff	-1
160	0xf6	-10
161	0xfe	-2
162	0x01	1
163	0xfa	-6
164	0x07	7
165	0xf9	-7
166	0x03	3
167	0x02	2
168	0x07	7
169	0x08	8
170	0xfa	-6
171	0x05	5
172	0x02	2
173	0xef	-17
174	0xb7	-73
175	0x05	5
176	0xec	-20
177	0x11	17
178	0x04	4
179	0x07	7
180	0x1e	30
181	0xff	-1
182	0x04	4
183	0xfa	-6
184	0xf2	-14
185	0xde	-34
186	0xf8	-8
187	0xdb	-37
188	0xf7	-9
189	0x18	24
190	0xd2	-46
191	0xff	-1
192	0xda	-38
193	0xeb	-21
194	0xec	-20
195	0xf8	-8
196	0x14	20
197	0xfe	-2
198	0x04	4
199	0x04	4
200	0xf8	-8
201	0x31	49
202	0x02	2
203	0x06	6
204	0xdf	-33
205	0x18	24
206	0xe6	-26
207	0x0b	11
208	0x07	7
209	0xe7	-25
210	0x1a	26
211	0x30	48
212	0x0a	10
213	0x7f	127
214	0xeb	-21
215	0x02	2
216	0x02	2
217	0x0b	11
218	0xab	-85
219	0x13	19
220	0x07	7
221	0x0d	13
222	0x0a	10
223	0xfb	-5
224	0x0c	12
225	0xe5	-27
226	0x09	9
227	0x15	21
228	0x04	4
229	0xee	-18
230	0xf9	-7
231	0x2f	47
232	0xeb	-21
233	0x01	1
234	0x0c	12
235	0xf7	-9
236	0x16	22
237	0x18	24
238	0xed	-19
239	0xfe	-2
240	0x15	21
241	0xef	-17
242	0xea	-22
243	0xf2	-14
244	0xed	-19
245	0xf8	-8
246	0x11	17
247	0x03	3
248	0x10	16
249	0xf4	-12
250	0xd0	-48
251	0xf8	-8
252	0xfc	-4
253	0xf1	-15
254	0xea	-22
255	0xfe	-2

MobilenetV1/MobilenetV1/Conv2d_9_pointwise/Conv2D i1 [128, 1, 1, 128]
0	0x07	7
1	0x06	6
2	0xd5	-43
3	0xdd	-35
4	0xf0	-16
5	0xe8	-24
6	0x02	2
7	0x11	17
8	0xd8	-40
9	0x9d	-99
10	0xdf	-33
11	0xf7	-9
12	0x30	48
13	0xfa	-6
14	0x14	20
15	0xfe	-2
16	0xce	-50
17	0x16	22
18	0x70	112
19	0x1d	29
20	0xec	-20
21	0xfa	-6
22	0xf4	-12
23	0xec	-20
24	0x0f	15
25	0x01	1
26	0x07	7
27	0x04	4
28	0x1e	30
29	0xe1	-31
30	0xa4	-92
31	0xf3	-13
32	0x0d	13
33	0xd4	-44
34	0x4f	79
35	0x07	7
36	0x09	9
37	0xdf	-33
38	0x17	23
39	0x03	3
40	0xf3	-13
41	0x2f	47
42	0x2a	42
43	0xf8	-8
44	0x36	54
45	0xe3	-29
46	0xca	-54
47	0x15	21
48	0x43	67
49	0xce	-50
50	0x04	4
51	0x01	1
52	0xf3	-13
53	0x3a	58
54	0xd5	-43
55	0xf7	-9
56	0xb1	-79
57	0x01	1
58	0xd9	-39
59	0x2e	46
60	0x21	33
61	0xff	-1
62	0x10	16
63	0xe3	-29
64	0xfa	-6
65	0xc0	-64
66	0xf4	-12
67	0xee	-18
68	0xe9	-23
69	0xde	-34
70	0xdb	-37
71	0xfb	-5
72	0xf4	-12
73	0xfd	-3
74	0x0e	14
75	0x38	56
76	0x14	20
77	0xd7	-41
78	0x0a	10
79	0xfd	-3
80	0x1e	30
81	0x2e	46
82	0x11	17
83	0xf4	-12
84	0xeb	-21
85	0xee	-18
86	0x02	2
87	0xda	-38
88	0x15	21
89	0xda	-38
90	0xfe	-2
91	0x00	0
92	0xa3	-93
93	0xa1	-95
94	0x08	8
95	0xeb	-21
96	0xed	-19
97	0x39	57
98	0x13	19
99	0xe9	-23
100	0xc8	-56
101	0x17	23
102	0xe5	-27
103	0xd6	-42
104	0x9f	-97
105	0x19	25
106	0xb8	-72
107	0xfa	-6
108	0xe7	-25
109	0x14	20
110	0x0f	15
111	0xa3	-93
112	0xf6	-10
113	0xce	-50
114	0x07	7
115	0x46	70
116	0xfd	-3
117	0xf2	-14
118	0xf2	-14
119	0xb6	-74
120	0xe7	-25
121	0xfd	-3
122	0x7f	127
123	0xe3	-29
124	0xf4	-12
125	0x03	3
126	0x00	0
127	0xf1	-15
128	0xb4	-76
129	0xdc	-36
130	0xef	-17
131	0xd9	-39
132	0x24	36
133	0x07	7
134	0x1a	26
135	0x11	17
136	0xdf	-33
137	0x1f	31
138	0x37	55
139	0xd3	-45
140	0xfd	-3
141	0xc4	-60
142	0xe1	-31
143	0x18	24
144	0xff	-1
145	0xd5	-43
146	0x02	2
147	0x2d	45
148	0x03	3
149	0xda	-38
150	0x21	33
151	0x14	20
152	0x19	25
153	0x00	0
154	0xf9	-7
155	0xfc	-4
156	0x03	3
157	0x95	-107
158	0x0d	13
159	0x0e	14
160	0x0a	10
161	0x01	1
162	0x08	8
163	0x54	84
164	0xcd	-51
165	0x0c	12
166	0x03	3
167	0x49	73
168	0x1a	26
169	0xfd	-3
170	0xdf	-33
171	0xc3	-61
172	0xf1	-15
173	0xff	-1
174	0xdf	-33
175	0xf6	-10
176	0xc1	-63
177	0xaa	-86
178	0xe9	-23
179	0x7f	127
180	0xcd	-51
181	0x34	52
182	0xf5	-11
183	0xfc	-4
184	0xe8	-24
185	0x0e	14
186	0xc2	-62
187	0xd8	-40
188	0x2f	47
189	0x1f	31
190	0xde	-34
191	0xf7	-9
192	0x0d	13
193	0xcd	-51
194	0x08	8
195	0xeb	-21
196	0x0c	12
197	0xd5	-43
198	0xf1	-15
199	0x13	19
200	0x4a	74
201	0xfc	-4
202	0x13	19
203	0xc8	-56
204	0xe0	-32
205	0xd3	-45
206	0x0e	14
207	0xf1	-15
208	0x14	20
209	0xc5	-59
210	0xe7	-25
211	0xd6	-42
212	0xf9	-7
213	0x10	16
214	0xf7	-9
215	0x4d	77
216	0xcf	-49
217	0xe0	-32
218	0x30	48
219	0x16	22
220	0x29	41
221	0xd0	-48
222	0x08	8
223	0xe4	-28
224	0xfd	-3
225	0xf9	-7
226	0x94	-108
227	0x26	38
228	0x2c	44
229	0x45	69
230	0xb3	-77
231	0xdf	-33
232	0xd2	-46
233	0xf3	-13
234	0xd4	-44
235	0xe8	-24
236	0x04	4
237	0x55	85
238	0x1f	31
239	0x18	24
240	0x04	4
241	0xd0	-48
242	0x46	70
243	0x05	5
244	0xdc	-36
245	0xf4	-12
246	0x1f	31
247	0xdf	-33
248	0xea	-22
249	0x16	22
250	0x03	3
251	0x03	3
252	0xd8	-40
253	0xee	-18
254	0xeb	-21
255	0x18	24

MobilenetV1/MobilenetV1/Conv2d_10_pointwise/Conv2D i1 [128, 1, 1, 128]
0	0x5b	91
1	0x16	22
2	0xf8	-8
3	0x0b	11
4	0xe3	-29
5	0xee	-18
6	0x04	4
7	0xfa	-6
8	0x05	5
9	0xfc	-4
10	0x21	33
11	0xfd	-3
12	0x06	6
13	0x23	35
14	0xf0	-16
15	0xe0	-32
16	0xd6	-42
17	0x07	7
18	0x14	20
19	0xfe	-2
20	0xe1	-31
21	0x7f	127
22	0xdd	-35
23	0x02	2
24	0x16	22
25	0x0a	10
26	0xf1	-15
27	0x60	96
28	0x1e	30
29	0x26	38
30	0xe1	-31
31	0x27	39
32	0x1a	26
33	0x12	18
34	0x04	4
35	0x09	9
36	0xe7	-25
37	0x21	33
38	0x2d	45
39	0xf8	-8
40	0x27	39
41	0x14	20
42	0x27	39
43	0xe5	-27
44	0xfc	-4
45	0x01	1
46	0xf0	-16
47	0xf6	-10
48	0xf1	-15
49	0xe7	-25
50	0x27	39
51	0x06	6
52	0xf9	-7
53	0x16	22
54	0xf8	-8
55	0x00	0
56	0xbc	-68
57	0x09	9
58	0xe8	-24
59	0x51	81
60	0x1d	29
61	0x22	34
62	0x0a	10
63	0xe8	-24
64	0x0b	11
65	0xf3	-13
66	0xf9	-7
67	0xfe	-2
68	0xe0	-32
69	0x0a	10
70	0x06	6
71	0xfe	-2
72	0x0e	14
73	0x11	17
74	0x11	17
75	0xd0	-48
76	0x08	8
77	0x02	2
78	0x06	6
79	0xf7	-9
80	0x30	48
81	0x14	20
82	0xed	-19
83	0x02	2
84	0xe7	-25
85	0x0f	15
86	0xf8	-8
87	0xf0	-16
88	0x09	9
89	0x03	3
90	0xfa	-6
91	0x06	6
92	0x4d	77
93	0xdf	-33
94	0xf5	-11
95	0xfb	-5
96	0xe0	-32
97	0x12	18
98	0xf5	-11
99	0xf9	-7
100	0x02	2
101	0xe0	-32
102	0xfe	-2
103	0x05	5
104	0x14	20
105	0xfa	-6
106	0x2e	46
107	0xcd	-51
108	0xf6	-10
109	0x00	0
110	0xbb	-69
111	0x22	34
112	0xdb	-37
113	0xf5	-11
114	0xcc	-52
115	0x2c	44
116	0x01	1
117	0x1f	31
118	0x00	0
119	0x0b	11
120	0xf1	-15
121	0x12	18
122	0xea	-22
123	0xef	-17
124	0xda	-38
125	0x06	6
126	0xec	-20
127	0x8b	-117
128	0xf8	-8
129	0xeb	-21
130	0x1c	28
131	0xd8	-40
132	0xf4	-12
133	0xef	-17
134	0x12	18
135	0xdd	-35
136	0xf2	-14
137	0x08	8
138	0x0a	10
139	0x15	21
140	0x17	23
141	0xc0	-64
142	0x17	23
143	0x09	9
144	0x0d	13
145	0x06	6
146	0x0d	13
147	0x22	34
148	0xf5	-11
149	0x15	21
150	0x0b	11
151	0xf4	-12
152	0xf6	-10
153	0x10	16
154	0x47	71
155	0xf8	-8
156	0x09	9
157	0x12	18
158	0xf8	-8
159	0xfe	-2
160	0xfe	-2
161	0xfe	-2
162	0xc5	-59
163	0x0b	11
164	0xfa	-6
165	0x05	5
166	0x05	5
167	0xf4	-12
168	0xf7	-9
169	0x34	52
170	0x08	8
171	0xfd	-3
172	0xec	-20
173	0xca	-54
174	0x0a	10
175	0x02	2
176	0xfd	-3
177	0xd8	-40
178	0xfc	-4
179	0xf2	-14
180	0x1d	29
181	0xf7	-9
182	0x81	-127
183	0x09	9
184	0xf9	-7
185	0x08	8
186	0xb9	-71
187	0xe1	-31
188	0xc2	-62
189	0x15	21
190	0x04	4
191	0xe9	-23
192	0x03	3
193	0xf7	-9
194	0xf3	-13
195	0xff	-1
196	0x10	16
197	0x07	7
198	0x10	16
199	0x08	8
200	0x06	6
201	0xff	-1
202	0xe0	-32
203	0x07	7
204	0xda	-38
205	0x03	3
206	0x01	1
207	0x19	25
208	0xfe	-2
209	0xf4	-12
210	0x04	4
211	0x01	1
212	0xf0	-16
213	0x06	6
214	0x0a	10
215	0x0f	15
216	0xd1	-47
217	0x08	8
218	0x13	19
219	0x16	22
220	0x21	33
221	0xd9	-39
222	0xf8	-8
223	0x2d	45
224	0x1b	27
225	0x18	24
226	0xef	-17
227	0xcf	-49
228	0x49	73
229	0xde	-34
230	0x19	25
231	0xd4	-44
232	0x14	20
233	0x15	21
234	0x05	5
235	0x0d	13
236	0x19	25
237	0xee	-18
238	0x16	22
239	0x2f	47
240	0x07	7
241	0xfb	-5
242	0x16	22
243	0x02	2
244	0x2d	45
245	0xf6	-10
246	0x02	2
247	0xd9	-39
248	0x1a	26
249	0x2d	45
250	0xf1	-15
251	0xe3	-29
252	0x06	6
253	0x06	6
254	0xdc	-36
255	0xf9	-7

MobilenetV1/MobilenetV1/Conv2d_11_pointwise/Conv2D i1 [128, 1, 1, 128]
0	0x3a	58
1	0xe6	-26
2	0x06	6
3	0xeb	-21
4	0xd9	-39
5	0x55	85
6	0x45	69
7	0xc1	-63
8	0x17	23
9	0xda	-38
10	0xd1	-47
11	0x10	16
12	0xfc	-4
13	0xcc	-52
14	0xce	-50
15	0x1e	30
16	0x2c	44
17	0xfb	-5
18	0x01	1
19	0xfa	-6
20	0x22	34
21	0xdd	-35
22	0x2d	45
23	0xbd	-67
24	0x5e	94
25	0x1e	30
26	0xa6	-90
27	0x35	53
28	0x1e	30
29	0x2c	44
30	0xde	-34
31	0x10	16
32	0x06	6
33	0x0b	11
34	0xfb	-5
35	0x1a	26
36	0x2a	42
37	0xe9	-23
38	0x1f	31
39	0x0f	15
40	0xfa	-6
41	0x32	50
42	0x01	1
43	0xb2	-78
44	0xec	-20
45	0xdd	-35
46	0x03	3
47	0xce	-50
48	0x3a	58
49	0x1e	30
50	0x8e	-114
51	0x08	8
52	0xf9	-7
53	0xd5	-43
54	0xe8	-24
55	0xb8	-72
56	0xe8	-24
57	0x35	53
58	0x12	18
59	0x12	18
60	0x30	48
61	0x38	56
62	0xe7	-25
63	0xcf	-49
64	0x26	38
65	0x35	53
66	0x0d	13
67	0xce	-50
68	0x18	24
69	0x06	6
70	0xbe	-66
71	0xfe	-2
72	0x3a	58
73	0xd9	-39
74	0x0d	13
75	0x0f	15
76	0x3f	63
77	0x28	40
78	0xf4	-12
79	0xe4	-28
80	0x09	9
81	0x25	37
82	0x0a	10
83	0x03	3
84	0x0b	11
85	0x38	56
86	0xde	-34
87	0x39	57
88	0x20	32
89	0xf2	-14
90	0xc6	-58
91	0x05	5
92	0x0a	10
93	0xfc	-4
94	0x13	19
95	0x42	66
96	0x0e	14
97	0xbb	-69
98	0x3b	59
99	0xe7	-25
100	0xfa	-6
101	0x0b	11
102	0x1d	29
103	0xfd	-3
104	0xde	-34
105	0x03	3
106	0xfd	-3
107	0x7f	127
108	0x43	67
109	0xd2	-46
110	0xdc	-36
111	0x4a	74
112	0x39	57
113	0x0a	10
114	0x3c	60
115	0x14	20
116	0x15	21
117	0xac	-84
118	0xf5	-11
119	0x0b	11
120	0x0d	13
121	0x54	84
122	0x26	38
123	0x21	33
124	0xb4	-76
125	0x16	22
126	0x01	1
127	0x0c	12
128	0xa7	-89
129	0x0e	14
130	0xae	-82
131	0x2d	45
132	0x17	23
133	0xcf	-49
134	0xdd	-35
135	0x15	21
136	0x2d	45
137	0xe2	-30
138	0xdb	-37
139	0x39	57
140	0xbc	-68
141	0x23	35
142	0x4c	76
143	0x12	18
144	0xc7	-57
145	0xd4	-44
146	0xfb	-5
147	0xc0	-64
148	0x0a	10
149	0x1e	30
150	0xef	-17
151	0xd2	-46
152	0x09	9
153	0x5d	93
154	0xb4	-76
155	0x75	117
156	0xdd	-35
157	0x46	70
158	0xce	-50
159	0x39	57
160	0xf7	-9
161	0xe4	-28
162	0xec	-20
163	0x0c	12
164	0x09	9
165	0xb6	-74
166	0x29	41
167	0xd9	-39
168	0xfb	-5
169	0xf7	-9
170	0x2c	44
171	0xd9	-39
172	0x27	39
173	0xd8	-40
174	0xe7	-25
175	0x21	33
176	0x45	69
177	0xdf	-33
178	0xfc	-4
179	0xfd	-3
180	0x1c	28
181	0x39	57
182	0xde	-34
183	0xfc	-4
184	0x4b	75
185	0x1e	30
186	0xcc	-52
187	0x14	20
188	0x1b	27
189	0x40	64
190	0x21	33
191	0x32	50
192	0xc5	-59
193	0xd4	-44
194	0xf4	-12
195	0x0c	12
196	0x13	19
197	0xda	-38
198	0xf3	-13
199	0xf4	-12
200	0x12	18
201	0x0a	10
202	0xf6	-10
203	0xf4	-12
204	0x46	70
205	0x67	103
206	0x1f	31
207	0x4d	77
208	0x10	16
209	0x29	41
210	0xfc	-4
211	0xcb	-53
212	0xf9	-7
213	0x33	51
214	0x10	16
215	0xfb	-5
216	0xd7	-41
217	0x1b	27
218	0x00	0
219	0x55	85
220	0xd7	-41
221	0x22	34
222	0xe1	-31
223	0xec	-20
224	0x02	2
225	0x23	35
226	0x02	2
227	0xe8	-24
228	0xe5	-27
229	0x1f	31
230	0x50	80
231	0x1d	29
232	0x0c	12
233	0xde	-34
234	0xf2	-14
235	0x00	0
236	0xdb	-37
237	0x5a	90
238	0x0e	14
239	0xf7	-9
240	0xd4	-44
241	0x0d	13
242	0x3a	58
243	0x2b	43
244	0x01	1
245	0x0f	15
246	0xe9	-23
247	0x3f	63
248	0x81	-127
249	0xfb	-5
250	0x05	5
251	0xd7	-41
252	0x21	33
253	0xff	-1
254	0xc8	-56
255	0xeb	-21

MobilenetV1/MobilenetV1/Conv2d_12_pointwise/Conv2D i1 [256, 1, 1, 128]
0	0xfc	-4
1	0xc6	-58
2	0xfb	-5
3	0xef	-17
4	0x04	4
5	0x15	21
6	0xef	-17
7	0xed	-19
8	0xee	-18
9	0x03	3
10	0xe6	-26
11	0xf7	-9
12	0x01	1
13	0x00	0
14	0x10	16
15	0x29	41
16	0xf3	-13
17	0xfe	-2
18	0xf1	-15
19	0xef	-17
20	0x13	19
21	0xfc	-4
22	0xfc	-4
23	0x08	8
24	0x0a	10
25	0xff	-1
26	0xa9	-87
27	0xf4	-12
28	0x14	20
29	0xf9	-7
30	0x00	0
31	0xfd	-3
32	0x0c	12
33	0xfd	-3
34	0xfe	-2
35	0x0c	12
36	0xfd	-3
37	0xf1	-15
38	0x1e	30
39	0xf6	-10
40	0x06	6
41	0xef	-17
42	0x07	7
43	0x7f	127
44	0xf5	-11
45	0xe3	-29
46	0xea	-22
47	0x05	5
48	0xf6	-10
49	0x1e	30
50	0x2a	42
51	0xf3	-13
52	0x05	5
53	0x03	3
54	0xf3	-13
55	0xe7	-25
56	0x07	7
57	0x05	5
58	0xfc	-4
59	0xe2	-30
60	0xed	-19
61	0x07	7
62	0xf3	-13
63	0xe5	-27
64	0x07	7
65	0x0d	13
66	0xeb	-21
67	0x13	19
68	0x1d	29
69	0xfb	-5
70	0xe3	-29
71	0xfc	-4
72	0xf7	-9
73	0xe8	-24
74	0x02	2
75	0x09	9
76	0x0f	15
77	0x0c	12
78	0xf5	-11
79	0x22	34
80	0xfa	-6
81	0x08	8
82	0xf3	-13
83	0xf0	-16
84	0x1b	27
85	0x10	16
86	0x07	7
87	0x03	3
88	0xf8	-8
89	0xf5	-11
90	0x03	3
91	0x06	6
92	0xe1	-31
93	0xf6	-10
94	0x12	18
95	0xf0	-16
96	0xf4	-12
97	0xf8	-8
98	0xe8	-24
99	0x18	24
100	0xf2	-14
101	0x1c	28
102	0x0e	14
103	0xff	-1
104	0x20	32
105	0xfd	-3
106	0xff	-1
107	0xf0	-16
108	0xf5	-11
109	0xeb	-21
110	0xdb	-37
111	0xea	-22
112	0x12	18
113	0xf6	-10
114	0x0e	14
115	0xeb	-21
116	0x09	9
117	0x05	5
118	0xf0	-16
119	0xf7	-9
120	0xfa	-6
121	0x10	16
122	0xf9	-7
123	0x06	6
124	0x0c	12
125	0x10	16
126	0xd9	-39
127	0x02	2
128	0xf2	-14
129	0xec	-20
130	0xe3	-29
131	0x01	1
132	0xdf	-33
133	0xee	-18
134	0x1c	28
135	0xfa	-6
136	0x11	17
137	0xf8	-8
138	0xd5	-43
139	0x32	50
140	0xda	-38
141	0xd8	-40
142	0x01	1
143	0xcc	-52
144	0xf7	-9
145	0x15	21
146	0xd3	-45
147	0x05	5
148	0xe5	-27
149	0xef	-17
150	0x0f	15
151	0x03	3
152	0xfc	-4
153	0xfb	-5
154	0xf4	-12
155	0x21	33
156	0xec	-20
157	0x16	22
158	0xfa	-6
159	0x0f	15
160	0x06	6
161	0x1b	27
162	0x07	7
163	0xfc	-4
164	0xfd	-3
165	0x0a	10
166	0xea	-22
167	0x2a	42
168	0x23	35
169	0xe7	-25
170	0x2d	45
171	0xfa	-6
172	0x27	39
173	0x15	21
174	0xd8	-40
175	0x30	48
176	0xe9	-23
177	0x2e	46
178	0xf1	-15
179	0xfa	-6
180	0xeb	-21
181	0xd8	-40
182	0x02	2
183	0x2a	42
184	0x24	36
185	0xfb	-5
186	0x03	3
187	0x1e	30
188	0xdd	-35
189	0x18	24
190	0xec	-20
191	0x0d	13
192	0x14	20
193	0x07	7
194	0xed	-19
195	0xf6	-10
196	0xe7	-25
197	0x14	20
198	0xf7	-9
199	0xd7	-41
200	0x11	17
201	0x22	34
202	0xd7	-41
203	0xfd	-3
204	0xdf	-33
205	0x7f	127
206	0xe3	-29
207	0x25	37
208	0xe1	-31
209	0x08	8
210	0x27	39
211	0xd5	-43
212	0xe0	-32
213	0xe0	-32
214	0x1a	26
215	0xfd	-3
216	0x0e	14
217	0x02	2
218	0xfb	-5
219	0xef	-17
220	0x22	34
221	0x27	39
222	0x11	17
223	0xf4	-12
224	0x03	3
225	0x1a	26
226	0x11	17
227	0x28	40
228	0x1b	27
229	0xf4	-12
230	0xe9	-23
231	0x11	17
232	0x17	23
233	0xf2	-14
234	0x0a	10
235	0xf3	-13
236	0xc7	-57
237	0xdb	-37
238	0xe2	-30
239	0x03	3
240	0xe0	-32
241	0x1e	30
242	0xef	-17
243	0xed	-19
244	0x09	9
245	0xd8	-40
246	0xd9	-39
247	0xc9	-55
248	0xf7	-9
249	0xe5	-27
250	0xe4	-28
251	0x17	23
252	0x02	2
253	0x0a	10
254	0xfa	-6
255	0xe0	-32

MobilenetV1/MobilenetV1/Conv2d_13_pointwise/Conv2D i1 [256, 1, 1, 256]
0	0xd6	-42
1	0xfb	-5
2	0x08	8
3	0x2b	43
4	0xee	-18
5	0x1c	28
6	0x0e	14
7	0xf9	-7
8	0xfa	-6
9	0xf9	-7
10	0xd0	-48
11	0x26	38
12	0xc9	-55
13	0xe2	-30
14	0xfe	-2
15	0xe5	-27
16	0xd9	-39
17	0x01	1
18	0xef	-17
19	0x16	22
20	0x26	38
21	0xee	-18
22	0x29	41
23	0x01	1
24	0xfe	-2
25	0xed	-19
26	0x02	2
27	0xd1	-47
28	0x81	-127
29	0x19	25
30	0xdf	-33
31	0xd9	-39
32	0xbc	-68
33	0x34	52
34	0x08	8
35	0x29	41
36	0x01	1
37	0x10	16
38	0xfd	-3
39	0x07	7
40	0x18	24
41	0xd2	-46
42	0xde	-34
43	0xf9	-7
44	0xff	-1
45	0xb7	-73
46	0x17	23
47	0xd8	-40
48	0xd7	-41
49	0xed	-19
50	0x03	3
51	0x13	19
52	0x13	19
53	0xff	-1
54	0xfe	-2
55	0xc0	-64
56	0x1d	29
57	0xee	-18
58	0xdd	-35
59	0x21	33
60	0xdd	-35
61	0x48	72
62	0xe6	-26
63	0xaf	-81
64	0xec	-20
65	0xe9	-23
66	0x0f	15
67	0x32	50
68	0xe4	-28
69	0x33	51
70	0xf4	-12
71	0xf0	-16
72	0xfe	-2
73	0x07	7
74	0x1c	28
75	0x1d	29
76	0xe1	-31
77	0x2f	47
78	0xd9	-39
79	0x01	1
80	0xf8	-8
81	0x1a	26
82	0x0a	10
83	0xc5	-59
84	0xf4	-12
85	0xfe	-2
86	0x24	36
87	0x0f	15
88	0xea	-22
89	0x0a	10
90	0xea	-22
91	0x0f	15
92	0x1c	28
93	0xee	-18
94	0x08	8
95	0xde	-34
96	0xeb	-21
97	0x21	33
98	0x08	8
99	0xf2	-14
100	0xe8	-24
101	0x1d	29
102	0x17	23
103	0x1d	29
104	0xf9	-7
105	0x10	16
106	0x17	23
107	0xda	-38
108	0x15	21
109	0x03	3
110	0x2e	46
111	0xe7	-25
112	0xe7	-25
113	0xe9	-23
114	0x09	9
115	0x29	41
116	0x26	38
117	0x2d	45
118	0x3c	60
119	0x09	9
120	0xf7	-9
121	0x07	7
122	0xe2	-30
123	0xf1	-15
124	0xee	-18
125	0xc7	-57
126	0x3f	63
127	0xdb	-37
128	0xcf	-49
129	0x0c	12
130	0xcb	-53
131	0x27	39
132	0x33	51
133	0x0f	15
134	0x47	71
135	0xfb	-5
136	0x12	18
137	0x1b	27
138	0xf5	-11
139	0xe6	-26
140	0xf6	-10
141	0xfd	-3
142	0x12	18
143	0xe0	-32
144	0x0e	14
145	0xfe	-2
146	0x2b	43
147	0xb1	-79
148	0xf8	-8
149	0xe9	-23
150	0xec	-20
151	0x01	1
152	0x15	21
153	0xec	-20
154	0xfb	-5
155	0x18	24
156	0x24	36
157	0x0c	12
158	0xf6	-10
159	0xe7	-25
160	0xd1	-47
161	0xfd	-3
162	0x0f	15
163	0xd6	-42
164	0x32	50
165	0x23	35
166	0xe2	-30
167	0xdd	-35
168	0xe0	-32
169	0x11	17
170	0xed	-19
171	0xaa	-86
172	0x0c	12
173	0x0f	15
174	0xf6	-10
175	0xec	-20
176	0xd9	-39
177	0x1f	31
178	0x02	2
179	0x1a	26
180	0xfb	-5
181	0x47	71
182	0x16	22
183	0x04	4
184	0x0b	11
185	0x0e	14
186	0xdd	-35
187	0x27	39
188	0x1b	27
189	0xd0	-48
190	0x26	38
191	0xd0	-48
192	0x02	2
193	0xdf	-33
194	0xd7	-41
195	0xf3	-13
196	0xd7	-41
197	0xfb	-5
198	0x18	24
199	0xce	-50
200	0xed	-19
201	0x04	4
202	0x03	3
203	0xf3	-13
204	0xfc	-4
205	0xbd	-67
206	0x4c	76
207	0xfe	-2
208	0xb1	-79
209	0xd5	-43
210	0xe8	-24
211	0x03	3
212	0xf2	-14
213	0xeb	-21
214	0x1b	27
215	0x05	5
216	0x01	1
217	0xd9	-39
218	0x1b	27
219	0xfd	-3
220	0x08	8
221	0xff	-1
222	0xe4	-28
223	0x12	18
224	0x24	36
225	0x3d	61
226	0xf3	-13
227	0xe8	-24
228	0xee	-18
229	0xfd	-3
230	0xff	-1
231	0xf8	-8
232	0xff	-1
233	0x1c	28
234	0x01	1
235	0xee	-18
236	0x0f	15
237	0xcc	-52
238	0xec	-20
239	0xee	-18
240	0x06	6
241	0xff	-1
242	0x08	8
243	0xec	-20
244	0xf0	-16
245	0x12	18
246	0xec	-20
247	0x0f	15
248	0x18	24
249	0xec	-20
250	0x0d	13
251	0xf6	-10
252	0xfd	-3
253	0xf8	-8
254	0x09	9
255	0x11	17

MobilenetV1/Logits/Conv2d_1c_1x1/Conv2D i1 [1001, 1, 1, 256]
0	0xc1	-63
1	0xc9	-55
2	0xd3	-45
3	0xb2	-78
4	0xc3	-61
5	0xc4	-60
6	0xb9	-71
7	0xc0	-64
8	0xc6	-58
9	0xb5	-75
10	0xcf	-49
11	0xbc	-68
12	0xbd	-67
13	0xd2	-46
14	0xa5	-91
15	0xd4	-44
16	0xd1	-47
17	0xcc	-52
18	0xcb	-53
19	0xad	-83
20	0xd7	-41
21	0xd2	-46
22	0xcc	-52
23	0xb0	-80
24	0xcf	-49
25	0xbd	-67
26	0xd2	-46
27	0xc9	-55
28	0xc7	-57
29	0x8c	-116
30	0xc6	-58
31	0xa7	-89
32	0xd5	-43
33	0xcf	-49
34	0xaf	-81
35	0xc8	-56
36	0xc6	-58
37	0x85	-123
38	0xda	-38
39	0xbf	-65
40	0xc8	-56
41	0xb4	-76
42	0xbb	-69
43	0xd1	-47
44	0xc0	-64
45	0xd7	-41
46	0xc9	-55
47	0xb4	-76
48	0xb7	-73
49	0xc2	-62
50	0xc8	-56
51	0xd2	-46
52	0xa6	-90
53	0xce	-50
54	0xd5	-43
55	0xb2	-78
56	0xca	-54
57	0xd2	-46
58	0xb7	-73
59	0xc7	-57
60	0xdd	-35
61	0xd7	-41
62	0x9e	-98
63	0xb1	-79
64	0xb9	-71
65	0xbe	-66
66	0xd5	-43
67	0xbf	-65
68	0xcd	-51
69	0xd2	-46
70	0xc9	-55
71	0xc5	-59
72	0xc5	-59
73	0xb7	-73
74	0xd2	-46
75	0xc8	-56
76	0xca	-54
77	0xcc	-52
78	0xb9	-71
79	0xda	-38
80	0xc0	-64
81	0xc5	-59
82	0xba	-70
83	0xbb	-69
84	0xc6	-58
85	0xdb	-37
86	0xc1	-63
87	0xc0	-64
88	0xd6	-42
89	0xb5	-75
90	0xba	-70
91	0xc3	-61
92	0xcb	-53
93	0xba	-70
94	0xd7	-41
95	0xb7	-73
96	0xcf	-49
97	0xce	-50
98	0xa0	-96
99	0xc6	-58
100	0x9f	-97
101	0x9e	-98
102	0xbd	-67
103	0xb3	-77
104	0xcf	-49
105	0xc1	-63
106	0xba	-70
107	0xc5	-59
108	0xc0	-64
109	0x9d	-99
110	0xc9	-55
111	0xcb	-53
112	0xbf	-65
113	0xc9	-55
114	0xc1	-63
115	0xd6	-42
116	0xc8	-56
117	0xc0	-64
118	0xbd	-67
119	0xce	-50
120	0xb5	-75
121	0xc9	-55
122	0xd4	-44
123	0xd1	-47
124	0xbc	-68
125	0x9c	-100
126	0xe1	-31
127	0xd5	-43
128	0xdb	-37
129	0xce	-50
130	0xc4	-60
131	0xcd	-51
132	0xb9	-71
133	0xcf	-49
134	0xc5	-59
135	0xa9	-87
136	0xbe	-66
137	0xc8	-56
138	0xd4	-44
139	0xc8	-56
140	0xbb	-69
141	0xc3	-61
142	0xc4	-60
143	0xb7	-73
144	0xac	-84
145	0xc4	-60
146	0xcc	-52
147	0xae	-82
148	0x98	-104
149	0xc8	-56
150	0x93	-109
151	0x90	-112
152	0xd9	-39
153	0xbc	-68
154	0xd1	-47
155	0xd5	-43
156	0xbd	-67
157	0xce	-50
158	0x9e	-98
159	0xc6	-58
160	0xd1	-47
161	0xd7	-41
162	0xc4	-60
163	0xca	-54
164	0xbc	-68
165	0xcb	-53
166	0xc0	-64
167	0xcd	-51
168	0xcc	-52
169	0xb3	-77
170	0xbb	-69
171	0xbc	-68
172	0xa2	-94
173	0xce	-50
174	0xc9	-55
175	0xcd	-51
176	0xc5	-59
177	0xad	-83
178	0xa7	-89
179	0xc6	-58
180	0xc4	-60
181	0xc2	-62
182	0xd8	-40
183	0xd4	-44
184	0xc8	-56
185	0xc3	-61
186	0xd9	-39
187	0xce	-50
188	0xd1	-47
189	0xc9	-55
190	0xcb	-53
191	0xda	-38
192	0xca	-54
193	0xcf	-49
194	0xcf	-49
195	0xca	-54
196	0xbc	-68
197	0xd3	-45
198	0xc6	-58
199	0xa9	-87
200	0xd9	-39
201	0xd0	-48
202	0xa9	-87
203	0x81	-127
204	0xb6	-74
205	0xad	-83
206	0xba	-70
207	0x9e	-98
208	0xd4	-44
209	0xb8	-72
210	0xdf	-33
211	0xdd	-35
212	0xac	-84
213	0xbc	-68
214	0xa4	-92
215	0xb9	-71
216	0xcb	-53
217	0xcc	-52
218	0xbc	-68
219	0xd5	-43
220	0xb1	-79
221	0xca	-54
222	0xaf	-81
223	0xb7	-73
224	0xd0	-48
225	0xbc	-68
226	0xc2	-62
227	0xbb	-69
228	0xd0	-48
229	0x97	-105
230	0xc6	-58
231	0xb8	-72
232	0xd0	-48
233	0xce	-50
234	0xce	-50
235	0xc2	-62
236	0xcc	-52
237	0xaf	-81
238	0x90	-112
239	0xaa	-86
240	0xd0	-48
241	0xca	-54
242	0xca	-54
243	0xa7	-89
244	0xd3	-45
245	0xd3	-45
246	0xcb	-53
247	0xd2	-46
248	0xc9	-55
249	0xd1	-47
250	0xc8	-56
251	0xcf	-49
252	0xd3	-45
253	0xd7	-41
254	0xc4	-60
255	0xd3	-45

MobilenetV1/MobilenetV1/Conv2d_1_depthwise/BatchNorm/FusedBatchNorm;MobilenetV1/MobilenetV1/Conv2d_1_depthwise/depthwise i1 [1, 3, 3, 8]
0	0xd1	-47
1	0xeb	-21
2	0xda	-38
3	0x0a	10
4	0xf9	-7
5	0x87	-121
6	0x10	16
7	0x00	0
8	0xb5	-75
9	0xf3	-13
10	0xf5	-11
11	0xf4	-12
12	0x14	20
13	0xad	-83
14	0x43	67
15	0x25	37
16	0xe7	-25
17	0x22	34
18	0xd8	-40
19	0x01	1
20	0xf3	-13
21	0x88	-120
22	0xe5	-27
23	0xde	-34
24	0x06	6
25	0x75	117
26	0xbf	-65
27	0xe7	-25
28	0xfd	-3
29	0x96	-106
30	0xbf	-65
31	0xff	-1
32	0x81	-127
33	0x2e	46
34	0x8c	-116
35	0x7f	127
36	0x6a	106
37	0x96	-106
38	0x81	-127
39	0x71	113
40	0x20	32
41	0xb0	-80
42	0xb9	-71
43	0x77	119
44	0xee	-18
45	0x81	-127
46	0x23	35
47	0x81	-127
48	0xee	-18
49	0x7f	127
50	0x96	-106
51	0x13	19
52	0x09	9
53	0xa1	-95
54	0xff	-1
55	0xff	-1
56	0xca	-54
57	0x2f	47
58	0x81	-127
59	0xe9	-23
60	0x81	-127
61	0x90	-112
62	0xdd	-35
63	0x1a	26
64	0xca	-54
65	0xc7	-57
66	0x9f	-97
67	0xff	-1
68	0x1e	30
69	0x92	-110
70	0x0a	10
71	0xed	-19

MobilenetV1/MobilenetV1/Conv2d_2_depthwise/BatchNorm/FusedBatchNorm;MobilenetV1/MobilenetV1/Conv2d_2_depthwise/depthwise i1 [1, 3, 3, 16]
0	0xf1	-15
1	0x02	2
2	0xb5	-75
3	0x4d	77
4	0x7f	127
5	0x81	-127
6	0x63	99
7	0x08	8
8	0x12	18
9	0xc6	-58
10	0xb1	-79
11	0xf1	-15
12	0xb7	-73
13	0xc7	-57
14	0xcb	-53
15	0xf1	-15
16	0x93	-109
17	0x46	70
18	0x81	-127
19	0x7f	127
20	0xc9	-55
21	0x38	56
22	0x74	116
23	0x81	-127
24	0x81	-127
25	0xc3	-61
26	0x81	-127
27	0xf6	-10
28	0x81	-127
29	0x7f	127
30	0xa7	-89
31	0x81	-127
32	0x7f	127
33	0x7f	127
34	0xc6	-58
35	0x3b	59
36	0x08	8
37	0x4a	74
38	0x81	-127
39	0x73	115
40	0x95	-107
41	0xd5	-43
42	0xc1	-63
43	0xff	-1
44	0xc1	-63
45	0xc3	-61
46	0x03	3
47	0x83	-125
48	0xd1	-47
49	0x1d	29
50	0xd7	-41
51	0xcd	-51
52	0x46	70
53	0xa8	-88
54	0x6b	107
55	0x04	4
56	0x03	3
57	0xac	-84
58	0xd4	-44
59	0x47	71
60	0x48	72
61	0xe0	-32
62	0xa4	-92
63	0xa6	-90
64	0xce	-50
65	0x19	25
66	0xbd	-67
67	0xab	-85
68	0xc0	-64
69	0x1e	30
70	0x6c	108
71	0xad	-83
72	0xe4	-28
73	0x83	-125
74	0xb9	-71
75	0x7f	127
76	0x79	121
77	0x52	82
78	0x81	-127
79	0xb9	-71
80	0x6e	110
81	0xfc	-4
82	0xe4	-28
83	0xce	-50
84	0x3e	62
85	0x2d	45
86	0x9d	-99
87	0x54	84
88	0x0d	13
89	0x81	-127
90	0xdf	-33
91	0x40	64
92	0x40	64
93	0xe0	-32
94	0x0a	10
95	0x94	-108
96	0x36	54
97	0xfe	-2
98	0xfd	-3
99	0xeb	-21
100	0x41	65
101	0x05	5
102	0x04	4
103	0x03	3
104	0xf0	-16
105	0xb6	-74
106	0xff	-1
107	0xbd	-67
108	0xff	-1
109	0x0b	11
110	0xd9	-39
111	0x14	20
112	0xd0	-48
113	0xd0	-48
114	0xf6	-10
115	0xe1	-31
116	0x0b	11
117	0xff	-1
118	0xf5	-11
119	0x08	8
120	0x19	25
121	0xa7	-89
122	0xfb	-5
123	0x81	-127
124	0xf9	-7
125	0xf4	-12
126	0xdc	-36
127	0xe8	-24
128	0xea	-22
129	0xe2	-30
130	0x00	0
131	0xf0	-16
132	0xed	-19
133	0xf9	-7
134	0x0c	12
135	0xf6	-10
136	0x00	0
137	0xb0	-80
138	0xff	-1
139	0xc1	-63
140	0x00	0
141	0x03	3
142	0x0c	12
143	0xeb	-21

MobilenetV1/MobilenetV1/Conv2d_3_depthwise/BatchNorm/FusedBatchNorm;MobilenetV1/MobilenetV1/Conv2d_3_depthwise/depthwise;MobilenetV1/MobilenetV1/Conv2d_4_depthwise/depthwise i1 [1, 3, 3, 32]
0	0x09	9
1	0xec	-20
2	0xfe	-2
3	0x00	0
4	0xac	-84
5	0x08	8
6	0x0e	14
7	0x7f	127
8	0x20	32
9	0xd4	-44
10	0xea	-22
11	0xec	-20
12	0x06	6
13	0x07	7
14	0xf5	-11
15	0x00	0
16	0xfa	-6
17	0xf1	-15
18	0xf5	-11
19	0x02	2
20	0x05	5
21	0xfb	-5
22	0x09	9
23	0x0d	13
24	0xfe	-2
25	0x0f	15
26	0xf2	-14
27	0x03	3
28	0x04	4
29	0x08	8
30	0xee	-18
31	0x15	21
32	0xf5	-11
33	0x1d	29
34	0x04	4
35	0xfe	-2
36	0xd4	-44
37	0x05	5
38	0x9b	-101
39	0x28	40
40	0xb5	-75
41	0x19	25
42	0xdc	-36
43	0x0b	11
44	0xda	-38
45	0xe3	-29
46	0x00	0
47	0x04	4
48	0x03	3
49	0x1d	29
50	0x81	-127
51	0x7f	127
52	0x7f	127
53	0xea	-22
54	0xe4	-28
55	0xe9	-23
56	0xf3	-13
57	0x04	4
58	0x18	24
59	0x15	21
60	0xeb	-21
61	0xfb	-5
62	0x1b	27
63	0xe1	-31
64	0x02	2
65	0x03	3
66	0xfb	-5
67	0xfd	-3
68	0x81	-127
69	0x01	1
70	0xfc	-4
71	0x1c	28
72	0x21	33
73	0xdb	-37
74	0x0d	13
75	0xfc	-4
76	0xfc	-4
77	0x0e	14
78	0x03	3
79	0xfd	-3
80	0x03	3
81	0xdb	-37
82	0x18	24
83	0xfc	-4
84	0x05	5
85	0xfa	-6
86	0x10	16
87	0xf7	-9
88	0x06	6
89	0x01	1
90	0xff	-1
91	0x06	6
92	0x00	0
93	0xfa	-6
94	0x08	8
95	0x11	17
96	0xfc	-4
97	0xf1	-15
98	0xf1	-15
99	0xfe	-2
100	0xc2	-62
101	0x81	-127
102	0xeb	-21
103	0xc4	-60
104	0xf2	-14
105	0xf0	-16
106	0xb5	-75
107	0x83	-125
108	0x03	3
109	0x2a	42
110	0xf0	-16
111	0x2d	45
112	0xa7	-89
113	0xd5	-43
114	0x11	17
115	0x07	7
116	0xfd	-3
117	0xfb	-5
118	0x2d	45
119	0xac	-84
120	0xf9	-7
121	0x81	-127
122	0x0c	12
123	0xf2	-14
124	0xe3	-29
125	0x91	-111
126	0x57	87
127	0x00	0
128	0x7f	127
129	0x7f	127
130	0x81	-127
131	0x7f	127
132	0xbd	-67
133	0xa2	-94
134	0x7f	127
135	0x29	41
136	0x81	-127
137	0x7f	127
138	0x81	-127
139	0x7f	127
140	0xdd	-35
141	0x81	-127
142	0x7f	127
143	0x81	-127
144	0x78	120
145	0x7f	127
146	0xe2	-30
147	0xf7	-9
148	0x07	7
149	0x7f	127
150	0x81	-127
151	0x7f	127
152	0x81	-127
153	0xb2	-78
154	0x81	-127
155	0x81	-127
156	0x7f	127
157	0x7f	127
158	0x81	-127
159	0x81	-127
160	0x11	17
161	0x26	38
162	0xf5	-11
163	0x01	1
164	0xba	-70
165	0x0f	15
166	0x0b	11
167	0xcc	-52
168	0x02	2
169	0x10	16
170	0xc8	-56
171	0xfd	-3
172	0xf8	-8
173	0xf2	-14
174	0x8c	-116
175	0x32	50
176	0x07	7
177	0x20	32
178	0x10	16
179	0x02	2
180	0xfe	-2
181	0xfe	-2
182	0xfb	-5
183	0xff	-1
184	0xee	-18
185	0x0c	12
186	0xca	-54
187	0xfb	-5
188	0xe0	-32
189	0x0b	11
190	0x01	1
191	0xd4	-44
192	0x05	5
193	0x0d	13
194	0x01	1
195	0xfb	-5
196	0x07	7
197	0x0a	10
198	0x04	4
199	0x49	73
200	0x10	16
201	0x01	1
202	0x04	4
203	0xe0	-32
204	0xfb	-5
205	0xef	-17
206	0xf6	-10
207	0xfe	-2
208	0x5e	94
209	0xfe	-2
210	0xf4	-12
211	0x03	3
212	0x01	1
213	0x0c	12
214	0xe7	-25
215	0x0a	10
216	0x07	7
217	0x19	25
218	0x01	1
219	0x08	8
220	0x08	8
221	0x5e	94
222	0xf2	-14
223	0xfd	-3
224	0xa3	-93
225	0xc6	-58
226	0x00	0
227	0x06	6
228	0x1c	28
229	0x07	7
230	0xfc	-4
231	0xd2	-46
232	0x1c	28
233	0xdb	-37
234	0xc9	-55
235	0x19	25
236	0x7f	127
237	0x33	51
238	0xda	-38
239	0xfe	-2
240	0x81	-127
241	0xe9	-23
242	0x11	17
243	0xff	-1
244	0x01	1
245	0x98	-104
246	0x43	67
247	0xd9	-39
248	0x04	4
249	0x04	4
250	0x66	102
251	0x18	24
252	0xd3	-45
253	0x85	-123
254	0x2a	42
255	0x35	53
