frdmmcxn947/eiq_examples/mpp_camera_ultraface_view_tflm/models/ultraface_slim_quant_int8/ultraface_slim_ultraslim_npu16.tflite (tflite, 290176 bytes, 14 tensors)

NeutronMicrocode u1 [3128]
00000000: 6e4d 4364 1b3f 931c ea0b 0000 0000 0000
00000010: ea0b 0000 0800 0000 380c 0000 7018 0100
00000020: 0100 0000 0000 0300 0000 0000 0100 0000
00000030: 0100 0000 1500 0000 bc06 0000 0000 0000
00000040: 0305 0400 0101 0100 0207 0000 0000 0000
00000050: 0000 4000 0000 0000 0000 2000 0000 0100
00000060: 0000 4000 0000 4000 0000 1000 0000 1000
00000070: 0000 0100 0000 8000 0000 8000 0000 0300
00000080: 0000 0300 0000 0300 0000 0200 0000 0200
00000090: 0000 0100 0000 0100 0000 0100 0000 0100
000000a0: 0000 0100 0000 0100 0000 1001 0f07 0000
000000b0: 0000 0000 0000 0100 0000 0100 0000 ffff
000000c0: ffff 3080 0000 0000 0000 0000 0000 0000
000000d0: 0000 0000 0000 0507 0305 0404 0101 0100
000000e0: 0219 0000 0200 0000 0000 0003 0000 8002
000000f0: 0000 e002 0000 0100 0000 4000 0000 4000
110 77 67 100 27 63 147 28
234 11 0 0 0 0 0 0
234 11 0 0 8 0 0 0
56 12 0 0 112 24 1 0
1 0 0 0 0 0 3 0
0 0 0 0 1 0 0 0
1 0 0 0 21 0 0 0
188 6 0 0 0 0 0 0
3 5 4 0 1 1 1 0
2 7 0 0 0 0 0 0
0 0 64 0 0 0 0 0
0 0 32 0 0 0 1 0
0 0 64 0 0 0 64 0
0 0 16 0 0 0 16 0
0 0 1 0 0 0 128 0
0 0 128 0 0 0 3 0
0 0 3 0 0 0 3 0
0 0 2 0 0 0 2 0
0 0 1 0 0 0 1 0
0 0 1 0 0 0 1 0
0 0 1 0 0 0 1 0
0 0 16 1 15 7 0 0
0 0 0 0 0 0 1 0
0 0 1 0 0 0 255 255
255 255 48 128 0 0 0 0
0 0 0 0 0 0 0 0
0 0 0 0 0 0 5 7
3 5 4 4 1 1 1 0
2 25 0 0 2 0 0 0
0 0 0 3 0 0 128 2
0 0 224 2 0 0 1 0
0 0 64 0 0 0 64 0

NeutronWeights u1 [71792]
00000000: 0d1f 4b16 f612 2613 ef0f 3822 7a01 f21e
00000010: db1a 920a 180e dc13 df16 d71a 241a 461b
00000020: c65a 8053 4d4e 3f4e 3563 7a5a e54e ef5b
00000030: 2852 c94f 284a 244e 1a66 7f57 f356 5b5b
00000040: e6da 1e11 0100 fb31 e0f5 f618 fb02 0318
00000050: d57b bfa9 81a2 d2e5 de1a 0fbf 1715 2d31
00000060: efeb 117f 8181 9817 e3f7 fb81 2512 1378
00000070: 31ce 22f1 97bf c095 c925 0b9c 1a0d 0e08
00000080: 1a3c 3042 f0ec e5dc 5532 1007 d5ea dd81
00000090: b9cc 5384 3024 f4be b626 2285 eaf7 eff8
000000a0: eb1e c30a 3830 ccd9 1b16 5532 1c1f eef9
000000b0: 0e69 86d7 f719 7c58 2c15 b830 1834 a6bd
000000c0: 4b7d f7e6 110a 6e5c a0bb ff02 5557 5437
000000d0: 3968 5254 bac9 fbe5 441b a14d f0f2 819d
000000e0: 587e e9f6 dde7 3e34 0504 e2e9 9192 bccc
000000f0: 487f a2a4 d8b1 dcce 4933 814e 00f4 bcef
13 31 75 22 246 18 38 19
239 15 56 34 122 1 242 30
219 26 146 10 24 14 220 19
223 22 215 26 36 26 70 27
198 90 128 83 77 78 63 78
53 99 122 90 229 78 239 91
40 82 201 79 40 74 36 78
26 102 127 87 243 86 91 91
230 218 30 17 1 0 251 49
224 245 246 24 251 2 3 24
213 123 191 169 129 162 210 229
222 26 15 191 23 21 45 49
239 235 17 127 129 129 152 23
227 247 251 129 37 18 19 120
49 206 34 241 151 191 192 149
201 37 11 156 26 13 14 8
26 60 48 66 240 236 229 220
85 50 16 7 213 234 221 129
185 204 83 132 48 36 244 190
182 38 34 133 234 247 239 248
235 30 195 10 56 48 204 217
27 22 85 50 28 31 238 249
14 105 134 215 247 25 124 88
44 21 184 48 24 52 166 189
75 125 247 230 17 10 110 92
160 187 255 2 85 87 84 55
57 104 82 84 186 201 251 229
68 27 161 77 240 242 129 157
88 126 233 246 221 231 62 52
5 4 226 233 145 146 188 204
72 127 162 164 216 177 220 206
73 51 129 78 0 244 188 239

NeutronMicrocode u1 [136]
00000000: 6e4d 4364 1b3f 931c 3400 0000 0000 0000
00000010: 3400 0000 0800 0000 8800 0000 0804 0000
00000020: 0100 0000 0000 0000 0000 0000 0100 0000
00000030: 0100 0000 0100 0000 1207 0000 0000 0000
00000040: 0304 0200 0101 0254 0000 0000 0000 0000
00000050: 0000 0000 5801 0000 5801 0000 0100 0000
00000060: 1001 0e07 3080 af42 0000 0000 0000 0000
00000070: 0554 0100 0000 0000 0000 0000 0000 0000
00000080: 5801 0000 5801 0000
110 77 67 100 27 63 147 28
52 0 0 0 0 0 0 0
52 0 0 0 8 0 0 0
136 0 0 0 8 4 0 0
1 0 0 0 0 0 0 0
0 0 0 0 1 0 0 0
1 0 0 0 1 0 0 0
18 7 0 0 0 0 0 0
3 4 2 0 1 1 2 84
0 0 0 0 0 0 0 0
0 0 0 0 88 1 0 0
88 1 0 0 1 0 0 0
16 1 14 7 48 128 175 66
0 0 0 0 0 0 0 0
5 84 1 0 0 0 0 0
0 0 0 0 0 0 0 0
88 1 0 0 88 1 0 0

NeutronWeights u1 [1032]
00000000: 2020 3030 2020 3030 2020 3030 2020 3030
00000010: 2020 3030 2020 3030 2020 3030 2020 3030
00000020: 2020 3030 2020 3030 2020 3030 2020 3030
00000030: 2020 3030 2020 3030 2020 3030 2020 3030
00000040: 2020 3030 2020 3030 2020 3030 2020 3030
00000050: 2020 3030 2020 3030 2020 3030 2020 3030
00000060: 2020 3030 2020 3030 2020 3030 2020 3030
00000070: 2020 3030 2020 3030 2020 3030 2020 3030
00000080: 2020 3030 2020 3030 2020 3030 2020 3030
00000090: 2020 3030 2020 3030 2020 3030 2020 3030
000000a0: 2020 3030 2020 3030 2020 3030 2020 3030
000000b0: 2020 3030 2020 3030 2020 3030 2020 3030
000000c0: 2020 3030 2020 3030 2020 3030 2020 3030
000000d0: 2020 3030 2020 3030 2020 3030 2020 3030
000000e0: 2020 3030 2020 3030 2020 3030 2020 3030
000000f0: 2020 3030 2020 3030 2020 3030 2020 3030
32 32 48 48 32 32 48 48
32 32 48 48 32 32 48 48
32 32 48 48 32 32 48 48
32 32 48 48 32 32 48 48
32 32 48 48 32 32 48 48
32 32 48 48 32 32 48 48
32 32 48 48 32 32 48 48
32 32 48 48 32 32 48 48
32 32 48 48 32 32 48 48
32 32 48 48 32 32 48 48
32 32 48 48 32 32 48 48
32 32 48 48 32 32 48 48
32 32 48 48 32 32 48 48
32 32 48 48 32 32 48 48
32 32 48 48 32 32 48 48
32 32 48 48 32 32 48 48
32 32 48 48 32 32 48 48
32 32 48 48 32 32 48 48
32 32 48 48 32 32 48 48
32 32 48 48 32 32 48 48
32 32 48 48 32 32 48 48
32 32 48 48 32 32 48 48
32 32 48 48 32 32 48 48
32 32 48 48 32 32 48 48
32 32 48 48 32 32 48 48
32 32 48 48 32 32 48 48
32 32 48 48 32 32 48 48
32 32 48 48 32 32 48 48
32 32 48 48 32 32 48 48
32 32 48 48 32 32 48 48
32 32 48 48 32 32 48 48
32 32 48 48 32 32 48 48

NeutronMicrocode u1 [1296]
00000000: 6e4d 4364 1b3f 931c bc04 0000 0000 0000
00000010: bc04 0000 1000 0000 1005 0000 c0dc 0200
00000020: 0100 0000 0020 0000 0000 0000 0100 0000
00000030: 0300 0000 0a00 0000 8208 0000 0000 0000
00000040: 0305 0600 0101 0100 0219 0010 0000 0000
00000050: 0000 0002 0000 0000 0000 0001 0000 0100
00000060: 0000 0400 0000 0400 0000 8000 0000 8000
00000070: 0000 0100 0000 0a00 0000 0a00 0000 8000
00000080: 0000 0300 0000 0300 0000 0200 0000 0200
00000090: 0000 0000 0000 0000 0000 0000 0000 0000
000000a0: 0000 0100 0000 0100 0000 1001 0f07 0000
000000b0: 0000 0000 0000 0100 0000 0100 0000 80ff
000000c0: ffff 3080 0000 0000 0000 0000 0000 0000
000000d0: 0000 0000 0000 0519 0305 0606 0101 0100
000000e0: 0225 0000 0000 0010 0000 800a 0000 8006
000000f0: 0000 8008 0000 0100 0000 0400 0000 0400
110 77 67 100 27 63 147 28
188 4 0 0 0 0 0 0
188 4 0 0 16 0 0 0
16 5 0 0 192 220 2 0
1 0 0 0 0 32 0 0
0 0 0 0 1 0 0 0
3 0 0 0 10 0 0 0
130 8 0 0 0 0 0 0
3 5 6 0 1 1 1 0
2 25 0 16 0 0 0 0
0 0 0 2 0 0 0 0
0 0 0 1 0 0 1 0
0 0 4 0 0 0 4 0
0 0 128 0 0 0 128 0
0 0 1 0 0 0 10 0
0 0 10 0 0 0 128 0
0 0 3 0 0 0 3 0
0 0 2 0 0 0 2 0
0 0 0 0 0 0 0 0
0 0 0 0 0 0 0 0
0 0 1 0 0 0 1 0
0 0 16 1 15 7 0 0
0 0 0 0 0 0 1 0
0 0 1 0 0 0 128 255
255 255 48 128 0 0 0 0
0 0 0 0 0 0 0 0
0 0 0 0 0 0 5 25
3 5 6 6 1 1 1 0
2 37 0 0 0 0 0 16
0 0 128 10 0 0 128 6
0 0 128 8 0 0 1 0
0 0 4 0 0 0 4 0

NeutronWeights u1 [187584]
00000000: c58f 5f1a 8d1b 8716 ea12 5393 e20f 198b
00000010: cd16 6716 8f17 548a 9d13 ee86 5b96 0f1a
00000020: d1a7 099a 141b 551b d217 5012 180e 621a
00000030: 8317 201e 7b1e 2e1a ee16 731e bf17 531a
00000040: 4b1e 001a cd13 7f87 bb9a 3f86 1113 6596
00000050: a617 6f92 bc1a ec1a 1896 780f bd1a 4982
00000060: 351e a99e 151b 7216 ee16 7b92 419b 6a1e
00000070: 841e 6117 8b16 131e b116 4d9f 219a 1197
00000080: 161b 3193 b892 6496 e893 5792 4b1a 7c1a
00000090: 2297 e617 6c17 d386 071e cd96 481e 6e1a
000000a0: 5317 8e16 de13 5316 b093 139e 3d92 fa93
000000b0: 8b97 d296 6716 3d1e ff92 458e 3d17 100f
000000c0: bb8b 9f12 a28f 0297 3792 2b12 611b 319a
000000d0: 8d1a 7296 a996 cf13 8416 301e ac97 7a13
000000e0: 4917 1917 9486 3892 271e f606 e493 3c1a
000000f0: 209e 2d1a 6e13 1e0b 5e17 009b f912 2c1a
197 143 95 26 141 27 135 22
234 18 83 147 226 15 25 139
205 22 103 22 143 23 84 138
157 19 238 134 91 150 15 26
209 167 9 154 20 27 85 27
210 23 80 18 24 14 98 26
131 23 32 30 123 30 46 26
238 22 115 30 191 23 83 26
75 30 0 26 205 19 127 135
187 154 63 134 17 19 101 150
166 23 111 146 188 26 236 26
24 150 120 15 189 26 73 130
53 30 169 158 21 27 114 22
238 22 123 146 65 155 106 30
132 30 97 23 139 22 19 30
177 22 77 159 33 154 17 151
22 27 49 147 184 146 100 150
232 147 87 146 75 26 124 26
34 151 230 23 108 23 211 134
7 30 205 150 72 30 110 26
83 23 142 22 222 19 83 22
176 147 19 158 61 146 250 147
139 151 210 150 103 22 61 30
255 146 69 142 61 23 16 15
187 139 159 18 162 143 2 151
55 146 43 18 97 27 49 154
141 26 114 150 169 150 207 19
132 22 48 30 172 151 122 19
73 23 25 23 148 134 56 146
39 30 246 6 228 147 60 26
32 158 45 26 110 19 30 11
94 23 0 155 249 18 44 26

NeutronMicrocode u1 [304]
00000000: 6e4d 4364 1b3f 931c dc00 0000 0000 0000
00000010: dc00 0000 1000 0000 3001 0000 8405 0000
00000020: 0100 0000 b002 0000 0000 0000 0200 0000
00000030: 0200 0000 0400 0000 2809 0000 0000 0000
00000040: 0304 0600 0202 0254 0000 0000 0000 0000
00000050: 0000 0000 5801 0000 5801 0000 0100 0000
00000060: 1001 0e07 30fc 2a39 0000 0000 0000 0000
00000070: 0554 0305 0606 0202 0200 0243 5801 0000
00000080: 0000 0000 0804 0000 6005 0000 6805 0000
00000090: 5801 0000 0100 0000 1003 0e07 3080 0346
000000a0: 0000 0000 0000 0000 0543 0305 0306 0102
000000b0: 0200 0243 0000 0000 5801 0000 0000 0000
000000c0: 6c05 0000 7405 0000 5801 0000 0100 0000
000000d0: 1003 0f07 30db 7646 0000 0000 0000 0000
000000e0: 0543 0305 0406 0102 0200 0243 0000 0000
000000f0: 5801 0000 0000 0000 7805 0000 8005 0000
110 77 67 100 27 63 147 28
220 0 0 0 0 0 0 0
220 0 0 0 16 0 0 0
48 1 0 0 132 5 0 0
1 0 0 0 176 2 0 0
0 0 0 0 2 0 0 0
2 0 0 0 4 0 0 0
40 9 0 0 0 0 0 0
3 4 6 0 2 2 2 84
0 0 0 0 0 0 0 0
0 0 0 0 88 1 0 0
88 1 0 0 1 0 0 0
16 1 14 7 48 252 42 57
0 0 0 0 0 0 0 0
5 84 3 5 6 6 2 2
2 0 2 67 88 1 0 0
0 0 0 0 8 4 0 0
96 5 0 0 104 5 0 0
88 1 0 0 1 0 0 0
16 3 14 7 48 128 3 70
0 0 0 0 0 0 0 0
5 67 3 5 3 6 1 2
2 0 2 67 0 0 0 0
88 1 0 0 0 0 0 0
108 5 0 0 116 5 0 0
88 1 0 0 1 0 0 0
16 3 15 7 48 219 118 70
0 0 0 0 0 0 0 0
5 67 3 5 4 6 1 2
2 0 2 67 0 0 0 0
88 1 0 0 0 0 0 0
120 5 0 0 128 5 0 0

NeutronWeights u1 [1412]
00000000: 2020 3030 2020 3030 2020 3030 2020 3030
00000010: 2020 3030 2020 3030 2020 3030 2020 3030
00000020: 2020 3030 2020 3030 2020 3030 2020 3030
00000030: 2020 3030 2020 3030 2020 3030 2020 3030
00000040: 2020 3030 2020 3030 2020 3030 2020 3030
00000050: 2020 3030 2020 3030 2020 3030 2020 3030
00000060: 2020 3030 2020 3030 2020 3030 2020 3030
00000070: 2020 3030 2020 3030 2020 3030 2020 3030
00000080: 2020 3030 2020 3030 2020 3030 2020 3030
00000090: 2020 3030 2020 3030 2020 3030 2020 3030
000000a0: 2020 3030 2020 3030 2020 3030 2020 3030
000000b0: 2020 3030 2020 3030 2020 3030 2020 3030
000000c0: 2020 3030 2020 3030 2020 3030 2020 3030
000000d0: 2020 3030 2020 3030 2020 3030 2020 3030
000000e0: 2020 3030 2020 3030 2020 3030 2020 3030
000000f0: 2020 3030 2020 3030 2020 3030 2020 3030
32 32 48 48 32 32 48 48
32 32 48 48 32 32 48 48
32 32 48 48 32 32 48 48
32 32 48 48 32 32 48 48
32 32 48 48 32 32 48 48
32 32 48 48 32 32 48 48
32 32 48 48 32 32 48 48
32 32 48 48 32 32 48 48
32 32 48 48 32 32 48 48
32 32 48 48 32 32 48 48
32 32 48 48 32 32 48 48
32 32 48 48 32 32 48 48
32 32 48 48 32 32 48 48
32 32 48 48 32 32 48 48
32 32 48 48 32 32 48 48
32 32 48 48 32 32 48 48
32 32 48 48 32 32 48 48
32 32 48 48 32 32 48 48
32 32 48 48 32 32 48 48
32 32 48 48 32 32 48 48
32 32 48 48 32 32 48 48
32 32 48 48 32 32 48 48
32 32 48 48 32 32 48 48
32 32 48 48 32 32 48 48
32 32 48 48 32 32 48 48
32 32 48 48 32 32 48 48
32 32 48 48 32 32 48 48
32 32 48 48 32 32 48 48
32 32 48 48 32 32 48 48
32 32 48 48 32 32 48 48
32 32 48 48 32 32 48 48
32 32 48 48 32 32 48 48

NeutronMicrocode u1 [736]
00000000: 6e4d 4364 1b3f 931c 8e02 0000 0000 0000
00000010: 8e02 0000 1000 0000 e002 0000 a419 0000
00000020: 0100 0000 0031 0000 0000 0000 0300 0000
00000030: 0100 0000 0700 0000 ad09 0000 0000 0000
00000040: 0305 0601 0303 0300 0219 0020 0000 0000
00000050: 0000 0004 0000 0000 0000 0002 0000 0100
00000060: 0000 0400 0000 0400 0000 0001 0000 0001
00000070: 0000 0100 0000 0600 0000 0600 0000 0001
00000080: 0000 0300 0000 0300 0000 0100 0000 0100
00000090: 0000 0000 0000 0000 0000 0000 0000 0000
000000a0: 0000 0100 0000 0100 0000 1001 0f07 0000
000000b0: 0000 0000 0000 0100 0000 0100 0000 80ff
000000c0: ffff 3080 0000 0000 0000 0000 0000 0000
000000d0: 0000 0000 0000 0519 0305 0600 0303 0300
000000e0: 0419 0800 0000 0404 0404 0404 0404 0002
000000f0: 0304 0607 0809 0000 0000 000f 0000 000d
110 77 67 100 27 63 147 28
142 2 0 0 0 0 0 0
142 2 0 0 16 0 0 0
224 2 0 0 164 25 0 0
1 0 0 0 0 49 0 0
0 0 0 0 3 0 0 0
1 0 0 0 7 0 0 0
173 9 0 0 0 0 0 0
3 5 6 1 3 3 3 0
2 25 0 32 0 0 0 0
0 0 0 4 0 0 0 0
0 0 0 2 0 0 1 0
0 0 4 0 0 0 4 0
0 0 0 1 0 0 0 1
0 0 1 0 0 0 6 0
0 0 6 0 0 0 0 1
0 0 3 0 0 0 3 0
0 0 1 0 0 0 1 0
0 0 0 0 0 0 0 0
0 0 0 0 0 0 0 0
0 0 1 0 0 0 1 0
0 0 16 1 15 7 0 0
0 0 0 0 0 0 1 0
0 0 1 0 0 0 128 255
255 255 48 128 0 0 0 0
0 0 0 0 0 0 0 0
0 0 0 0 0 0 5 25
3 5 6 0 3 3 3 0
4 25 8 0 0 0 4 4
4 4 4 4 4 4 0 2
3 4 6 7 8 9 0 0
0 0 0 15 0 0 0 13

NeutronWeights u1 [6564]
00000000: ac13 331a 4612 2d97 2d1a d697 b017 201a
00000010: ca1e 3817 b20b 4d16 681b c493 8517 2693
00000020: e91a 2a17 a41b 0517 7a9a 3f92 f317 2a13
00000030: b412 841b e81b 0e9a a69b c41b 001a 0992
00000040: ee93 c413 a896 6216 7792 0d16 598f c99a
00000050: 801e 1116 7b0e 4116 3f13 b60f b216 1e13
00000060: 1f17 1512 b41b 281a 0716 0f0f 6812 641e
00000070: 8a9b b412 7016 809a 611e 7f9b 4e96 0786
00000080: d602 150b 199e 3093 e01e fc8a 8b1b 4e1e
00000090: 9c97 e78e 9e92 7c17 d817 7512 b59a 2b1a
000000a0: a297 5716 b81b 0d16 4f80 0192 6c0a eb01
000000b0: a70f cb9a a11e 0f9e 610f 3b93 299e ae96
000000c0: b396 f386 8d1e 2b16 078a 7f16 9a9b 1b96
000000d0: 8d1b 0d1e 2a1e b41a b516 b113 341b 030f
000000e0: bd16 ba1a fd0b 830e 8b1e f60f 6597 6c9a
000000f0: 601e 9086 d21b 1597 e70e c20f 8a1a 529a
172 19 51 26 70 18 45 151
45 26 214 151 176 23 32 26
202 30 56 23 178 11 77 22
104 27 196 147 133 23 38 147
233 26 42 23 164 27 5 23
122 154 63 146 243 23 42 19
180 18 132 27 232 27 14 154
166 155 196 27 0 26 9 146
238 147 196 19 168 150 98 22
119 146 13 22 89 143 201 154
128 30 17 22 123 14 65 22
63 19 182 15 178 22 30 19
31 23 21 18 180 27 40 26
7 22 15 15 104 18 100 30
138 155 180 18 112 22 128 154
97 30 127 155 78 150 7 134
214 2 21 11 25 158 48 147
224 30 252 138 139 27 78 30
156 151 231 142 158 146 124 23
216 23 117 18 181 154 43 26
162 151 87 22 184 27 13 22
79 128 1 146 108 10 235 1
167 15 203 154 161 30 15 158
97 15 59 147 41 158 174 150
179 150 243 134 141 30 43 22
7 138 127 22 154 155 27 150
141 27 13 30 42 30 180 26
181 22 177 19 52 27 3 15
189 22 186 26 253 11 131 14
139 30 246 15 101 151 108 154
96 30 144 134 210 27 21 151
231 14 194 15 138 26 82 154

NeutronMicrocode u1 [836]
00000000: 6e4d 4364 1b3f 931c e202 0000 0000 0000
00000010: e202 0000 1400 0000 4403 0000 c41f 0000
00000020: 0100 0000 0032 0000 0000 0000 0300 0000
00000030: 0200 0000 0900 0000 5e0a 0000 0000 0000
00000040: 0305 0701 0303 0300 0219 0020 0000 0000
00000050: 0000 0004 0000 0000 0000 0002 0000 0100
00000060: 0000 0400 0000 0400 0000 0001 0000 0001
00000070: 0000 0100 0000 0600 0000 0600 0000 0001
00000080: 0000 0300 0000 0300 0000 0100 0000 0100
00000090: 0000 0000 0000 0000 0000 0000 0000 0000
000000a0: 0000 0100 0000 0100 0000 1001 0f07 0000
000000b0: 0000 0000 0000 0100 0000 0100 0000 80ff
000000c0: ffff 3080 0000 0000 0000 0000 0000 0000
000000d0: 0000 0000 0000 0519 0305 0700 0303 0300
000000e0: 0419 0800 0000 0404 0404 0404 0404 0002
000000f0: 0304 0607 0809 0000 0000 000f 0000 000d
110 77 67 100 27 63 147 28
226 2 0 0 0 0 0 0
226 2 0 0 20 0 0 0
68 3 0 0 196 31 0 0
1 0 0 0 0 50 0 0
0 0 0 0 3 0 0 0
2 0 0 0 9 0 0 0
94 10 0 0 0 0 0 0
3 5 7 1 3 3 3 0
2 25 0 32 0 0 0 0
0 0 0 4 0 0 0 0
0 0 0 2 0 0 1 0
0 0 4 0 0 0 4 0
0 0 0 1 0 0 0 1
0 0 1 0 0 0 6 0
0 0 6 0 0 0 0 1
0 0 3 0 0 0 3 0
0 0 1 0 0 0 1 0
0 0 0 0 0 0 0 0
0 0 0 0 0 0 0 0
0 0 1 0 0 0 1 0
0 0 16 1 15 7 0 0
0 0 0 0 0 0 1 0
0 0 1 0 0 0 128 255
255 255 48 128 0 0 0 0
0 0 0 0 0 0 0 0
0 0 0 0 0 0 5 25
3 5 7 0 3 3 3 0
4 25 8 0 0 0 4 4
4 4 4 4 4 4 0 2
3 4 6 7 8 9 0 0
0 0 0 15 0 0 0 13

NeutronWeights u1 [8132]
00000000: 188e 0916 e017 ee0f 5c8e e512 f89b 1e0b
00000010: d59e 6607 7c1e 609a 369a b80e b80b 791a
00000020: 9f96 cc1a c78a 280e 721a 4d92 3e8b 3796
00000030: 451a ab13 2e13 228e 1d93 7a1a 3d17 4f1b
00000040: 0a0a 1e9a 6f12 6d0f 1d1a b18e 6017 7f9a
00000050: b196 441a 101a bf13 a697 709a 2416 0817
00000060: d317 4592 b38f 0f9e 9516 d116 0c17 fe96
00000070: cf1a b99a 929a 6c97 319a 5416 bc92 359b
00000080: 0692 2192 1f07 508e 7917 bc86 d813 f01b
00000090: d10f 358f 981a c21b 5512 8a92 eb86 121a
000000a0: 139a 6b1a 9696 7c16 a31e da17 c187 5b1b
000000b0: e113 d08f d193 3c17 ce81 d38e ab17 259a
000000c0: e293 5513 689a 0097 0d8e 2013 bb13 5917
000000d0: a902 8016 6b92 1096 a697 df1b 671a 221e
000000e0: fe1a 0c1f f517 af1b 3793 3a9a 941a 209b
000000f0: a21a d61e a90a 249e 7393 db1e 619a de1a
24 142 9 22 224 23 238 15
92 142 229 18 248 155 30 11
213 158 102 7 124 30 96 154
54 154 184 14 184 11 121 26
159 150 204 26 199 138 40 14
114 26 77 146 62 139 55 150
69 26 171 19 46 19 34 142
29 147 122 26 61 23 79 27
10 10 30 154 111 18 109 15
29 26 177 142 96 23 127 154
177 150 68 26 16 26 191 19
166 151 112 154 36 22 8 23
211 23 69 146 179 143 15 158
149 22 209 22 12 23 254 150
207 26 185 154 146 154 108 151
49 154 84 22 188 146 53 155
6 146 33 146 31 7 80 142
121 23 188 134 216 19 240 27
209 15 53 143 152 26 194 27
85 18 138 146 235 134 18 26
19 154 107 26 150 150 124 22
163 30 218 23 193 135 91 27
225 19 208 143 209 147 60 23
206 129 211 142 171 23 37 154
226 147 85 19 104 154 0 151
13 142 32 19 187 19 89 23
169 2 128 22 107 146 16 150
166 151 223 27 103 26 34 30
254 26 12 31 245 23 175 27
55 147 58 154 148 26 32 155
162 26 214 30 169 10 36 158
115 147 219 30 97 154 222 26

NeutronMicrocode u1 [136]
00000000: 6e4d 4364 1b3f 931c 3c00 0000 0000 0000
00000010: 3c00 0000 0800 0000 8800 0000 0c00 0000
00000020: 0100 0000 0000 0000 0000 0000 0100 0000
00000030: 0100 0000 0100 0000 5f0a 0000 0000 0000
00000040: 0304 0200 0101 0249 0000 0000 0000 0000
00000050: 0000 0000 0400 0000 0100 0000 0100 0000
00000060: b002 0000 1001 0f0f 0000 0000 0000 0000
00000070: 0000 0000 3080 8d21 0549 0100 0000 0000
00000080: b002 0000 b002 0000
110 77 67 100 27 63 147 28
60 0 0 0 0 0 0 0
60 0 0 0 8 0 0 0
136 0 0 0 12 0 0 0
1 0 0 0 0 0 0 0
0 0 0 0 1 0 0 0
1 0 0 0 1 0 0 0
95 10 0 0 0 0 0 0
3 4 2 0 1 1 2 73
0 0 0 0 0 0 0 0
0 0 0 0 4 0 0 0
1 0 0 0 1 0 0 0
176 2 0 0 16 1 15 15
0 0 0 0 0 0 0 0
0 0 0 0 48 128 141 33
5 73 1 0 0 0 0 0
176 2 0 0 176 2 0 0

NeutronWeights u1 [12]
00000000: 0101 0101 2500 2500 2500 2500
1 1 1 1 37 0 37 0
37 0 37 0
