frdmmcxn947/eiq_examples/mpp_camera_ultraface_view_tflm/models/ultraface_slim_quant_int8/ultraface_slim_ultraslim.tflite (tflite, 383504 bytes, 40 tensors)

Const i1 [172, 2] scale=0.0036764706 zero_point=-128
0.0625 0.0625 0.0625 0.0625 0.1875 0.0625 0.1875 0.0625
0.3125 0.0625 0.3125 0.0625 0.4375 0.0625 0.4375 0.0625
0.5625 0.0625 0.5625 0.0625 0.6875 0.0625 0.6875 0.0625
0.8125 0.0625 0.8125 0.0625 0.9375 0.0625 0.9375 0.0625
0.0625 0.1875 0.0625 0.1875 0.1875 0.1875 0.1875 0.1875
0.3125 0.1875 0.3125 0.1875 0.4375 0.1875 0.4375 0.1875
0.5625 0.1875 0.5625 0.1875 0.6875 0.1875 0.6875 0.1875
0.8125 0.1875 0.8125 0.1875 0.9375 0.1875 0.9375 0.1875
0.0625 0.3125 0.0625 0.3125 0.1875 0.3125 0.1875 0.3125
0.3125 0.3125 0.3125 0.3125 0.4375 0.3125 0.4375 0.3125
0.5625 0.3125 0.5625 0.3125 0.6875 0.3125 0.6875 0.3125
0.8125 0.3125 0.8125 0.3125 0.9375 0.3125 0.9375 0.3125
0.0625 0.4375 0.0625 0.4375 0.1875 0.4375 0.1875 0.4375
0.3125 0.4375 0.3125 0.4375 0.4375 0.4375 0.4375 0.4375
0.5625 0.4375 0.5625 0.4375 0.6875 0.4375 0.6875 0.4375
0.8125 0.4375 0.8125 0.4375 0.9375 0.4375 0.9375 0.4375
0.0625 0.5625 0.0625 0.5625 0.1875 0.5625 0.1875 0.5625
0.3125 0.5625 0.3125 0.5625 0.4375 0.5625 0.4375 0.5625
0.5625 0.5625 0.5625 0.5625 0.6875 0.5625 0.6875 0.5625
0.8125 0.5625 0.8125 0.5625 0.9375 0.5625 0.9375 0.5625
0.0625 0.6875 0.0625 0.6875 0.1875 0.6875 0.1875 0.6875
0.3125 0.6875 0.3125 0.6875 0.4375 0.6875 0.4375 0.6875
0.5625 0.6875 0.5625 0.6875 0.6875 0.6875 0.6875 0.6875
0.8125 0.6875 0.8125 0.6875 0.9375 0.6875 0.9375 0.6875
0.0625 0.8125 0.0625 0.8125 0.1875 0.8125 0.1875 0.8125
0.3125 0.8125 0.3125 0.8125 0.4375 0.8125 0.4375 0.8125
0.5625 0.8125 0.5625 0.8125 0.6875 0.8125 0.6875 0.8125
0.8125 0.8125 0.8125 0.8125 0.9375 0.8125 0.9375 0.8125
0.0625 0.9375 0.0625 0.9375 0.1875 0.9375 0.1875 0.9375
0.3125 0.9375 0.3125 0.9375 0.4375 0.9375 0.4375 0.9375
0.5625 0.9375 0.5625 0.9375 0.6875 0.9375 0.6875 0.9375
0.8125 0.9375 0.8125 0.9375 0.9375 0.9375 0.9375 0.9375
00000000: 9191 9191 b391 b391 d591 d591 f791 f791
00000010: 1991 1991 3b91 3b91 5d91 5d91 7f91 7f91
00000020: 91b3 91b3 b3b3 b3b3 d5b3 d5b3 f7b3 f7b3
00000030: 19b3 19b3 3bb3 3bb3 5db3 5db3 7fb3 7fb3
00000040: 91d5 91d5 b3d5 b3d5 d5d5 d5d5 f7d5 f7d5
00000050: 19d5 19d5 3bd5 3bd5 5dd5 5dd5 7fd5 7fd5
00000060: 91f7 91f7 b3f7 b3f7 d5f7 d5f7 f7f7 f7f7
00000070: 19f7 19f7 3bf7 3bf7 5df7 5df7 7ff7 7ff7
00000080: 9119 9119 b319 b319 d519 d519 f719 f719
00000090: 1919 1919 3b19 3b19 5d19 5d19 7f19 7f19
000000a0: 913b 913b b33b b33b d53b d53b f73b f73b
000000b0: 193b 193b 3b3b 3b3b 5d3b 5d3b 7f3b 7f3b
000000c0: 915d 915d b35d b35d d55d d55d f75d f75d
000000d0: 195d 195d 3b5d 3b5d 5d5d 5d5d 7f5d 7f5d
000000e0: 917f 917f b37f b37f d57f d57f f77f f77f
000000f0: 197f 197f 3b7f 3b7f 5d7f 5d7f 7f7f 7f7f

Const_1 i1 [172, 2] scale=0.007843138 zero_point=-128
0.2509804 0.2509804 0.37647063 0.37647063 0.2509804 0.2509804 0.37647063 0.37647063
0.2509804 0.2509804 0.37647063 0.37647063 0.2509804 0.2509804 0.37647063 0.37647063
0.2509804 0.2509804 0.37647063 0.37647063 0.2509804 0.2509804 0.37647063 0.37647063
0.2509804 0.2509804 0.37647063 0.37647063 0.2509804 0.2509804 0.37647063 0.37647063
0.2509804 0.2509804 0.37647063 0.37647063 0.2509804 0.2509804 0.37647063 0.37647063
0.2509804 0.2509804 0.37647063 0.37647063 0.2509804 0.2509804 0.37647063 0.37647063
0.2509804 0.2509804 0.37647063 0.37647063 0.2509804 0.2509804 0.37647063 0.37647063
0.2509804 0.2509804 0.37647063 0.37647063 0.2509804 0.2509804 0.37647063 0.37647063
0.2509804 0.2509804 0.37647063 0.37647063 0.2509804 0.2509804 0.37647063 0.37647063
0.2509804 0.2509804 0.37647063 0.37647063 0.2509804 0.2509804 0.37647063 0.37647063
0.2509804 0.2509804 0.37647063 0.37647063 0.2509804 0.2509804 0.37647063 0.37647063
0.2509804 0.2509804 0.37647063 0.37647063 0.2509804 0.2509804 0.37647063 0.37647063
0.2509804 0.2509804 0.37647063 0.37647063 0.2509804 0.2509804 0.37647063 0.37647063
0.2509804 0.2509804 0.37647063 0.37647063 0.2509804 0.2509804 0.37647063 0.37647063
0.2509804 0.2509804 0.37647063 0.37647063 0.2509804 0.2509804 0.37647063 0.37647063
0.2509804 0.2509804 0.37647063 0.37647063 0.2509804 0.2509804 0.37647063 0.37647063
0.2509804 0.2509804 0.37647063 0.37647063 0.2509804 0.2509804 0.37647063 0.37647063
0.2509804 0.2509804 0.37647063 0.37647063 0.2509804 0.2509804 0.37647063 0.37647063
0.2509804 0.2509804 0.37647063 0.37647063 0.2509804 0.2509804 0.37647063 0.37647063
0.2509804 0.2509804 0.37647063 0.37647063 0.2509804 0.2509804 0.37647063 0.37647063
0.2509804 0.2509804 0.37647063 0.37647063 0.2509804 0.2509804 0.37647063 0.37647063
0.2509804 0.2509804 0.37647063 0.37647063 0.2509804 0.2509804 0.37647063 0.37647063
0.2509804 0.2509804 0.37647063 0.37647063 0.2509804 0.2509804 0.37647063 0.37647063
0.2509804 0.2509804 0.37647063 0.37647063 0.2509804 0.2509804 0.37647063 0.37647063
0.2509804 0.2509804 0.37647063 0.37647063 0.2509804 0.2509804 0.37647063 0.37647063
0.2509804 0.2509804 0.37647063 0.37647063 0.2509804 0.2509804 0.37647063 0.37647063
0.2509804 0.2509804 0.37647063 0.37647063 0.2509804 0.2509804 0.37647063 0.37647063
0.2509804 0.2509804 0.37647063 0.37647063 0.2509804 0.2509804 0.37647063 0.37647063
0.2509804 0.2509804 0.37647063 0.37647063 0.2509804 0.2509804 0.37647063 0.37647063
0.2509804 0.2509804 0.37647063 0.37647063 0.2509804 0.2509804 0.37647063 0.37647063
0.2509804 0.2509804 0.37647063 0.37647063 0.2509804 0.2509804 0.37647063 0.37647063
0.2509804 0.2509804 0.37647063 0.37647063 0.2509804 0.2509804 0.37647063 0.37647063
00000000: a0a0 b0b0 a0a0 b0b0 a0a0 b0b0 a0a0 b0b0
00000010: a0a0 b0b0 a0a0 b0b0 a0a0 b0b0 a0a0 b0b0
00000020: a0a0 b0b0 a0a0 b0b0 a0a0 b0b0 a0a0 b0b0
00000030: a0a0 b0b0 a0a0 b0b0 a0a0 b0b0 a0a0 b0b0
00000040: a0a0 b0b0 a0a0 b0b0 a0a0 b0b0 a0a0 b0b0
00000050: a0a0 b0b0 a0a0 b0b0 a0a0 b0b0 a0a0 b0b0
00000060: a0a0 b0b0 a0a0 b0b0 a0a0 b0b0 a0a0 b0b0
00000070: a0a0 b0b0 a0a0 b0b0 a0a0 b0b0 a0a0 b0b0
00000080: a0a0 b0b0 a0a0 b0b0 a0a0 b0b0 a0a0 b0b0
00000090: a0a0 b0b0 a0a0 b0b0 a0a0 b0b0 a0a0 b0b0
000000a0: a0a0 b0b0 a0a0 b0b0 a0a0 b0b0 a0a0 b0b0
000000b0: a0a0 b0b0 a0a0 b0b0 a0a0 b0b0 a0a0 b0b0
000000c0: a0a0 b0b0 a0a0 b0b0 a0a0 b0b0 a0a0 b0b0
000000d0: a0a0 b0b0 a0a0 b0b0 a0a0 b0b0 a0a0 b0b0
000000e0: a0a0 b0b0 a0a0 b0b0 a0a0 b0b0 a0a0 b0b0
000000f0: a0a0 b0b0 a0a0 b0b0 a0a0 b0b0 a0a0 b0b0

model/reg_3_convbias/Conv2D i1 [12, 3, 3, 256]
1 -3 -1 4 3 1 -1 -2
-7 0 1 1 0 0 1 -2
0 -1 4 3 3 1 6 -6
0 5 -8 -5 -1 3 1 -3
3 4 1 -8 1 -5 -3 1
-3 1 4 2 -1 1 -1 7
-8 0 11 9 -1 -9 -1 -4
-7 -2 -2 -1 -4 8 7 4
-10 6 0 -3 -2 -6 2 -4
-5 9 3 -3 4 8 -1 -4
1 2 1 2 -1 3 -2 -4
4 3 -3 0 -2 1 2 -1
-1 -2 -1 -3 -4 1 -4 -6
-4 -1 1 -1 6 0 -1 4
5 -18 0 -2 7 4 4 3
3 0 0 5 -1 -1 2 12
6 2 6 8 2 9 -1 8
-4 1 1 4 -1 1 -1 8
6 -2 2 -1 10 2 -2 5
2 -2 1 -1 2 -5 -1 0
-5 -2 2 -2 5 4 -1 -2
-7 8 -5 7 3 0 2 9
-6 -9 -4 -3 4 12 -8 2
-14 -3 3 -1 1 3 1 0
3 5 1 8 -5 4 -1 -5
-15 -2 2 1 -2 -4 -1 -1
0 7 -12 6 -3 -4 6 1
1 -1 1 0 0 0 3 5
9 5 5 -1 -4 -4 3 -6
2 -3 0 4 6 4 8 0
-13 3 -1 -4 -4 2 0 1
2 8 -6 -1 8 -2 -1 1
00000000: 01fd ff04 0301 fffe f900 0101 0000 01fe
00000010: 00ff 0403 0301 06fa 0005 f8fb ff03 01fd
00000020: 0304 01f8 01fb fd01 fd01 0402 ff01 ff07
00000030: f800 0b09 fff7 fffc f9fe feff fc08 0704
00000040: f606 00fd fefa 02fc fb09 03fd 0408 fffc
00000050: 0102 0102 ff03 fefc 0403 fd00 fe01 02ff
00000060: fffe fffd fc01 fcfa fcff 01ff 0600 ff04
00000070: 05ee 00fe 0704 0403 0300 0005 ffff 020c
00000080: 0602 0608 0209 ff08 fc01 0104 ff01 ff08
00000090: 06fe 02ff 0a02 fe05 02fe 01ff 02fb ff00
000000a0: fbfe 02fe 0504 fffe f908 fb07 0300 0209
000000b0: faf7 fcfd 040c f802 f2fd 03ff 0103 0100
000000c0: 0305 0108 fb04 fffb f1fe 0201 fefc ffff
000000d0: 0007 f406 fdfc 0601 01ff 0100 0000 0305
000000e0: 0905 05ff fcfc 03fa 02fd 0004 0604 0800
000000f0: f303 fffc fc02 0001 0208 faff 08fe ff01

model/reg_2_sep_convbias/Conv2D i1 [8, 1, 1, 256]
5 0 -70 -1 -1 1 -1 -1
0 1 4 0 -1 -2 1 -13
0 1 1 0 0 1 1 0
-1 0 14 1 -1 5 -2 0
-1 -3 -1 -2 6 0 -1 0
0 26 24 0 0 6 -1 2
-1 2 0 -3 2 -1 14 0
-3 0 0 -1 0 16 -1 0
0 18 1 -1 0 -1 0 26
1 1 0 -7 -1 1 0 -11
0 -9 -1 0 0 -7 -1 0
0 0 0 0 -15 -1 -2 0
-3 -1 0 0 0 7 -1 0
0 0 1 0 0 5 -21 -37
4 -10 6 -34 0 -1 83 0
-4 -10 0 3 0 3 0 1
-1 5 1 0 2 -1 0 -1
0 -1 -6 -1 -1 0 -2 0
25 -1 0 0 3 1 1 0
1 1 -1 0 -68 0 -25 1
93 1 -1 -3 0 1 1 0
-2 0 0 0 0 0 0 0
-3 3 -1 0 -3 -1 -1 1
-1 -1 7 1 11 1 -4 2
-1 0 5 3 5 1 0 39
0 3 0 16 1 -3 3 -3
62 1 2 -14 110 -1 -127 1
-67 -1 0 34 0 -2 0 89
-6 -3 0 0 -6 1 0 0
0 -3 -3 -2 -70 -1 -91 -1
-1 0 -12 -7 0 3 -3 33
1 -4 -2 0 0 1 -1 -2
00000000: 0500 baff ff01 ffff 0001 0400 fffe 01f3
00000010: 0001 0100 0001 0100 ff00 0e01 ff05 fe00
00000020: fffd fffe 0600 ff00 001a 1800 0006 ff02
00000030: ff02 00fd 02ff 0e00 fd00 00ff 0010 ff00
00000040: 0012 01ff 00ff 001a 0101 00f9 ff01 00f5
00000050: 00f7 ff00 00f9 ff00 0000 0000 f1ff fe00
00000060: fdff 0000 0007 ff00 0000 0100 0005 ebdb
00000070: 04f6 06de 00ff 5300 fcf6 0003 0003 0001
00000080: ff05 0100 02ff 00ff 00ff faff ff00 fe00
00000090: 19ff 0000 0301 0100 0101 ff00 bc00 e701
000000a0: 5d01 fffd 0001 0100 fe00 0000 0000 0000
000000b0: fd03 ff00 fdff ff01 ffff 0701 0b01 fc02
000000c0: ff00 0503 0501 0027 0003 0010 01fd 03fd
000000d0: 3e01 02f2 6eff 8101 bdff 0022 00fe 0059
000000e0: fafd 0000 fa01 0000 00fd fdfe baff a5ff
000000f0: ff00 f4f9 0003 fd21 01fc fe00 0001 fffe

model/reg_2_sep_dconvbias/depthwise i1 [1, 3, 3, 256]
-55 -6 10 -18 -55 -114 39 -127
-77 31 -13 -127 -10 -85 52 -4
96 50 79 56 46 -122 89 59
103 -47 -70 62 35 14 28 104
-57 -25 34 127 -50 -38 117 -65
38 27 57 119 -77 -14 94 68
23 -127 -58 -67 10 44 26 -19
49 84 -46 -89 127 -53 -83 -64
24 -23 -127 15 64 121 -52 16
-101 50 116 23 91 -11 38 127
31 18 -29 1 42 -4 -127 -38
93 -93 -46 15 29 -4 127 97
-127 117 -43 -127 -123 23 127 46
-91 -11 -127 125 13 4 87 -4
-43 49 -31 26 -15 84 19 52
127 87 -53 -3 -42 37 -127 72
-42 63 91 35 5 -114 52 -45
-79 -82 -18 -86 122 -23 -49 45
-1 -116 -126 9 -110 45 44 78
100 85 95 127 -2 -56 -17 19
5 -94 127 82 -70 -103 -59 34
-48 -127 -106 -75 109 1 -26 -116
-65 70 17 127 1 -78 95 0
-118 127 -73 58 37 -32 63 96
77 -32 -48 127 23 70 116 -28
-24 52 68 34 30 -14 -105 -66
7 -61 7 60 -33 -7 23 127
-19 -3 -114 45 -127 94 44 9
101 49 67 -1 -7 6 -11 -124
54 21 34 87 -3 -26 109 65
61 98 7 85 -48 -127 25 -27
-23 20 109 51 -74 -99 73 1
00000000: c9fa 0aee c98e 2781 b31f f381 f6ab 34fc
00000010: 6032 4f38 2e86 593b 67d1 ba3e 230e 1c68
00000020: c7e7 227f ceda 75bf 261b 3977 b3f2 5e44
00000030: 1781 c6bd 0a2c 1aed 3154 d2a7 7fcb adc0
00000040: 18e9 810f 4079 cc10 9b32 7417 5bf5 267f
00000050: 1f12 e301 2afc 81da 5da3 d20f 1dfc 7f61
00000060: 8175 d581 8517 7f2e a5f5 817d 0d04 57fc
00000070: d531 e11a f154 1334 7f57 cbfd d625 8148
00000080: d63f 5b23 058e 34d3 b1ae eeaa 7ae9 cf2d
00000090: ff8c 8209 922d 2c4e 6455 5f7f fec8 ef13
000000a0: 05a2 7f52 ba99 c522 d081 96b5 6d01 e68c
000000b0: bf46 117f 01b2 5f00 8a7f b73a 25e0 3f60
000000c0: 4de0 d07f 1746 74e4 e834 4422 1ef2 97be
000000d0: 07c3 073c dff9 177f edfd 8e2d 815e 2c09
000000e0: 6531 43ff f906 f584 3615 2257 fde6 6d41
000000f0: 3d62 0755 d081 19e5 e914 6d33 b69d 4901

model/reg_1_sep_convbias/Conv2D i1 [8, 1, 1, 128]
1 -60 1 1 3 -31 -2 -2
4 25 -1 0 -1 0 1 -21
-8 -13 -1 0 52 -5 -1 0
0 0 1 71 -1 0 0 -2
1 6 1 2 -50 0 -26 0
97 -1 -8 -1 -9 1 2 1
-9 1 -1 0 -11 -1 -3 -2
0 -42 -1 1 0 0 -1 0
0 13 -1 -29 -1 0 -6 0
-1 3 19 -2 -2 1 -1 1
1 -1 -1 17 -72 0 2 0
-1 -1 -69 1 -11 1 -2 119
0 5 0 1 -1 28 -2 -1
55 71 1 -2 -106 -11 88 1
1 1 0 2 0 0 5 -31
0 1 -11 0 0 -127 -5 0
-1 -1 -1 -2 -80 127 0 3
2 -7 0 0 0 75 0 -126
3 -2 0 0 34 6 -1 0
0 0 1 -16 -1 -1 1 1
3 -7 1 8 12 1 -9 0
3 0 -3 -1 20 -1 4 1
-6 0 -1 1 15 0 -4 1
-1 -7 1 0 -37 0 0 2
0 -21 7 -10 -4 0 3 -24
-1 2 9 -2 -1 -1 -7 1
2 1 0 -3 29 0 -2 0
0 1 -15 0 -28 0 12 24
-1 10 -1 -1 0 98 -1 0
-36 -92 0 8 27 6 11 0
0 4 0 -1 -1 -1 38 66
-28 1 6 1 2 -37 4 1
00000000: 01c4 0101 03e1 fefe 0419 ff00 ff00 01eb
00000010: f8f3 ff00 34fb ff00 0000 0147 ff00 00fe
00000020: 0106 0102 ce00 e600 61ff f8ff f701 0201
00000030: f701 ff00 f5ff fdfe 00d6 ff01 0000 ff00
00000040: 000d ffe3 ff00 fa00 ff03 13fe fe01 ff01
00000050: 01ff ff11 b800 0200 ffff bb01 f501 fe77
00000060: 0005 0001 ff1c feff 3747 01fe 96f5 5801
00000070: 0101 0002 0000 05e1 0001 f500 0081 fb00
00000080: ffff fffe b07f 0003 02f9 0000 004b 0082
00000090: 03fe 0000 2206 ff00 0000 01f0 ffff 0101
000000a0: 03f9 0108 0c01 f700 0300 fdff 14ff 0401
000000b0: fa00 ff01 0f00 fc01 fff9 0100 db00 0002
000000c0: 00eb 07f6 fc00 03e8 ff02 09fe ffff f901
000000d0: 0201 00fd 1d00 fe00 0001 f100 e400 0c18
000000e0: ff0a ffff 0062 ff00 dca4 0008 1b06 0b00
000000f0: 0004 00ff ffff 2642 e401 0601 02db 0401

model/reg_1_sep_dconvbias/depthwise i1 [1, 3, 3, 128]
-23 64 -71 -127 53 -7 127 -44
-74 59 45 77 111 -2 -8 27
61 73 24 36 33 89 -7 -34
-70 -58 18 -13 24 49 -2 -29
-28 -4 -6 -35 9 95 -7 -48
-8 100 -42 -107 32 -45 -76 -21
-34 81 -11 -95 -20 -14 124 55
-29 115 -101 -45 10 -117 -22 -9
-127 -4 -12 90 127 83 83 1
110 64 30 109 60 -73 43 -108
127 -77 14 -10 17 -107 52 1
-47 -94 -11 -68 11 -39 14 -6
-46 88 -100 35 65 -28 -24 94
42 7 -95 -83 3 -19 6 41
-67 -26 -10 -22 -127 127 31 -1
74 90 -38 -115 -72 -12 -40 -74
127 76 127 -57 127 -13 19 -58
114 127 -83 -69 112 -1 65 67
79 99 -63 -52 19 121 82 95
-118 54 -16 23 85 83 52 -104
-56 127 -51 -10 46 30 6 -85
32 -92 33 -127 30 14 80 -16
-44 -91 -51 118 -24 23 90 -17
-14 94 -16 -7 -12 26 126 -65
-1 6 36 -29 8 -5 127 -21
-56 38 89 83 -16 -122 9 -53
91 114 -127 10 -10 22 46 -11
-85 42 -22 14 28 -29 -8 -10
-127 105 -88 -122 124 -33 -63 -77
90 48 -127 -16 55 25 21 -46
-23 -127 64 -38 -74 -103 7 4
127 -80 -7 -99 -67 57 74 73
00000000: e940 b981 35f9 7fd4 b63b 2d4d 6ffe f81b
00000010: 3d49 1824 2159 f9de bac6 12f3 1831 fee3
00000020: e4fc fadd 095f f9d0 f864 d695 20d3 b4eb
00000030: de51 f5a1 ecf2 7c37 e373 9bd3 0a8b eaf7
00000040: 81fc f45a 7f53 5301 6e40 1e6d 3cb7 2b94
00000050: 7fb3 0ef6 1195 3401 d1a2 f5bc 0bd9 0efa
00000060: d258 9c23 41e4 e85e 2a07 a1ad 03ed 0629
00000070: bde6 f6ea 817f 1fff 4a5a da8d b8f4 d8b6
00000080: 7f4c 7fc7 7ff3 13c6 727f adbb 70ff 4143
00000090: 4f63 c1cc 1379 525f 8a36 f017 5553 3498
000000a0: c87f cdf6 2e1e 06ab 20a4 2181 1e0e 50f0
000000b0: d4a5 cd76 e817 5aef f25e f0f9 f41a 7ebf
000000c0: ff06 24e3 08fb 7feb c826 5953 f086 09cb
000000d0: 5b72 810a f616 2ef5 ab2a ea0e 1ce3 f8f6
000000e0: 8169 a886 7cdf c1b3 5a30 81f0 3719 15d2
000000f0: e981 40da b699 0704 7fb0 f99d bd39 4a49

model/cls_3_convbias/Conv2D i1 [6, 3, 3, 256]
0 3 4 8 5 0 -2 -1
7 0 0 0 11 0 -1 -6
1 0 -1 3 0 -1 2 1
6 -2 8 11 -1 5 0 -5
7 15 2 5 -1 2 3 3
-1 1 8 1 1 0 -1 3
9 0 -1 -1 -1 0 1 3
-2 -1 0 8 6 -1 0 12
5 2 0 -9 1 -6 -2 -2
5 -2 4 2 10 0 -5 10
-2 3 4 2 1 1 -6 0
-5 -2 -6 -4 1 0 23 14
-1 -3 1 2 14 -1 -5 23
-3 -3 -1 0 3 1 1 -3
3 21 -1 1 -3 1 1 -1
-2 -1 2 -1 4 7 0 -2
14 -11 -2 3 0 2 2 0
8 -1 3 2 -1 -1 1 4
-2 -1 0 -1 -1 -2 1 -2
5 11 -1 0 0 6 -1 0
-7 -3 -4 -1 -2 1 13 8
7 5 -1 -3 1 1 2 -2
0 21 6 1 1 5 6 3
4 7 -1 1 0 2 1 1
4 -2 -3 1 4 7 -1 5
19 4 -4 0 -2 2 0 2
4 -4 12 0 -3 -1 1 -1
-2 0 1 1 0 0 3 2
-1 -1 13 -1 -3 1 2 1
-1 0 1 -3 -3 -1 3 15
7 -1 0 1 0 0 3 3
-3 2 3 15 1 -2 0 1
00000000: 0003 0408 0500 feff 0700 0000 0b00 fffa
00000010: 0100 ff03 00ff 0201 06fe 080b ff05 00fb
00000020: 070f 0205 ff02 0303 ff01 0801 0100 ff03
00000030: 0900 ffff ff00 0103 feff 0008 06ff 000c
00000040: 0502 00f7 01fa fefe 05fe 0402 0a00 fb0a
00000050: fe03 0402 0101 fa00 fbfe fafc 0100 170e
00000060: fffd 0102 0eff fb17 fdfd ff00 0301 01fd
00000070: 0315 ff01 fd01 01ff feff 02ff 0407 00fe
00000080: 0ef5 fe03 0002 0200 08ff 0302 ffff 0104
00000090: feff 00ff fffe 01fe 050b ff00 0006 ff00
000000a0: f9fd fcff fe01 0d08 0705 fffd 0101 02fe
000000b0: 0015 0601 0105 0603 0407 ff01 0002 0101
000000c0: 04fe fd01 0407 ff05 1304 fc00 fe02 0002
000000d0: 04fc 0c00 fdff 01ff fe00 0101 0000 0302
000000e0: ffff 0dff fd01 0201 ff00 01fd fdff 030f
000000f0: 07ff 0001 0000 0303 fd02 030f 01fe 0001

model/extras_sep_convbias/Conv2D i1 [256, 1, 1, 64]
-19 27 16 17 39 7 16 -15
39 -7 -27 12 13 4 24 21
-14 51 26 8 -22 -75 -10 18
23 -10 2 -6 15 19 26 -7
23 2 4 127 21 24 25 13
16 21 5 20 4 -13 34 7
-2 -5 65 8 11 12 17 8
3 -44 -10 17 12 15 -72 -10
32 18 20 24 18 -11 0 -14
-5 -16 8 9 -11 0 8 8
-2 49 17 -8 18 92 4 -1
-4 10 5 19 -15 11 -5 10
-12 -9 20 65 19 1 -5 -22
28 28 5 21 -8 -15 19 25
-3 1 -19 -6 -12 -7 -8 5
11 42 3 -11 6 2 127 15
-14 9 -6 4 3 5 -6 6
-2 2 66 -2 6 -1 -8 7
-1 24 -3 1 7 -48 -1 -7
1 -3 4 8 -1 1 -4 -9
0 5 5 -27 -1 0 8 127
-4 4 1 9 -2 5 -7 -3
3 -1 -1 2 -7 -2 -6 5
-6 33 1 -2 -3 3 -121 -4
16 -16 2 -12 -20 1 3 3
0 -6 103 -8 1 -1 6 7
-8 -46 0 -1 1 109 1 -2
-9 -2 6 -9 -6 -6 -6 -3
3 -3 -15 -77 -6 -16 -12 67
-5 -14 -4 6 0 5 -14 -13
8 4 -127 7 7 6 2 0
6 47 6 -5 3 3 59 -5
00000000: ed1b 1011 2707 10f1 27f9 e50c 0d04 1815
00000010: f233 1a08 eab5 f612 17f6 02fa 0f13 1af9
00000020: 1702 047f 1518 190d 1015 0514 04f3 2207
00000030: fefb 4108 0b0c 1108 03d4 f611 0c0f b8f6
00000040: 2012 1418 12f5 00f2 fbf0 0809 f500 0808
00000050: fe31 11f8 125c 04ff fc0a 0513 f10b fb0a
00000060: f4f7 1441 1301 fbea 1c1c 0515 f8f1 1319
00000070: fd01 edfa f4f9 f805 0b2a 03f5 0602 7f0f
00000080: f209 fa04 0305 fa06 fe02 42fe 06ff f807
00000090: ff18 fd01 07d0 fff9 01fd 0408 ff01 fcf7
000000a0: 0005 05e5 ff00 087f fc04 0109 fe05 f9fd
000000b0: 03ff ff02 f9fe fa05 fa21 01fe fd03 87fc
000000c0: 10f0 02f4 ec01 0303 00fa 67f8 01ff 0607
000000d0: f8d2 00ff 016d 01fe f7fe 06f7 fafa fafd
000000e0: 03fd f1b3 faf0 f443 fbf2 fc06 0005 f2f3
000000f0: 0804 8107 0706 0200 062f 06fb 0303 3bfb

model/extras_sep_dconvbias/depthwise i1 [1, 3, 3, 64]
19 -33 27 -91 82 1 94 -68
-25 32 65 -88 -92 14 2 3
-52 63 -45 22 -127 14 60 86
-23 104 -29 55 98 13 111 -52
-109 -40 -75 -12 -41 -108 -71 106
7 22 47 -33 52 69 48 -25
70 14 -28 -71 -103 14 -16 -119
98 44 -93 -31 -127 70 27 127
118 -11 -62 111 -27 -26 -31 127
-93 26 93 100 -122 -127 82 92
20 97 4 -103 43 92 -127 15
123 31 53 112 -50 -126 -50 13
23 123 1 -19 56 -13 61 126
-52 -43 100 75 -108 -9 127 -77
-46 6 24 116 4 -127 43 85
-66 75 -122 99 38 92 82 48
80 -74 46 55 56 17 85 43
-24 96 96 -127 -89 -15 -27 127
63 90 109 -45 82 127 -69 119
42 -106 -11 12 -102 -63 -30 127
27 111 14 -53 84 -44 63 116
-49 -17 -49 127 -29 25 -96 -43
-127 -105 86 -83 -74 119 127 36
-89 127 -24 127 46 -4 57 107
16 34 -95 -93 121 -123 -17 -72
-69 4 87 -10 -27 106 58 -66
-21 64 -38 -54 -84 5 110 -69
-124 10 93 127 0 53 -58 57
-127 -17 66 61 -112 -70 -33 100
-108 -22 27 -57 -116 118 12 38
-5 96 27 -101 -103 41 -15 127
68 -7 -71 20 -114 -27 50 54
00000000: 13df 1ba5 5201 5ebc e720 41a8 a40e 0203
00000010: cc3f d316 810e 3c56 e968 e337 620d 6fcc
00000020: 93d8 b5f4 d794 b96a 0716 2fdf 3445 30e7
00000030: 460e e4b9 990e f089 622c a3e1 8146 1b7f
00000040: 76f5 c26f e5e6 e17f a31a 5d64 8681 525c
00000050: 1461 0499 2b5c 810f 7b1f 3570 ce82 ce0d
00000060: 177b 01ed 38f3 3d7e ccd5 644b 94f7 7fb3
00000070: d206 1874 0481 2b55 be4b 8663 265c 5230
00000080: 50b6 2e37 3811 552b e860 6081 a7f1 e57f
00000090: 3f5a 6dd3 527f bb77 2a96 f50c 9ac1 e27f
000000a0: 1b6f 0ecb 54d4 3f74 cfef cf7f e319 a0d5
000000b0: 8197 56ad b677 7f24 a77f e87f 2efc 396b
000000c0: 1022 a1a3 7985 efb8 bb04 57f6 e56a 3abe
000000d0: eb40 daca ac05 6ebb 840a 5d7f 0035 c639
000000e0: 81ef 423d 90ba df64 94ea 1bc7 8c76 0c26
000000f0: fb60 1b9b 9929 f17f 44f9 b914 8ee5 3236

model/extras_convbias/Conv2D i1 [64, 1, 1, 256]
21 -2 -65 -2 -15 0 -7 -3
-9 8 3 4 -3 -11 0 0
25 -16 2 19 16 18 26 -1
10 4 74 4 -1 -8 30 -3
-2 20 -6 35 33 -10 -2 -3
9 21 16 8 -2 24 -7 -6
7 15 -1 -7 0 17 63 -4
36 50 -3 2 -1 43 -11 1
2 27 -3 0 -9 -4 -6 -22
6 -7 -6 28 7 7 7 19
2 1 -4 -9 -9 56 8 -6
3 24 -29 13 15 -2 -3 8
-8 -10 17 28 -8 17 57 13
-7 0 25 0 5 -12 22 -50
10 -35 2 -18 -20 10 23 -4
35 12 -18 -6 6 11 2 10
45 72 22 5 -2 12 -41 30
-14 1 -10 12 2 -4 8 -6
23 12 -8 23 39 -4 1 3
-18 2 -2 -1 -13 -2 127 3
39 -6 -3 61 0 2 -18 36
62 3 -1 -8 -12 11 -1 -6
14 -9 -2 1 -6 -13 4 -8
-2 6 61 -34 18 3 20 12
-6 2 127 11 10 33 11 44
-3 -7 1 7 -7 2 29 5
122 -6 30 121 77 24 -16 -5
-13 4 55 80 -4 3 -8 63
-2 -7 0 -27 -13 2 4 23
7 -8 -18 52 8 -18 -81 -1
5 3 2 -6 4 20 38 49
5 -2 39 30 -9 -3 0 -21
00000000: 15fe bffe f100 f9fd f708 0304 fdf5 0000
00000010: 19f0 0213 1012 1aff 0a04 4a04 fff8 1efd
00000020: fe14 fa23 21f6 fefd 0915 1008 fe18 f9fa
00000030: 070f fff9 0011 3ffc 2432 fd02 ff2b f501
00000040: 021b fd00 f7fc faea 06f9 fa1c 0707 0713
00000050: 0201 fcf7 f738 08fa 0318 e30d 0ffe fd08
00000060: f8f6 111c f811 390d f900 1900 05f4 16ce
00000070: 0add 02ee ec0a 17fc 230c eefa 060b 020a
00000080: 2d48 1605 fe0c d71e f201 f60c 02fc 08fa
00000090: 170c f817 27fc 0103 ee02 feff f3fe 7f03
000000a0: 27fa fd3d 0002 ee24 3e03 fff8 f40b fffa
000000b0: 0ef7 fe01 faf3 04f8 fe06 3dde 1203 140c
000000c0: fa02 7f0b 0a21 0b2c fdf9 0107 f902 1d05
000000d0: 7afa 1e79 4d18 f0fb f304 3750 fc03 f83f
000000e0: fef9 00e5 f302 0417 07f8 ee34 08ee afff
000000f0: 0503 02fa 0414 2631 05fe 271e f7fd 00eb

model/cls_2_sep_convbias/Conv2D i1 [4, 1, 1, 256]
2 5 1 0 1 -1 2 0
51 3 -1 5 -25 1 0 0
61 -6 63 11 0 0 1 0
7 1 -12 0 1 4 21 5
2 20 0 2 1 5 0 0
9 -5 -1 6 0 -1 8 -3
1 6 5 1 -1 1 -4 1
0 2 8 0 17 4 0 -1
0 -1 1 1 16 0 4 6
1 -2 1 0 8 0 15 -4
7 -1 11 16 -1 -4 13 2
1 9 9 0 5 9 0 0
5 0 -17 24 1 -100 5 2
10 11 30 2 -2 0 1 1
-4 4 5 1 16 0 0 5
-2 3 12 2 3 0 0 0
-6 0 1 1 -1 30 26 0
0 -1 1 2 3 0 15 1
1 1 9 0 -3 0 2 0
0 7 0 1 -5 2 -21 0
-3 0 0 0 0 0 1 -6
52 0 1 0 0 0 0 5
6 0 11 1 13 4 -1 1
4 6 -11 4 8 14 0 0
7 4 -4 7 -2 5 5 5
10 37 4 2 3 6 -5 1
3 2 -127 -27 -1 0 6 1
7 -1 9 -7 0 14 16 0
22 0 9 -10 3 1 -1 3
1 1 0 0 0 1 12 0
0 -1 -66 1 -1 2 0 1
3 0 -8 5 0 7 1 -7
00000000: 0205 0100 01ff 0200 3303 ff05 e701 0000
00000010: 3dfa 3f0b 0000 0100 0701 f400 0104 1505
00000020: 0214 0002 0105 0000 09fb ff06 00ff 08fd
00000030: 0106 0501 ff01 fc01 0002 0800 1104 00ff
00000040: 00ff 0101 1000 0406 01fe 0100 0800 0ffc
00000050: 07ff 0b10 fffc 0d02 0109 0900 0509 0000
00000060: 0500 ef18 019c 0502 0a0b 1e02 fe00 0101
00000070: fc04 0501 1000 0005 fe03 0c02 0300 0000
00000080: fa00 0101 ff1e 1a00 00ff 0102 0300 0f01
00000090: 0101 0900 fd00 0200 0007 0001 fb02 eb00
000000a0: fd00 0000 0000 01fa 3400 0100 0000 0005
000000b0: 0600 0b01 0d04 ff01 0406 f504 080e 0000
000000c0: 0704 fc07 fe05 0505 0a25 0402 0306 fb01
000000d0: 0302 81e5 ff00 0601 07ff 09f9 000e 1000
000000e0: 1600 09f6 0301 ff03 0101 0000 0001 0c00
000000f0: 00ff be01 ff02 0001 0300 f805 0007 01f9

model/cls_2_sep_dconvbias/depthwise i1 [1, 3, 3, 256]
15 -96 127 47 69 -88 -93 15
109 33 -40 -83 112 110 -20 73
43 -13 -3 -66 10 127 65 70
125 -80 74 -115 -19 52 -26 72
-67 -127 -8 -87 -62 35 -112 -127
-44 -10 12 -6 20 -71 -46 -84
112 -82 -42 124 -25 22 24 -74
-45 79 94 -103 127 -127 -14 84
94 -98 118 -127 -20 -20 -24 97
-119 -115 -13 -61 111 -27 -2 -80
36 106 65 75 96 87 -47 -119
32 61 123 -121 -74 -86 89 22
92 -86 77 91 30 35 -52 85
107 104 -82 23 21 4 -69 61
33 127 105 -12 60 24 -29 -122
92 94 -74 82 -73 115 76 -51
92 -58 86 32 -96 -42 56 -22
26 -72 -35 -120 122 -28 -4 -36
127 -27 9 -125 110 85 -6 96
-123 -59 -4 48 21 -28 -51 4
31 -108 -16 34 46 47 -127 127
11 -126 -110 12 -33 60 -51 -124
75 -100 105 21 60 -32 15 -40
-81 77 105 71 77 54 36 88
95 110 10 -3 109 -7 37 2
59 17 87 127 86 -9 3 50
-88 -56 -26 55 116 -12 -28 16
0 54 -69 127 -49 -57 98 -77
-63 -104 118 19 -53 -90 12 5
-127 -58 3 127 4 -40 127 -127
-80 123 -50 -79 30 119 127 -10
79 -127 27 117 81 69 -39 117
00000000: 0fa0 7f2f 45a8 a30f 6d21 d8ad 706e ec49
00000010: 2bf3 fdbe 0a7f 4146 7db0 4a8d ed34 e648
00000020: bd81 f8a9 c223 9081 d4f6 0cfa 14b9 d2ac
00000030: 70ae d67c e716 18b6 d34f 5e99 7f81 f254
00000040: 5e9e 7681 ecec e861 898d f3c3 6fe5 feb0
00000050: 246a 414b 6057 d189 203d 7b87 b6aa 5916
00000060: 5caa 4d5b 1e23 cc55 6b68 ae17 1504 bb3d
00000070: 217f 69f4 3c18 e386 5c5e b652 b773 4ccd
00000080: 5cc6 5620 a0d6 38ea 1ab8 dd88 7ae4 fcdc
00000090: 7fe5 0983 6e55 fa60 85c5 fc30 15e4 cd04
000000a0: 1f94 f022 2e2f 817f 0b82 920c df3c cd84
000000b0: 4b9c 6915 3ce0 0fd8 af4d 6947 4d36 2458
000000c0: 5f6e 0afd 6df9 2502 3b11 577f 56f7 0332
000000d0: a8c8 e637 74f4 e410 0036 bb7f cfc7 62b3
000000e0: c198 7613 cba6 0c05 81c6 037f 04d8 7f81
000000f0: b07b ceb1 1e77 7ff6 4f81 1b75 5145 d975

model/cls_1_sep_convbias/Conv2D i1 [4, 1, 1, 128]
0 1 6 2 5 2 3 5
0 1 3 16 2 1 27 1
2 -1 1 0 1 1 9 6
15 -2 6 3 0 0 11 -1
-1 0 -1 59 3 -1 0 1
4 19 0 7 1 1 0 -60
-32 11 0 1 -1 0 26 9
3 1 5 0 2 25 0 1
1 -127 1 4 18 16 0 2
2 1 -1 0 0 14 66 16
0 -1 8 -6 0 5 -1 3
0 1 0 3 0 1 2 -8
0 1 -1 -1 20 -3 0 -10
-2 1 1 0 0 4 5 34
-32 6 1 4 0 1 -1 2
1 -1 -14 8 0 3 -65 13
1 0 -7 -2 -5 -1 -2 -4
1 0 -2 -17 -3 0 -27 -1
0 0 -1 0 -1 0 -10 -5
-14 1 -7 -2 0 1 -11 0
1 1 0 -60 -3 -1 0 -1
-3 -20 -2 -7 -1 1 -1 59
33 -12 0 0 0 0 -26 -8
-2 -1 -5 1 -2 -23 0 0
0 127 -2 -4 -17 -16 -1 -2
-2 0 1 0 0 -15 -66 -16
0 -1 -8 6 -1 -6 -1 -3
1 0 0 -3 -1 -2 -1 7
-1 -2 0 0 -19 4 0 10
2 1 -1 0 0 -4 -6 -34
32 -7 0 -4 0 -2 0 -3
-2 -1 14 -7 1 -2 65 -12
00000000: 0001 0602 0502 0305 0001 0310 0201 1b01
00000010: 02ff 0100 0101 0906 0ffe 0603 0000 0bff
00000020: ff00 ff3b 03ff 0001 0413 0007 0101 00c4
00000030: e00b 0001 ff00 1a09 0301 0500 0219 0001
00000040: 0181 0104 1210 0002 0201 ff00 000e 4210
00000050: 00ff 08fa 0005 ff03 0001 0003 0001 02f8
00000060: 0001 ffff 14fd 00f6 fe01 0100 0004 0522
00000070: e006 0104 0001 ff02 01ff f208 0003 bf0d
00000080: 0100 f9fe fbff fefc 0100 feef fd00 e5ff
00000090: 0000 ff00 ff00 f6fb f201 f9fe 0001 f500
000000a0: 0101 00c4 fdff 00ff fdec fef9 ff01 ff3b
000000b0: 21f4 0000 0000 e6f8 feff fb01 fee9 0000
000000c0: 007f fefc eff0 fffe fe00 0100 00f1 bef0
000000d0: 00ff f806 fffa fffd 0100 00fd fffe ff07
000000e0: fffe 0000 ed04 000a 0201 ff00 00fc fade
000000f0: 20f9 00fc 00fe 00fd feff 0ef9 01fe 41f4

model/cls_1_sep_dconvbias/depthwise i1 [1, 3, 3, 128]
110 -112 -4 62 -5 63 102 117
18 -40 108 94 -127 -2 -64 -50
-115 -44 -27 -30 39 56 -37 -42
76 107 -66 -3 66 90 121 -81
-84 19 -125 19 16 -127 -42 105
-43 81 83 -127 76 14 4 66
-19 66 67 10 -55 0 -54 4
-30 36 110 112 7 21 -7 -99
-96 5 31 -28 66 -2 -122 -127
125 78 81 99 121 -78 93 8
45 127 3 12 79 -46 40 -20
115 92 -81 87 -52 -101 123 24
117 -9 22 37 -77 -70 -12 -5
-78 -119 -35 52 27 5 120 12
13 94 -71 71 124 72 127 -53
-108 84 88 -20 101 23 15 -127
-117 82 -25 -25 32 -18 -68 24
-123 -98 46 127 -77 -107 55 35
-63 16 127 98 -43 30 -41 75
-44 127 13 -15 -17 125 48 48
-69 120 -20 37 127 -9 -83 6
-6 -127 121 -74 -54 7 52 111
-8 127 0 -84 -28 -64 -93 -55
97 -118 -36 125 -16 86 -27 29
48 4 60 -45 111 87 85 50
27 100 -20 -97 35 95 114 56
-37 -125 47 -1 55 -97 -88 -13
-44 38 -126 -73 76 -127 -97 -2
-104 127 -44 16 20 93 127 -57
-74 58 35 -127 127 108 83 5
106 112 86 23 127 23 -48 -61
5 45 9 22 53 -116 83 84
00000000: 6e90 fc3e fb3f 6675 12d8 6c5e 81fe c0ce
00000010: 8dd4 e5e2 2738 dbd6 4c6b befd 425a 79af
00000020: ac13 8313 1081 d669 d551 5381 4c0e 0442
00000030: ed42 430a c900 ca04 e224 6e70 0715 f99d
00000040: a005 1fe4 42fe 8681 7d4e 5163 79b2 5d08
00000050: 2d7f 030c 4fd2 28ec 735c af57 cc9b 7b18
00000060: 75f7 1625 b3ba f4fb b289 dd34 1b05 780c
00000070: 0d5e b947 7c48 7fcb 9454 58ec 6517 0f81
00000080: 8b52 e7e7 20ee bc18 859e 2e7f b395 3723
00000090: c110 7f62 d51e d74b d47f 0df1 ef7d 3030
000000a0: bb78 ec25 7ff7 ad06 fa81 79b6 ca07 346f
000000b0: f87f 00ac e4c0 a3c9 618a dc7d f056 e51d
000000c0: 3004 3cd3 6f57 5532 1b64 ec9f 235f 7238
000000d0: db83 2fff 379f a8f3 d426 82b7 4c81 9ffe
000000e0: 987f d410 145d 7fc7 b63a 2381 7f6c 5305
000000f0: 6a70 5617 7f17 d0c3 052d 0916 358c 5354

model/basenet.12.3_conv/Conv2D i1 [256, 1, 1, 256]
-29 -18 -77 -10 -17 18 40 -2
-57 -32 10 -58 -15 -36 32 -9
52 -10 -34 -5 27 -15 15 -46
-19 -18 30 47 -39 9 17 -53
-72 33 -6 14 6 -52 7 3
-42 127 -30 -14 -13 9 -10 -32
-14 -7 -53 -67 -6 -21 36 -3
31 -12 -15 -17 -4 11 33 -6
-27 -10 -38 -4 34 -18 15 -4
6 64 1 -22 44 4 20 -16
-22 22 9 22 4 -46 -41 -33
68 -32 -10 -40 -9 6 -37 18
-25 46 4 13 46 -57 53 -10
-17 -8 49 -2 2 -15 -44 39
-36 -16 -9 -11 -11 30 17 -32
24 -10 -2 -31 -21 -6 -30 -17
-30 -22 -62 -9 1 -49 11 15
-25 20 91 31 -8 -3 -5 67
-20 28 39 5 -23 24 -6 -34
-35 52 24 -3 -29 -29 34 -49
-3 -16 38 4 -67 8 -27 -29
-37 -35 -10 0 -44 25 15 -35
-40 14 29 -14 70 -21 -32 -53
12 -30 -11 -57 1 -20 -65 24
9 -50 -16 -16 -27 32 41 -45
73 -26 24 -52 21 8 6 39
-10 -39 -17 -13 30 26 -14 9
-31 1 -62 -5 -17 26 5 1
-18 15 13 -10 80 9 -10 -28
59 60 50 -11 -19 -13 5 -28
-59 40 -21 15 -52 4 22 14
8 -35 33 -8 -48 29 -66 8
00000000: e3ee b3f6 ef12 28fe c7e0 0ac6 f1dc 20f7
00000010: 34f6 defb 1bf1 0fd2 edee 1e2f d909 11cb
00000020: b821 fa0e 06cc 0703 d67f e2f2 f309 f6e0
00000030: f2f9 cbbd faeb 24fd 1ff4 f1ef fc0b 21fa
00000040: e5f6 dafc 22ee 0ffc 0640 01ea 2c04 14f0
00000050: ea16 0916 04d2 d7df 44e0 f6d8 f706 db12
00000060: e72e 040d 2ec7 35f6 eff8 31fe 02f1 d427
00000070: dcf0 f7f5 f51e 11e0 18f6 fee1 ebfa e2ef
00000080: e2ea c2f7 01cf 0b0f e714 5b1f f8fd fb43
00000090: ec1c 2705 e918 fade dd34 18fd e3e3 22cf
000000a0: fdf0 2604 bd08 e5e3 dbdd f600 d419 0fdd
000000b0: d80e 1df2 46eb e0cb 0ce2 f5c7 01ec bf18
000000c0: 09ce f0f0 e520 29d3 49e6 18cc 1508 0627
000000d0: f6d9 eff3 1e1a f209 e101 c2fb ef1a 0501
000000e0: ee0f 0df6 5009 f6e4 3b3c 32f5 edf3 05e4
000000f0: c528 eb0f cc04 160e 08dd 21f8 d01d be08

model/basenet.12.1_bn/FusedBatchNormV3;model/basenet.12.0_dconv/depthwise;model/reg_2_sep_dconvbias/depthwise i1 [1, 3, 3, 256]
-15 -41 -127 87 10 -127 -31 67
80 106 104 4 -55 28 35 67
-106 127 38 -120 37 -11 37 108
-127 -95 -46 127 -62 21 -127 -127
33 -37 55 -50 -83 53 -60 25
70 -67 -67 -83 -38 48 27 -82
-68 57 72 -102 14 -88 -75 -81
69 -33 100 -127 -19 -111 13 30
-96 82 -55 4 -34 -127 -87 9
56 127 37 -52 -28 -83 -109 -57
94 -38 -38 106 46 -58 -127 -105
-9 50 55 55 127 -77 58 118
111 -64 115 -76 97 -35 -16 -34
-17 -5 119 10 -33 -82 66 26
-73 127 6 -75 -28 69 -74 74
60 -52 -6 -68 39 123 -127 -77
127 25 -100 -97 126 -35 30 73
-94 -56 -97 13 36 69 26 -55
4 121 -79 100 -17 38 89 -73
127 86 19 -32 -62 -27 22 70
127 58 -34 -127 -3 -127 89 -26
56 -84 127 -28 55 105 -47 -15
-122 -84 -26 -72 -34 15 64 -36
127 -66 126 -125 79 78 109 -52
-48 -102 37 96 -44 18 -4 -28
-127 -67 -39 68 -96 59 -18 -17
127 23 5 -23 35 57 -18 -105
99 122 123 74 -34 53 -67 13
-3 63 127 -50 101 21 -86 127
-102 103 -35 36 -32 -53 7 -80
-82 15 24 127 24 127 19 33
127 -67 27 47 -6 15 -85 54
00000000: f1d7 8157 0a81 e143 506a 6804 c91c 2343
00000010: 967f 2688 25f5 256c 81a1 d27f c215 8181
00000020: 21db 37ce ad35 c419 46bd bdad da30 1bae
00000030: bc39 489a 0ea8 b5af 45df 6481 ed91 0d1e
00000040: a052 c904 de81 a909 387f 25cc e4ad 93c7
00000050: 5eda da6a 2ec6 8197 f732 3737 7fb3 3a76
00000060: 6fc0 73b4 61dd f0de effb 770a dfae 421a
00000070: b77f 06b5 e445 b64a 3ccc fabc 277b 81b3
00000080: 7f19 9c9f 7edd 1e49 a2c8 9f0d 2445 1ac9
00000090: 0479 b164 ef26 59b7 7f56 13e0 c2e5 1646
000000a0: 7f3a de81 fd81 59e6 38ac 7fe4 3769 d1f1
000000b0: 86ac e6b8 de0f 40dc 7fbe 7e83 4f4e 6dcc
000000c0: d09a 2560 d412 fce4 81bd d944 a03b eeef
000000d0: 7f17 05e9 2339 ee97 637a 7b4a de35 bd0d
000000e0: fd3f 7fce 6515 aa7f 9a67 dd24 e0cb 07b0
000000f0: ae0f 187f 187f 1321 7fbd 1b2f fa0f ab36

model/basenet.11.3_conv/Conv2D i1 [256, 1, 1, 128]
-28 -21 14 22 -28 -12 -55 -21
9 -24 -13 -7 -40 -1 -3 22
-3 6 -40 7 33 20 -32 5
67 21 -13 -25 -38 -34 -7 15
-5 0 23 -5 7 -30 127 -1
21 3 11 -40 5 -18 -70 -34
-13 -36 -34 -24 -5 -5 -9 -50
1 -37 -30 16 42 -33 -30 -4
-54 -8 -24 -4 -13 7 -23 -8
-14 5 -15 9 3 -4 -12 28
-29 -6 -77 8 -25 3 0 -10
-34 5 4 8 -3 -43 49 -9
-48 6 -14 50 34 23 2 -51
2 -2 9 1 -8 -33 -1 19
37 43 52 -7 -3 17 -14 -17
-9 4 15 10 2 -45 -25 4
97 51 -20 -93 -51 -11 -18 -37
23 -50 -35 -99 2 -27 3 -3
12 -36 11 -95 28 88 -18 -62
79 40 32 48 -28 -36 -87 -56
-41 -14 -49 -3 11 9 13 -11
-108 24 -26 63 -5 -22 25 -10
34 -16 8 -29 57 69 -47 -91
-55 -125 82 -46 -30 7 -56 23
70 -30 -24 7 33 28 -53 32
-6 6 12 20 85 38 50 -42
-47 -91 114 56 127 11 -5 -5
34 -3 4 -54 -55 28 19 15
5 -39 -60 47 43 29 14 -26
17 11 4 -74 9 -82 -1 -4
31 62 93 22 2 0 -2 -1
-13 -47 34 4 -3 -64 -45 0
00000000: e4eb 0e16 e4f4 c9eb 09e8 f3f9 d8ff fd16
00000010: fd06 d807 2114 e005 4315 f3e7 dade f90f
00000020: fb00 17fb 07e2 7fff 1503 0bd8 05ee bade
00000030: f3dc dee8 fbfb f7ce 01db e210 2adf e2fc
00000040: caf8 e8fc f307 e9f8 f205 f109 03fc f41c
00000050: e3fa b308 e703 00f6 de05 0408 fdd5 31f7
00000060: d006 f232 2217 02cd 02fe 0901 f8df ff13
00000070: 252b 34f9 fd11 f2ef f704 0f0a 02d3 e704
00000080: 6133 eca3 cdf5 eedb 17ce dd9d 02e5 03fd
00000090: 0cdc 0ba1 1c58 eec2 4f28 2030 e4dc a9c8
000000a0: d7f2 cffd 0b09 0df5 9418 e63f fbea 19f6
000000b0: 22f0 08e3 3945 d1a5 c983 52d2 e207 c817
000000c0: 46e2 e807 211c cb20 fa06 0c14 5526 32d6
000000d0: d1a5 7238 7f0b fbfb 22fd 04ca c91c 130f
000000e0: 05d9 c42f 2b1d 0ee6 110b 04b6 09ae fffc
000000f0: 1f3e 5d16 0200 feff f3d1 2204 fdc0 d300

model/basenet.11.1_bn/FusedBatchNormV3;model/basenet.11.0_dconv/depthwise;model/reg_1_sep_dconvbias/depthwise i1 [1, 3, 3, 128]
-58 127 0 -10 -127 -127 -83 120
52 5 -63 -95 -66 -34 33 22
-33 52 75 127 -114 42 44 77
5 127 40 -11 -8 64 127 18
53 18 -38 127 -127 -65 -69 -64
64 108 40 118 -55 -35 -21 -17
-22 -108 -37 49 90 127 -127 52
-14 37 127 -4 -87 -90 -121 -98
101 -32 -36 10 -34 -43 29 -29
122 127 -19 -3 100 -27 88 127
-79 -127 3 -84 -53 -83 -70 127
37 97 55 116 -26 127 25 44
18 -1 -119 -119 71 -54 127 -41
73 -42 -94 8 127 79 64 127
24 -90 55 -3 127 40 91 -21
0 127 -122 -21 68 -13 -15 97
11 43 122 -97 84 84 -90 19
17 -46 19 71 100 7 -60 -45
-121 -90 122 107 -30 -10 46 -31
-74 -100 77 59 0 11 90 127
27 127 35 50 47 -62 -24 -58
105 -127 46 -21 -67 -67 20 -27
112 -24 16 -37 49 -35 -67 71
75 96 -6 10 110 -124 -111 -100
127 -46 -44 -105 -43 51 -37 127
113 -8 99 -54 110 -46 61 64
-122 -10 40 -27 8 -64 -80 0
82 49 -69 25 -85 27 127 -30
32 -10 -127 -115 -23 -11 53 -127
-2 -86 118 19 57 -54 -4 -40
33 -67 101 78 92 71 5 -10
-29 103 -59 57 127 57 -35 35
00000000: c67f 00f6 8181 ad78 3405 c1a1 bede 2116
00000010: df34 4b7f 8e2a 2c4d 057f 28f5 f840 7f12
00000020: 3512 da7f 81bf bbc0 406c 2876 c9dd ebef
00000030: ea94 db31 5a7f 8134 f225 7ffc a9a6 879e
00000040: 65e0 dc0a ded5 1de3 7a7f edfd 64e5 587f
00000050: b181 03ac cbad ba7f 2561 3774 e67f 192c
00000060: 12ff 8989 47ca 7fd7 49d6 a208 7f4f 407f
00000070: 18a6 37fd 7f28 5beb 007f 86eb 44f3 f161
00000080: 0b2b 7a9f 5454 a613 11d2 1347 6407 c4d3
00000090: 87a6 7a6b e2f6 2ee1 b69c 4d3b 000b 5a7f
000000a0: 1b7f 2332 2fc2 e8c6 6981 2eeb bdbd 14e5
000000b0: 70e8 10db 31dd bd47 4b60 fa0a 6e84 919c
000000c0: 7fd2 d497 d533 db7f 71f8 63ca 6ed2 3d40
000000d0: 86f6 28e5 08c0 b000 5231 bb19 ab1b 7fe2
000000e0: 20f6 818d e9f5 3581 feaa 7613 39ca fcd8
000000f0: 21bd 654e 5c47 05f6 e367 c539 7f39 dd23

model/basenet.10.3_conv/Conv2D i1 [128, 1, 1, 128]
77 92 14 4 15 6 21 26
15 0 -8 -13 64 -69 -33 63
3 -127 21 1 -15 14 -47 40
-26 1 -29 -12 60 -29 68 -43
12 16 30 24 1 6 36 -31
47 106 -21 -67 -57 -1 -11 9
-21 85 60 -11 -100 -26 -57 102
13 99 6 -54 40 -8 17 -64
-22 63 20 -15 -41 27 25 48
58 -55 -50 21 -17 -32 -9 -12
-52 8 -7 11 10 -17 7 -20
29 5 -30 -9 9 -26 41 6
61 57 -36 -5 -18 -19 19 107
20 2 -7 -14 16 86 19 14
-36 6 22 16 76 -44 -40 -4
-30 -44 -13 -51 2 3 46 24
44 13 -81 -1 2 -5 -24 21
42 -19 12 -33 1 38 6 -3
23 17 58 0 -27 -5 88 -4
7 -52 -25 -50 -6 -24 -43 41
-19 18 5 -27 1 8 29 1
-40 21 22 -20 -42 0 37 -33
32 26 -45 -13 -23 -20 42 -19
-95 -28 -2 -31 -6 11 19 -127
-16 2 -7 -33 -43 18 -12 -31
-42 -21 -3 -36 -126 -17 -36 -80
-34 31 -10 46 -37 -11 -51 -3
-49 12 -7 -3 -1 28 60 -57
-28 24 -61 -56 21 20 53 -3
8 30 31 -56 -66 3 -57 -48
-75 -3 52 8 -13 37 -12 -92
-40 51 -37 42 -20 -3 28 -10
00000000: 4d5c 0e04 0f06 151a 0f00 f8f3 40bb df3f
00000010: 0381 1501 f10e d128 e601 e3f4 3ce3 44d5
00000020: 0c10 1e18 0106 24e1 2f6a ebbd c7ff f509
00000030: eb55 3cf5 9ce6 c766 0d63 06ca 28f8 11c0
00000040: ea3f 14f1 d71b 1930 3ac9 ce15 efe0 f7f4
00000050: cc08 f90b 0aef 07ec 1d05 e2f7 09e6 2906
00000060: 3d39 dcfb eeed 136b 1402 f9f2 1056 130e
00000070: dc06 1610 4cd4 d8fc e2d4 f3cd 0203 2e18
00000080: 2c0d afff 02fb e815 2aed 0cdf 0126 06fd
00000090: 1711 3a00 e5fb 58fc 07cc e7ce fae8 d529
000000a0: ed12 05e5 0108 1d01 d815 16ec d600 25df
000000b0: 201a d3f3 e9ec 2aed a1e4 fee1 fa0b 1381
000000c0: f002 f9df d512 f4e1 d6eb fddc 82ef dcb0
000000d0: de1f f62e dbf5 cdfd cf0c f9fd ff1c 3cc7
000000e0: e418 c3c8 1514 35fd 081e 1fc8 be03 c7d0
000000f0: b5fd 3408 f325 f4a4 d833 db2a ecfd 1cf6

model/basenet.10.1_bn/FusedBatchNormV3;model/basenet.10.0_dconv/depthwise;model/reg_1_sep_dconvbias/depthwise i1 [1, 3, 3, 128]
127 31 120 -97 127 6 -20 10
-121 -127 -16 -17 -34 87 -36 -1
107 116 55 -2 21 -46 13 127
-127 -51 -38 29 62 -73 -47 93
-77 51 -59 -75 78 71 -7 127
118 14 34 6 44 -100 -27 -77
-9 -76 -18 -58 54 -2 15 -107
23 -13 34 -127 -38 -85 -30 -73
-25 -2 26 -31 42 101 28 127
16 -4 45 -115 -9 -8 -85 83
49 7 70 91 127 -52 -49 60
9 19 -39 127 35 97 99 78
67 -13 -50 42 78 -28 -61 66
-57 22 127 -29 -127 -29 31 62
-7 -127 -65 127 -34 46 -20 -84
-48 -40 -37 67 -101 1 -127 -67
-6 84 127 82 92 127 24 -127
-58 -86 -12 -118 -104 -96 -80 20
54 78 125 -50 -7 76 -57 124
-74 -107 -66 -57 -127 -36 -127 -115
-127 -84 -26 -121 -127 23 -34 58
6 54 -91 -51 127 126 22 -82
57 -88 -6 -93 -38 79 -23 -65
-1 -64 26 2 127 -16 -109 127
127 -1 -50 -14 84 32 -62 -122
-68 -86 127 -48 -96 -35 -73 87
-84 -127 26 10 42 38 127 125
-36 68 102 30 42 75 30 28
2 -127 -112 40 0 -93 -83 5
38 119 46 43 108 18 42 -96
-70 97 -104 4 -65 40 24 -95
47 -59 -106 99 18 127 -113 90
00000000: 7f1f 789f 7f06 ec0a 8781 f0ef de57 dcff
00000010: 6b74 37fe 15d2 0d7f 81cd da1d 3eb7 d15d
00000020: b333 c5b5 4e47 f97f 760e 2206 2c9c e5b3
00000030: f7b4 eec6 36fe 0f95 17f3 2281 daab e2b7
00000040: e7fe 1ae1 2a65 1c7f 10fc 2d8d f7f8 ab53
00000050: 3107 465b 7fcc cf3c 0913 d97f 2361 634e
00000060: 43f3 ce2a 4ee4 c342 c716 7fe3 81e3 1f3e
00000070: f981 bf7f de2e ecac d0d8 db43 9b01 81bd
00000080: fa54 7f52 5c7f 1881 c6aa f48a 98a0 b014
00000090: 364e 7dce f94c c77c b695 bec7 81dc 818d
000000a0: 81ac e687 8117 de3a 0636 a5cd 7f7e 16ae
000000b0: 39a8 faa3 da4f e9bf ffc0 1a02 7ff0 937f
000000c0: 7fff cef2 5420 c286 bcaa 7fd0 a0dd b757
000000d0: ac81 1a0a 2a26 7f7d dc44 661e 2a4b 1e1c
000000e0: 0281 9028 00a3 ad05 2677 2e2b 6c12 2aa0
000000f0: ba61 9804 bf28 18a1 2fc5 9663 127f 8f5a

model/basenet.9.3_conv/Conv2D i1 [128, 1, 1, 128]
13 -21 50 -31 23 12 -64 -31
5 2 28 -20 -7 -38 -84 30
19 -20 -57 -21 -111 13 -32 3
-36 -45 -19 -49 12 -32 -99 24
55 -22 39 -28 37 -106 -5 83
-6 -41 -60 7 -13 17 65 -5
2 8 33 2 -104 -15 -4 -28
10 29 -30 -46 66 69 -22 12
-65 -32 -20 34 77 44 20 9
-40 -23 36 16 -76 -27 94 -31
105 41 -42 -53 5 41 127 -29
8 -63 -21 -21 40 -54 19 -48
-49 -108 -5 54 15 14 27 -20
95 -3 -57 -22 -1 -44 -13 64
-23 -9 -53 -10 -4 81 -57 -9
24 21 14 -30 -2 34 2 -45
16 11 -38 -26 -122 41 -5 22
6 81 -2 -9 -14 15 22 -11
22 -23 28 2 -19 20 -40 -32
-28 12 -59 91 -5 70 -26 19
1 -35 -14 -2 -41 -5 0 -18
-73 12 -1 -43 48 -53 -17 -1
10 60 45 1 -8 -37 -55 12
-30 75 48 -45 -7 -43 53 12
-54 -45 75 -20 -20 -43 30 -22
-49 -86 21 -13 -1 -18 -50 15
-19 -46 -15 46 -19 15 -10 24
74 9 -12 -8 -71 27 92 23
-35 -32 -24 -2 6 38 -13 -56
-31 1 18 -14 6 11 39 -53
33 61 -23 127 21 -7 5 -17
-56 -107 3 12 54 -5 -19 7
00000000: 0deb 32e1 170c c0e1 0502 1cec f9da ac1e
00000010: 13ec c7eb 910d e003 dcd3 edcf 0ce0 9d18
00000020: 37ea 27e4 2596 fb53 fad7 c407 f311 41fb
00000030: 0208 2102 98f1 fce4 0a1d e2d2 4245 ea0c
00000040: bfe0 ec22 4d2c 1409 d8e9 2410 b4e5 5ee1
00000050: 6929 d6cb 0529 7fe3 08c1 ebeb 28ca 13d0
00000060: cf94 fb36 0f0e 1bec 5ffd c7ea ffd4 f340
00000070: e9f7 cbf6 fc51 c7f7 1815 0ee2 fe22 02d3
00000080: 100b dae6 8629 fb16 0651 fef7 f20f 16f5
00000090: 16e9 1c02 ed14 d8e0 e40c c55b fb46 e613
000000a0: 01dd f2fe d7fb 00ee b70c ffd5 30cb efff
000000b0: 0a3c 2d01 f8db c90c e24b 30d3 f9d5 350c
000000c0: cad3 4bec ecd5 1eea cfaa 15f3 ffee ce0f
000000d0: edd2 f12e ed0f f618 4a09 f4f8 b91b 5c17
000000e0: dde0 e8fe 0626 f3c8 e101 12f2 060b 27cb
000000f0: 213d e97f 15f9 05ef c895 030c 36fb ed07

model/basenet.9.1_bn/FusedBatchNormV3;model/basenet.9.0_dconv/depthwise;model/reg_1_sep_dconvbias/depthwise i1 [1, 3, 3, 128]
-73 -27 -14 -41 9 -77 7 73
25 84 37 -67 -62 -89 -94 51
127 127 -66 109 -31 -66 0 30
71 22 59 -86 -13 -51 -127 -34
-6 59 -8 -84 -73 -30 -78 -119
26 34 -24 -89 -20 -10 -20 -45
-74 44 -8 17 -14 -64 52 -36
127 59 -31 127 -66 3 33 -9
24 127 127 -12 -85 24 -25 51
-4 -82 69 -106 -26 -51 14 37
-19 -37 -18 -22 -60 1 -31 127
17 -17 -64 53 127 64 7 -12
61 87 127 -96 127 115 -11 21
-74 -83 48 -28 24 -38 -57 -87
40 -9 29 -54 73 -125 1 127
-24 -44 14 78 -79 -103 73 115
-10 -101 -100 -27 -8 -109 -15 76
-76 105 55 -52 -82 -8 -117 127
46 13 47 87 -47 -9 -43 127
95 -38 -41 -27 -6 -59 44 -52
-5 22 -115 -68 -45 -76 -72 -33
87 -111 -65 27 -22 -7 -127 38
-38 -51 4 84 -1 -100 104 -30
42 -53 15 -30 -61 0 127 8
79 -35 69 -7 -35 -127 -20 3
58 -47 -14 40 -72 -28 -39 -55
3 -37 127 57 -41 127 -97 60
-2 -103 -71 10 17 16 10 36
-9 70 -86 -25 20 -41 24 -36
65 89 127 100 89 -53 -21 -127
19 49 -77 -38 -28 65 -4 -78
-28 -52 3 -64 -36 -37 27 33
00000000: b7e5 f2d7 09b3 0749 1954 25bd c2a7 a233
00000010: 7f7f be6d e1be 001e 4716 3baa f3cd 81de
00000020: fa3b f8ac b7e2 b289 1a22 e8a7 ecf6 ecd3
00000030: b62c f811 f2c0 34dc 7f3b e17f be03 21f7
00000040: 187f 7ff4 ab18 e733 fcae 4596 e6cd 0e25
00000050: eddb eeea c401 e17f 11ef c035 7f40 07f4
00000060: 3d57 7fa0 7f73 f515 b6ad 30e4 18da c7a9
00000070: 28f7 1dca 4983 017f e8d4 0e4e b199 4973
00000080: f69b 9ce5 f893 f14c b469 37cc aef8 8b7f
00000090: 2e0d 2f57 d1f7 d57f 5fda d7e5 fac5 2ccc
000000a0: fb16 8dbc d3b4 b8df 5791 bf1b eaf9 8126
000000b0: dacd 0454 ff9c 68e2 2acb 0fe2 c300 7f08
000000c0: 4fdd 45f9 dd81 ec03 3ad1 f228 b8e4 d9c9
000000d0: 03db 7f39 d77f 9f3c fe99 b90a 1110 0a24
000000e0: f746 aae7 14d7 18dc 4159 7f64 59cb eb81
000000f0: 1331 b3da e441 fcb2 e4cc 03c0 dcdb 1b21

model/basenet.8.3_conv/Conv2D i1 [128, 1, 1, 64]
15 -10 -1 -51 2 -7 61 -23
1 -17 0 -11 -5 -26 35 10
64 -12 4 13 15 -23 -24 -4
24 -8 0 -4 0 36 -6 -5
-19 -22 40 10 8 -7 50 -49
-10 -54 -31 11 -51 -14 -32 -12
33 0 -31 -5 38 -127 65 5
32 8 16 -7 33 12 7 -12
23 3 -20 7 6 -12 -21 -7
4 -51 -26 19 67 7 -57 19
127 -28 6 39 0 -54 26 5
-30 11 0 -24 7 104 6 0
0 46 -32 -20 -44 36 -39 44
7 37 48 -19 -11 -23 50 -15
4 35 80 -56 -8 7 -44 -35
-46 14 -41 -96 -42 46 -32 30
-39 10 -24 -1 3 8 -13 17
-5 87 -14 -35 -10 39 -19 81
-86 1 -4 48 -13 -7 14 1
-53 -19 2 -9 5 -100 19 50
-36 -32 -37 -12 -14 18 59 88
23 -22 -26 127 -20 36 -48 104
-43 -7 -111 -34 15 65 -39 -20
16 36 27 -38 -17 -29 -14 -13
46 11 0 -9 -1 -5 14 33
4 11 -16 -1 56 18 -24 127
42 -14 -1 21 10 -20 17 -4
11 8 4 -3 2 29 -6 -23
-15 15 -29 13 -10 -16 -46 20
-22 44 20 23 -31 -20 4 15
-41 7 -24 -12 64 -46 4 19
-43 -16 18 -13 7 15 12 28
00000000: 0ff6 ffcd 02f9 3de9 01ef 00f5 fbe6 230a
00000010: 40f4 040d 0fe9 e8fc 18f8 00fc 0024 fafb
00000020: edea 280a 08f9 32cf f6ca e10b cdf2 e0f4
00000030: 2100 e1fb 2681 4105 2008 10f9 210c 07f4
00000040: 1703 ec07 06f4 ebf9 04cd e613 4307 c713
00000050: 7fe4 0627 00ca 1a05 e20b 00e8 0768 0600
00000060: 002e e0ec d424 d92c 0725 30ed f5e9 32f1
00000070: 0423 50c8 f807 d4dd d20e d7a0 d62e e01e
00000080: d90a e8ff 0308 f311 fb57 f2dd f627 ed51
00000090: aa01 fc30 f3f9 0e01 cbed 02f7 059c 1332
000000a0: dce0 dbf4 f212 3b58 17ea e67f ec24 d068
000000b0: d5f9 91de 0f41 d9ec 1024 1bda efe3 f2f3
000000c0: 2e0b 00f7 fffb 0e21 040b f0ff 3812 e87f
000000d0: 2af2 ff15 0aec 11fc 0b08 04fd 021d fae9
000000e0: f10f e30d f6f0 d214 ea2c 1417 e1ec 040f
000000f0: d707 e8f4 40d2 0413 d5f0 12f3 070f 0c1c

model/basenet.8.1_bn/FusedBatchNormV3;model/basenet.8.0_dconv/depthwise;model/extras_sep_dconvbias/depthwise i1 [1, 3, 3, 64]
-24 -85 -57 89 -30 23 85 55
-4 -14 104 -35 41 -127 -52 70
41 -23 55 -109 -85 -29 44 -36
127 15 -104 -54 -12 11 -19 -51
4 43 17 0 111 79 31 -64
-24 12 -19 -46 -30 -127 101 86
84 -33 -11 -61 86 29 7 52
92 -31 -47 16 127 -24 68 62
127 -14 -82 111 -88 -40 127 75
-43 43 127 -83 102 -31 60 -51
127 55 2 -127 -54 -41 87 61
-58 100 83 -27 2 35 -71 -10
-13 33 -105 49 127 127 43 -46
-54 97 -18 105 -41 -18 48 127
127 -69 -17 -112 127 71 -6 -37
121 -67 -29 -64 60 -97 9 62
19 56 -86 31 65 63 121 50
51 22 25 -18 43 46 127 -57
73 102 58 -61 -95 -49 127 -62
-116 7 -19 -17 -127 29 91 108
17 -8 -63 -34 40 67 36 -29
-20 97 -70 127 -10 -109 35 88
54 -29 26 28 34 127 49 -16
111 -55 127 -10 -26 -127 -34 51
-109 -18 2 127 -105 -23 24 100
-33 -41 74 78 97 -23 16 109
50 58 -119 -94 -71 49 -37 -105
86 38 -58 54 3 36 -22 -84
-53 83 127 66 -16 -15 53 -83
-15 65 127 -88 41 -107 74 -76
74 63 -29 -3 -21 11 -41 127
101 -23 -32 67 108 79 123 75
00000000: e8ab c759 e217 5537 fcf2 68dd 2981 cc46
00000010: 29e9 3793 abe3 2cdc 7f0f 98ca f40b edcd
00000020: 042b 1100 6f4f 1fc0 e80c edd2 e281 6556
00000030: 54df f5c3 561d 0734 5ce1 d110 7fe8 443e
00000040: 7ff2 ae6f a8d8 7f4b d52b 7fad 66e1 3ccd
00000050: 7f37 0281 cad7 573d c664 53e5 0223 b9f6
00000060: f321 9731 7f7f 2bd2 ca61 ee69 d7ee 307f
00000070: 7fbb ef90 7f47 fadb 79bd e3c0 3c9f 093e
00000080: 1338 aa1f 413f 7932 3316 19ee 2b2e 7fc7
00000090: 4966 3ac3 a1cf 7fc2 8c07 edef 811d 5b6c
000000a0: 11f8 c1de 2843 24e3 ec61 ba7f f693 2358
000000b0: 36e3 1a1c 227f 31f0 6fc9 7ff6 e681 de33
000000c0: 93ee 027f 97e9 1864 dfd7 4a4e 61e9 106d
000000d0: 323a 89a2 b931 db97 5626 c636 0324 eaac
000000e0: cb53 7f42 f0f1 35ad f141 7fa8 2995 4ab4
000000f0: 4a3f e3fd eb0b d77f 65e9 e043 6c4f 7b4b

model/basenet.7.3_conv/Conv2D i1 [64, 1, 1, 64]
-6 17 -11 46 -14 30 53 -50
-63 7 34 1 43 -19 25 4
-58 0 127 -24 64 19 -18 -75
-96 -43 84 -47 -17 -61 9 -55
-114 -22 22 -12 46 -38 -19 5
31 5 -3 33 -23 -87 49 -23
40 -69 -25 54 -38 -110 88 31
20 -91 23 27 -25 61 53 33
53 -17 -2 53 6 -7 6 -49
-7 -10 -20 -39 59 25 -26 -2
-10 0 -31 -15 35 31 -71 -20
0 -24 19 -18 12 -27 -49 -15
-2 -2 6 -127 28 31 20 7
-8 20 -27 19 -2 -3 3 -33
-76 12 13 -7 -26 -8 -23 4
1 -5 14 88 -20 -24 49 -10
22 16 15 -18 8 27 -29 21
4 -41 -80 -127 -58 -38 -18 2
5 3 -74 58 -42 -14 87 -14
1 47 6 13 5 44 -20 32
45 -2 15 22 42 44 -39 -98
-24 22 -33 61 69 6 -15 -17
-49 19 -1 -16 -6 -23 -115 -34
-19 48 -26 -37 92 -64 -35 -81
26 35 0 29 0 -26 6 -10
-35 -2 -15 12 -16 9 -12 2
67 -2 32 42 -3 -28 9 -33
18 52 11 -34 8 -6 76 28
30 -70 29 20 37 31 7 -11
45 4 -29 17 32 1 -9 9
55 3 10 127 6 6 7 19
-4 -16 -79 -18 -11 -53 -7 -28
00000000: fa11 f52e f21e 35ce c107 2201 2bed 1904
00000010: c600 7fe8 4013 eeb5 a0d5 54d1 efc3 09c9
00000020: 8eea 16f4 2eda ed05 1f05 fd21 e9a9 31e9
00000030: 28bb e736 da92 581f 14a5 171b e73d 3521
00000040: 35ef fe35 06f9 06cf f9f6 ecd9 3b19 e6fe
00000050: f600 e1f1 231f b9ec 00e8 13ee 0ce5 cff1
00000060: fefe 0681 1c1f 1407 f814 e513 fefd 03df
00000070: b40c 0df9 e6f8 e904 01fb 0e58 ece8 31f6
00000080: 1610 0fee 081b e315 04d7 b081 c6da ee02
00000090: 0503 b63a d6f2 57f2 012f 060d 052c ec20
000000a0: 2dfe 0f16 2a2c d99e e816 df3d 4506 f1ef
000000b0: cf13 fff0 fae9 8dde ed30 e6db 5cc0 ddaf
000000c0: 1a23 001d 00e6 06f6 ddfe f10c f009 f402
000000d0: 43fe 202a fde4 09df 1234 0bde 08fa 4c1c
000000e0: 1eba 1d14 251f 07f5 2d04 e311 2001 f709
000000f0: 3703 0a7f 0606 0713 fcf0 b1ee f5cb f9e4

model/basenet.7.1_bn/FusedBatchNormV3;model/basenet.7.0_dconv/depthwise;model/extras_sep_dconvbias/depthwise i1 [1, 3, 3, 64]
-84 -120 -8 -53 -11 48 -7 5
41 -35 -29 -58 -30 4 11 -110
-10 -110 9 11 48 -33 -117 26
-3 -60 82 -23 12 60 64 63
37 1 -17 47 -62 -5 4 -13
23 -4 26 49 -2 -55 23 6
99 94 -105 -11 -8 16 22 -4
17 -25 90 -9 -79 12 35 -5
-112 -57 -9 76 24 127 -7 -51
87 -60 -30 -114 -123 -5 17 -87
0 109 15 -11 28 4 -95 30
17 106 24 127 -2 127 -45 127
51 59 12 -39 -57 -8 -6 -53
127 -14 96 -122 -58 -77 71 -18
12 43 5 -64 57 -55 55 -30
-44 -7 -18 26 -118 -29 -5 -25
-118 10 2 26 5 87 1 -70
-41 -62 -36 -88 -35 0 5 -85
-45 -127 30 17 -16 9 -127 60
-27 -34 -86 -4 12 54 40 61
56 26 127 52 -58 -14 -3 -22
51 -6 9 2 -19 -81 107 -15
95 -3 -1 -8 98 -22 -21 -9
6 -24 76 11 -104 -18 -10 -4
-86 -37 2 13 -8 50 35 59
127 -50 -13 -101 -60 -2 -6 -77
-34 71 -27 22 81 -12 -94 -25
-36 -67 127 -39 16 73 29 0
-19 15 32 48 -1 -9 -10 -38
61 -3 -12 57 -31 -127 18 -48
80 50 -75 99 15 4 1 -18
-19 -24 90 -19 -41 31 41 -5
00000000: ac88 f8cb f530 f905 29dd e3c6 e204 0b92
00000010: f692 090b 30df 8b1a fdc4 52e9 0c3c 403f
00000020: 2501 ef2f c2fb 04f3 17fc 1a31 fec9 1706
00000030: 635e 97f5 f810 16fc 11e7 5af7 b10c 23fb
00000040: 90c7 f74c 187f f9cd 57c4 e28e 85fb 11a9
00000050: 006d 0ff5 1c04 a11e 116a 187f fe7f d37f
00000060: 333b 0cd9 c7f8 facb 7ff2 6086 c6b3 47ee
00000070: 0c2b 05c0 39c9 37e2 d4f9 ee1a 8ae3 fbe7
00000080: 8a0a 021a 0557 01ba d7c2 dca8 dd00 05ab
00000090: d381 1e11 f009 813c e5de aafc 0c36 283d
000000a0: 381a 7f34 c6f2 fdea 33fa 0902 edaf 6bf1
000000b0: 5ffd fff8 62ea ebf7 06e8 4c0b 98ee f6fc
000000c0: aadb 020d f832 233b 7fce f39b c4fe fab3
000000d0: de47 e516 51f4 a2e7 dcbd 7fd9 1049 1d00
000000e0: ed0f 2030 fff7 f6da 3dfd f439 e181 12d0
000000f0: 5032 b563 0f04 01ee ede8 5aed d71f 29fb

model/basenet.6.3_conv/Conv2D i1 [64, 1, 1, 64]
-74 44 -11 30 -26 -5 -77 -1
-70 -59 70 3 -5 54 -87 92
25 29 11 34 11 -3 -9 27
127 40 -20 13 55 31 -1 15
-16 13 -36 -11 -24 -24 2 -8
-28 9 39 -83 -26 18 -13 13
95 120 87 -52 76 55 81 11
-2 -11 14 34 39 10 -56 93
-24 -17 -47 -41 -48 -2 -86 -127
-51 54 1 3 57 -49 -15 -15
23 31 -59 -19 14 0 21 -69
-21 -55 68 19 5 -15 1 28
74 21 -49 22 -10 102 -36 -11
93 108 -66 -29 16 2 -48 -11
-15 4 -34 -57 -15 39 42 -103
-25 -19 65 3 53 -7 53 31
-19 -106 18 17 -13 -18 -47 -5
9 -16 -13 -2 62 -22 8 9
-33 3 6 -30 7 1 -1 58
-4 19 -28 127 -29 31 -3 51
-25 45 8 -38 38 17 65 -14
1 52 -28 -40 -57 25 -44 11
36 -11 26 -40 -2 17 1 -10
28 -36 -12 59 10 -9 -62 -1
37 -3 64 -53 27 15 -46 -85
-71 51 15 3 -29 -102 87 -93
-15 16 87 79 4 1 -70 -54
-58 50 54 -9 8 -63 3 -123
-30 37 59 5 -27 1 66 53
-53 17 -127 109 66 -3 17 -23
-35 -67 55 34 2 -2 -91 9
-45 70 -65 26 -54 19 -31 -27
00000000: b62c f51e e6fb b3ff bac5 4603 fb36 a95c
00000010: 191d 0b22 0bfd f71b 7f28 ec0d 371f ff0f
00000020: f00d dcf5 e8e8 02f8 e409 27ad e612 f30d
00000030: 5f78 57cc 4c37 510b fef5 0e22 270a c85d
00000040: e8ef d1d7 d0fe aa81 cd36 0103 39cf f1f1
00000050: 171f c5ed 0e00 15bb ebc9 4413 05f1 011c
00000060: 4a15 cf16 f666 dcf5 5d6c bee3 1002 d0f5
00000070: f104 dec7 f127 2a99 e7ed 4103 35f9 351f
00000080: ed96 1211 f3ee d1fb 09f0 f3fe 3eea 0809
00000090: df03 06e2 0701 ff3a fc13 e47f e31f fd33
000000a0: e72d 08da 2611 41f2 0134 e4d8 c719 d40b
000000b0: 24f5 1ad8 fe11 01f6 1cdc f43b 0af7 c2ff
000000c0: 25fd 40cb 1b0f d2ab b933 0f03 e39a 57a3
000000d0: f110 574f 0401 baca c632 36f7 08c1 0385
000000e0: e225 3b05 e501 4235 cb11 816d 42fd 11e9
000000f0: ddbd 3722 02fe a509 d346 bf1a ca13 e1e5

model/basenet.6.1_bn/FusedBatchNormV3;model/basenet.6.0_dconv/depthwise;model/extras_sep_dconvbias/depthwise i1 [1, 3, 3, 64]
-11 4 86 14 6 10 75 -112
35 127 29 -32 2 14 31 -35
-9 -5 -7 -56 -1 24 -7 81
3 -17 -21 5 -127 0 -101 20
-33 -1 42 -4 20 -64 4 -42
-23 -22 -43 23 -25 6 -11 27
121 -36 -85 22 32 63 25 23
12 -3 25 -110 -3 -27 69 -24
-22 -12 127 92 7 65 30 -102
23 55 -43 -14 21 -36 127 -3
-19 104 127 -93 89 -122 50 -44
-92 32 -52 13 2 -78 17 61
-14 -3 -4 3 7 24 -31 -81
-108 55 -49 -19 -21 8 21 43
127 -80 -49 64 -37 30 -14 -8
-16 -15 79 -59 127 -30 -26 -65
5 -13 74 -85 -12 15 57 -71
100 11 -35 127 10 11 -20 42
-7 127 50 -72 12 -86 48 112
-79 68 7 3 20 -45 -105 54
120 76 -35 37 44 41 -19 -5
-68 36 -28 -19 5 11 36 40
116 -43 -84 41 57 87 17 25
0 -3 -20 -127 -4 -25 68 -62
-35 3 -20 -35 6 45 120 -109
-16 83 12 126 27 73 -36 80
-32 41 -38 105 -47 -88 -71 113
-73 -1 -45 5 -54 18 73 35
-54 -7 17 -15 -1 -42 21 -12
9 -53 -38 31 -61 -22 -4 -4
31 -1 47 22 44 73 0 127
13 -13 58 -39 4 -101 90 -103
00000000: f504 560e 060a 4b90 237f 1de0 020e 1fdd
00000010: f7fb f9c8 ff18 f951 03ef eb05 8100 9b14
00000020: dfff 2afc 14c0 04d6 e9ea d517 e706 f51b
00000030: 79dc ab16 203f 1917 0cfd 1992 fde5 45e8
00000040: eaf4 7f5c 0741 1e9a 1737 d5f2 15dc 7ffd
00000050: ed68 7fa3 5986 32d4 a420 cc0d 02b2 113d
00000060: f2fd fc03 0718 e1af 9437 cfed eb08 152b
00000070: 7fb0 cf40 db1e f2f8 f0f1 4fc5 7fe2 e6bf
00000080: 05f3 4aab f40f 39b9 640b dd7f 0a0b ec2a
00000090: f97f 32b8 0caa 3070 b144 0703 14d3 9736
000000a0: 784c dd25 2c29 edfb bc24 e4ed 050b 2428
000000b0: 74d5 ac29 3957 1119 00fd ec81 fce7 44c2
000000c0: dd03 ecdd 062d 7893 f053 0c7e 1b49 dc50
000000d0: e029 da69 d1a8 b971 b7ff d305 ca12 4923
000000e0: caf9 11f1 ffd6 15f4 09cb da1f c3ea fcfc
000000f0: 1fff 2f16 2c49 007f 0df3 3ad9 049b 5a99
