evkmimxrt1170/eiq_examples/tflm_cifar10/doc/cifarnet_quant_int8.tflite (tflite, 96296 bytes, 4 tensors)

CifarNet/conv1/weights/read i1 [32, 5, 5, 3]
3 5 -127 5 -18 -103 72 15
-52 64 -4 -37 42 -19 -33 63
3 -93 35 -19 -75 35 7 26
38 -10 61 10 5 58 73 34
-58 42 -6 8 5 -2 79 -38
-32 83 -38 -14 88 22 23 -62
-5 -3 36 -58 4 86 -87 -52
39 -68 -16 20 3 8 -28 -20
22 55 -47 20 82 -59 -36 21
-10 -23 -7 14 30 11 -66 -52
-67 15 15 15 16 29 27 6
9 4 -52 -24 -58 65 89 64
61 72 72 -64 -60 -65 -21 -29
-41 33 48 52 23 28 43 -127
-106 -106 -22 -23 -16 60 50 43
-23 -17 -18 -54 -61 -53 -1 -3
3 93 77 83 -4 -25 -9 12
-13 8 24 2 11 33 14 30
-6 -39 -29 -5 -23 0 6 -17
-37 1 2 -12 -24 3 13 35
-18 -53 117 17 -97 -7 -25 14
-40 3 49 -60 26 66 -27 -5
5 98 -12 -82 -15 25 48 -75
26 67 -79 43 104 -43 2 38
94 -21 -77 -10 9 9 -65 12
32 -87 10 74 -39 -26 4 107
-4 -65 3 -4 -21 -42 -24 -13
-68 -3 32 -8 -22 3 127 9
-14 -3 -9 4 -7 -16 10 29
24 -9 -1 -3 -19 -7 -11 11
15 12 19 -60 -64 -30 69 89
36 -58 -45 -51 10 0 42 39
00000000: 0305 8105 ee99 480f cc40 fcdb 2aed df3f
00000010: 03a3 23ed b523 071a 26f6 3d0a 053a 4922
00000020: c62a fa08 05fe 4fda e053 daf2 5816 17c2
00000030: fbfd 24c6 0456 a9cc 27bc f014 0308 e4ec
00000040: 1637 d114 52c5 dc15 f6e9 f90e 1e0b becc
00000050: bd0f 0f0f 101d 1b06 0904 cce8 c641 5940
00000060: 3d48 48c0 c4bf ebe3 d721 3034 171c 2b81
00000070: 9696 eae9 f03c 322b e9ef eeca c3cb fffd
00000080: 035d 4d53 fce7 f70c f308 1802 0b21 0e1e
00000090: fad9 e3fb e900 06ef db01 02f4 e803 0d23
000000a0: eecb 7511 9ff9 e70e d803 31c4 1a42 e5fb
000000b0: 0562 f4ae f119 30b5 1a43 b12b 68d5 0226
000000c0: 5eeb b3f6 0909 bf0c 20a9 0a4a d9e6 046b
000000d0: fcbf 03fc ebd6 e8f3 bcfd 20f8 ea03 7f09
000000e0: f2fd f704 f9f0 0a1d 18f7 fffd edf9 f50b
000000f0: 0f0c 13c4 c0e2 4559 24c6 d3cd 0a00 2a27

CifarNet/conv2/weights/read i1 [32, 5, 5, 32]
-8 0 -32 29 -42 5 19 6
16 20 -10 2 3 -6 24 -24
8 30 4 32 8 -4 35 5
-13 17 -12 -75 -1 2 0 -8
-16 8 -26 5 -7 22 14 -13
41 0 -8 -11 13 -10 18 -20
-5 -6 -3 7 8 -13 -6 -9
-38 31 -29 -69 15 -1 6 6
-40 -13 -31 35 1 10 -8 -5
41 21 -32 1 17 -5 -15 -22
7 1 7 -1 -8 -11 -16 3
-32 42 8 -59 1 31 -27 -2
-13 -8 -9 1 0 5 -4 -3
-3 12 15 -27 7 0 -10 -10
2 -22 -5 0 -11 -3 2 11
-41 34 -19 -47 -3 24 -5 -4
-49 6 -13 -14 -5 21 -11 -9
-7 -10 7 -1 -4 24 -4 -10
-32 -32 0 18 -25 8 10 9
-59 9 -20 -44 6 13 3 -23
-5 15 -1 0 -4 -14 31 -2
30 17 -7 -22 2 -9 -1 -11
-17 6 -8 -10 11 0 2 -15
26 -8 1 7 16 8 6 0
-18 8 2 -7 43 -40 5 -4
41 -18 -15 -23 15 -26 -6 -18
1 -14 -7 -29 -3 -21 20 -27
-4 5 -21 52 23 21 -29 7
-21 -6 -12 -2 89 -17 -14 5
55 -31 -11 2 -4 -17 -16 -13
13 -17 -15 -25 -21 -11 14 -5
1 -3 -10 59 3 23 -34 4
00000000: f800 e01d d605 1306 1014 f602 03fa 18e8
00000010: 081e 0420 08fc 2305 f311 f4b5 ff02 00f8
00000020: f008 e605 f916 0ef3 2900 f8f5 0df6 12ec
00000030: fbfa fd07 08f3 faf7 da1f e3bb 0fff 0606
00000040: d8f3 e123 010a f8fb 2915 e001 11fb f1ea
00000050: 0701 07ff f8f5 f003 e02a 08c5 011f e5fe
00000060: f3f8 f701 0005 fcfd fd0c 0fe5 0700 f6f6
00000070: 02ea fb00 f5fd 020b d722 edd1 fd18 fbfc
00000080: cf06 f3f2 fb15 f5f7 f9f6 07ff fc18 fcf6
00000090: e0e0 0012 e708 0a09 c509 ecd4 060d 03e9
000000a0: fb0f ff00 fcf2 1ffe 1e11 f9ea 02f7 fff5
000000b0: ef06 f8f6 0b00 02f1 1af8 0107 1008 0600
000000c0: ee08 02f9 2bd8 05fc 29ee f1e9 0fe6 faee
000000d0: 01f2 f9e3 fdeb 14e5 fc05 eb34 1715 e307
000000e0: ebfa f4fe 59ef f205 37e1 f502 fcef f0f3
000000f0: 0def f1e7 ebf5 0efb 01fd f63b 0317 de04

CifarNet/conv3/weights/read i1 [64, 5, 5, 32]
-36 -36 16 24 -17 20 -31 26
13 -25 -39 -22 40 5 -23 17
23 -14 -40 9 -52 1 -49 1
33 -63 21 9 17 30 29 -19
14 22 -14 -14 11 14 -33 -13
12 -32 21 -14 -14 -16 -32 14
24 26 20 3 15 9 -63 6
10 -55 8 -22 20 30 4 -60
20 36 -18 -9 -30 7 -11 -1
-8 -19 23 20 28 7 17 -32
9 32 19 3 39 27 -15 14
-14 -15 -21 -35 26 16 13 -17
32 9 -17 28 -35 -17 -9 7
-20 -14 -20 30 5 3 -9 11
13 33 -45 7 20 -17 -3 7
-1 -18 -43 -24 -18 -12 33 -10
32 -38 -12 -27 2 -26 24 18
-11 -36 -13 -30 8 19 -16 7
-39 -68 1 -25 -2 -55 -16 -1
9 -8 -39 37 11 7 50 9
-20 -57 54 9 61 6 19 -38
45 -49 -7 -83 -10 -1 -14 61
-10 -77 3 -18 -23 -16 -65 -3
-1 10 -4 -11 1 -19 32 20
-27 8 13 -49 69 38 23 -46
44 -15 26 -38 -27 -32 -10 55
-6 16 20 -6 7 -17 -45 2
1 -27 -29 -31 -13 26 28 -16
-13 44 8 -38 -19 15 -35 -43
-24 -11 -28 18 14 -35 -21 16
34 68 -8 -7 12 18 -12 16
8 15 -45 -37 6 46 22 -32
00000000: dcdc 1018 ef14 e11a 0de7 d9ea 2805 e911
00000010: 17f2 d809 cc01 cf01 21c1 1509 111e 1ded
00000020: 0e16 f2f2 0b0e dff3 0ce0 15f2 f2f0 e00e
00000030: 181a 1403 0f09 c106 0ac9 08ea 141e 04c4
00000040: 1424 eef7 e207 f5ff f8ed 1714 1c07 11e0
00000050: 0920 1303 271b f10e f2f1 ebdd 1a10 0def
00000060: 2009 ef1c ddef f707 ecf2 ec1e 0503 f70b
00000070: 0d21 d307 14ef fd07 ffee d5e8 eef4 21f6
00000080: 20da f4e5 02e6 1812 f5dc f3e2 0813 f007
00000090: d9bc 01e7 fec9 f0ff 09f8 d925 0b07 3209
000000a0: ecc7 3609 3d06 13da 2dcf f9ad f6ff f23d
000000b0: f6b3 03ee e9f0 bffd ff0a fcf5 01ed 2014
000000c0: e508 0dcf 4526 17d2 2cf1 1ada e5e0 f637
000000d0: fa10 14fa 07ef d302 01e5 e3e1 f31a 1cf0
000000e0: f32c 08da ed0f ddd5 e8f5 e412 0edd eb10
000000f0: 2244 f8f9 0c12 f410 080f d3db 062e 16e0

CifarNet/logits/weights/read/transpose i1 [10, 1024] scale=0.00446819 zero_point=0
0.09383199 -0.0446819 -0.00893638 -0.07149104 0.0134045705 -0.10276837 0.14298208 0.026809141
-0.0446819 -0.14298208 0.08489561 0.00446819 -0.1787276 -0.09383199 0.0446819 -0.10276837
-0.0134045705 -0.03127733 -0.026809141 -0.06255466 -0.02234095 0.03127733 0.06702285 0.03574552
-0.0893638 -0.25915504 0.07149104 0.053618282 0.00893638 0.00446819 0.03574552 -0.2234095
-0.04915009 0.10276837 0.18766399 -0.00446819 0.17425941 -0.08489561 -0.07149104 -0.02234095
-0.03127733 -0.22787769 0.026809141 0.0 -0.053618282 0.25468683 0.0 -0.12510931
-0.06702285 0.03127733 0.1385139 -0.04915009 0.03574552 -0.053618282 0.03574552 0.026809141
-0.09830018 0.02234095 0.06255466 0.06255466 0.10276837 -0.07149104 -0.04021371 -0.16085485
0.01787276 -0.1385139 -0.03127733 0.08489561 0.0446819 -0.02234095 0.12510931 0.00893638
0.0893638 -0.23681407 -0.05808647 0.00446819 -0.08042742 -0.12064113 0.00893638 -0.06255466
-0.01787276 -0.03127733 0.09830018 0.00893638 -0.15191846 -0.04021371 0.06702285 0.16979122
-0.0446819 -0.15191846 -0.0446819 0.02234095 0.0134045705 -0.07149104 0.0893638 0.06255466
0.026809141 0.04915009 -0.06702285 -0.026809141 0.19660036 -0.10276837 -0.06255466 0.00893638
0.0134045705 -0.10276837 0.0 -0.0134045705 -0.09383199 0.1787276 0.07149104 -0.03127733
0.00446819 0.04915009 -0.17425941 -0.08042742 0.03574552 -0.026809141 0.07595923 0.0893638
-0.02234095 -0.06702285 0.11617294 0.06255466 0.09830018 -0.07149104 0.01787276 -0.02234095
-0.07149104 -0.107236564 0.053618282 0.04021371 0.0893638 0.107236564 0.08489561 -0.00893638
0.20106855 -0.06255466 -0.00893638 -0.107236564 -0.08489561 -0.08042742 -0.00893638 0.0
0.02234095 0.02234095 -0.00446819 0.04915009 -0.12064113 0.00446819 0.06702285 0.06255466
-0.07595923 -0.10276837 0.00446819 0.01787276 0.06255466 -0.04021371 -0.02234095 0.1340457
0.0 -0.00893638 -0.01787276 -0.12510931 0.107236564 -0.00446819 0.12510931 0.053618282
0.053618282 0.06255466 -0.0446819 0.06255466 -0.00446819 0.12064113 0.107236564 -0.06702285
0.053618282 -0.07595923 -0.21447313 -0.16979122 -0.04021371 -0.0134045705 0.0446819 0.09830018
-0.04915009 -0.06702285 0.03127733 0.00446819 0.0893638 -0.04915009 0.053618282 -0.0446819
-0.08042742 -0.07149104 0.03574552 -0.07149104 -0.0893638 -0.08489561 -0.0446819 0.04915009
0.27255958 -0.25468683 0.026809141 -0.11617294 -0.09830018 -0.03574552 0.03574552 0.05808647
-0.08489561 -0.09383199 -0.01787276 -0.1385139 -0.1385139 -0.16979122 0.16979122 0.03574552
-0.1787276 -0.06702285 0.05808647 0.0134045705 0.04021371 0.16532303 -0.11170475 0.04021371
-0.06702285 0.01787276 -0.026809141 -0.08489561 0.06255466 -0.11170475 -0.09383199 0.053618282
-0.12957752 -0.03574552 0.03574552 0.00893638 -0.00893638 0.02234095 0.23681407 -0.02234095
0.00446819 0.06255466 -0.107236564 -0.03574552 -0.053618282 0.04915009 -0.00446819 0.01787276
-0.15191846 -0.10276837 0.0134045705 0.01787276 0.09383199 -0.15191846 -0.10276837 -0.06702285
00000000: 15f6 fef0 03e9 2006 f6e0 1301 d8eb 0ae9
00000010: fdf9 faf2 fb07 0f08 ecc6 100c 0201 08ce
00000020: f517 2aff 27ed f0fb f9cd 0600 f439 00e4
00000030: f107 1ff5 08f4 0806 ea05 0e0e 17f0 f7dc
00000040: 04e1 f913 0afb 1c02 14cb f301 eee5 02f2
00000050: fcf9 1602 def7 0f26 f6de f605 03f0 140e
00000060: 060b f1fa 2ce9 f202 03e9 00fd eb28 10f9
00000070: 010b d9ee 08fa 1114 fbf1 1a0e 16f0 04fb
00000080: f0e8 0c09 1418 13fe 2df2 fee8 edee fe00
00000090: 0505 ff0b e501 0f0e efe9 0104 0ef7 fb1e
000000a0: 00fe fce4 18ff 1c0c 0c0e f60e ff1b 18f1
000000b0: 0cef d0da f7fd 0a16 f5f1 0701 14f5 0cf6
000000c0: eef0 08f0 eced f60b 3dc7 06e6 eaf8 080d
000000d0: edeb fce1 e1da 2608 d8f1 0d03 0925 e709
000000e0: f104 faed 0ee7 eb0c e3f8 0802 fe05 35fb
000000f0: 010e e8f8 f40b ff04 dee9 0304 15de e9f1
